files/processed_files/player/0/player_0_38.npy (npy, 2192 bytes, 1 tensors)

array f8 [258]
0.5632041096687317 0.26884725689888 -0.8012692332267761 0.9998933672904968 0.5910714864730835 0.22156433761119843 -0.7502228021621704 0.9998126029968262
0.6056740880012512 0.2202533781528473 -0.7502430081367493 0.9997910857200623 0.6169091463088989 0.21955634653568268 -0.7495167255401611 0.9997803568840027
0.5422316789627075 0.22374863922595978 -0.7445602416992188 0.999826192855835 0.5272307991981506 0.2234981209039688 -0.7445321679115295 0.9998287558555603
0.5147603750228882 0.22297519445419312 -0.7448387145996094 0.9998459219932556 0.6429693102836609 0.24253442883491516 -0.3798704445362091 0.9997063279151917
0.49968037009239197 0.24774830043315887 -0.3506454527378082 0.9998317956924438 0.5951505303382874 0.3159157335758209 -0.664433479309082 0.9999170899391174
0.5348756313323975 0.3174290359020233 -0.6572715044021606 0.9999347925186157 0.7400740385055542 0.502753496170044 -0.128520667552948 0.9988601207733154
0.42002734541893005 0.5081154704093933 -0.11681929975748062 0.9992857575416565 0.8453811407089233 0.9071319103240967 -0.5962470173835754 0.907716691493988
0.31710362434387207 0.9181126356124878 -0.5571399927139282 0.9193539023399353 0.7833167314529419 0.6357398629188538 -1.4461634159088135 0.8321821689605713
0.37565141916275024 0.6301228404045105 -1.4351263046264648 0.8382941484451294 0.7756673097610474 0.5876864194869995 -1.5848723649978638 0.8230834603309631
0.38763248920440674 0.5773372054100037 -1.564914345741272 0.8253424167633057 0.7639763951301575 0.5553028583526611 -1.5352824926376343 0.840900182723999
0.40165600180625916 0.5412843823432922 -1.5150516033172607 0.8416153788566589 0.7568285465240479 0.5711920261383057 -1.4442945718765259 0.831847071647644
0.4079064428806305 0.559126079082489 -1.433749794960022 0.8321073055267334 0.6794883608818054 1.1004890203475952 -0.027674412354826927 0.2831060290336609
0.4682563841342926 1.039048671722412 0.030832817777991295 0.27516046166419983 0.6821661591529846 1.5602281093597412 -0.008463163860142231 0.022757962346076965
0.460635244846344 1.551724910736084 0.13281692564487457 0.014835461042821407 0.6760866641998291 1.9678924083709717 0.42803844809532166 0.002249211072921753
0.4659864008426666 1.967793583869934 0.5046947002410889 0.002178363036364317 0.6817753911018372 2.0200629234313965 0.44166141748428345 0.0011618012795224786
0.4563177525997162 2.0248591899871826 0.52872633934021 0.0027343740221112967 0.6448737382888794 2.1088931560516357 -0.03383919596672058 0.002009874675422907
0.4998122751712799 2.1023828983306885 0.024909360334277153 0.004356532357633114 0.7527714371681213 0.6234157681465149 -3.7309678191377316e-07 0.7314808368682861
0.5816161632537842 -0.011653834022581577 0.7231992483139038 0.5265157222747803 -0.016142388805747032 0.7192373871803284 0.4855786859989166 -0.019805626943707466
0.7115917205810547 0.45092761516571045 -0.022295385599136353 0.7604799270629883 0.4988766312599182 -0.011803054250776768 0.7264293432235718 0.512180507183075
-0.024529332295060158 0.7172178030014038 0.5414004325866699 -0.03203772008419037 0.7162135243415833 0.5619217753410339 -0.03534891828894615 0.7786034345626831
0.5157267451286316 -0.011260007508099079 0.73995041847229 0.5356073379516602 -0.022672979161143303 0.7282792329788208 0.562385082244873 -0.02862662635743618
0.7239978909492493 0.5810038447380066 -0.03229115530848503 0.790784478187561 0.5414375066757202 -0.012440740130841732 0.7540152072906494 0.5571504235267639
-0.026628049090504646 0.7374559640884399 0.5751630663871765 -0.030921872705221176 0.7270263433456421 0.591090738773346 -0.03159632906317711 0.796751081943512
0.5704595446586609 -0.014093687757849693 0.7796443104743958 0.5703828930854797 -0.02510782890021801 0.7735156416893005 0.5729509592056274 -0.0285988450050354
0.7694717645645142 0.5783054232597351 -0.029003094881772995 0.7527714371681213 0.6234157681465149 -3.7309678191377316e-07 0.7314808368682861 0.5816161632537842
-0.011653834022581577 0.7231992483139038 0.5265157222747803 -0.016142388805747032 0.7192373871803284 0.4855786859989166 -0.019805626943707466 0.7115917205810547
0.45092761516571045 -0.022295385599136353 0.7604799270629883 0.4988766312599182 -0.011803054250776768 0.7264293432235718 0.512180507183075 -0.024529332295060158
0.7172178030014038 0.5414004325866699 -0.03203772008419037 0.7162135243415833 0.5619217753410339 -0.03534891828894615 0.7786034345626831 0.5157267451286316
-0.011260007508099079 0.73995041847229 0.5356073379516602 -0.022672979161143303 0.7282792329788208 0.562385082244873 -0.02862662635743618 0.7239978909492493
0.5810038447380066 -0.03229115530848503 0.790784478187561 0.5414375066757202 -0.012440740130841732 0.7540152072906494 0.5571504235267639 -0.026628049090504646
0.7374559640884399 0.5751630663871765 -0.030921872705221176 0.7270263433456421 0.591090738773346 -0.03159632906317711 0.796751081943512 0.5704595446586609
-0.014093687757849693 0.7796443104743958 0.5703828930854797 -0.02510782890021801 0.7735156416893005 0.5729509592056274 -0.0285988450050354 0.7694717645645142
00000000: 0000 00a0 c405 e23f 0000 0020 cb34 d13f
00000010: 0000 0060 ffa3 e9bf 0000 0060 20ff ef3f
00000020: 0000 00c0 0eea e23f 0000 0060 385c cc3f
00000030: 0000 0040 d301 e8bf 0000 0000 77fe ef3f
00000040: 0000 00a0 ae61 e33f 0000 0040 4331 cc3f
00000050: 0000 00a0 fd01 e8bf 0000 00e0 49fe ef3f
00000060: 0000 0040 b8bd e33f 0000 0020 6c1a cc3f
00000070: 0000 0080 0afc e7bf 0000 0060 33fe ef3f
00000080: 0000 0040 f659 e13f 0000 00a0 cba3 cc3f
00000090: 0000 0000 70d3 e7bf 0000 0080 93fe ef3f
000000a0: 0000 0020 13df e03f 0000 0020 969b cc3f
000000b0: 0000 0020 35d3 e7bf 0000 00e0 98fe ef3f
000000c0: 0000 00c0 ea78 e03f 0000 0080 738a cc3f
000000d0: 0000 0000 b8d5 e7bf 0000 00e0 bcfe ef3f
000000e0: 0000 0060 3493 e43f 0000 0040 5e0b cf3f
000000f0: 0000 0020 cc4f d8bf 0000 0020 98fd ef3f
00000100: 0000 0060 c3fa df3f 0000 0060 37b6 cf3f
00000110: 0000 00a0 f970 d6bf 0000 0040 9ffe ef3f
00000120: 0000 0020 790b e33f 0000 00a0 f637 d43f
00000130: 0000 0000 0a43 e5bf 0000 0020 52ff ef3f
00000140: 0000 0080 b31d e13f 0000 00e0 c150 d43f
00000150: 0000 0040 5e08 e5bf 0000 0040 77ff ef3f
00000160: 0000 00c0 afae e73f 0000 0080 8e16 e03f
00000170: 0000 0080 5d73 c0bf 0000 0080 a9f6 ef3f
00000180: 0000 0060 bae1 da3f 0000 0060 7b42 e03f
00000190: 0000 00a0 dee7 bdbf 0000 0020 26fa ef3f
000001a0: 0000 00c0 5c0d eb3f 0000 0080 3907 ed3f
000001b0: 0000 00a0 7414 e3bf 0000 00e0 030c ed3f
000001c0: 0000 0000 6d4b d43f 0000 00c0 2d61 ed3f
000001d0: 0000 0040 17d4 e1bf 0000 00e0 586b ed3f
000001e0: 0000 0040 ee10 e93f 0000 0020 fb57 e43f
000001f0: 0000 0040 7c23 f7bf 0000 0080 3ca1 ea3f
00000200: 0000 0040 ac0a d83f 0000 0060 f729 e43f
00000210: 0000 0000 47f6 f6bf 0000 0040 4ed3 ea3f
00000220: 0000 0040 44d2 e83f 0000 00c0 53ce e23f
00000230: 0000 0020 a35b f9bf 0000 0020 b356 ea3f
00000240: 0000 0080 f8ce d83f 0000 00e0 8b79 e23f
00000250: 0000 00a0 e309 f9bf 0000 0080 3469 ea3f
00000260: 0000 00a0 7e72 e83f 0000 0080 0ac5 e13f
00000270: 0000 0060 8490 f8bf 0000 0080 a7e8 ea3f
00000280: 0000 0060 bbb4 d93f 0000 00a0 3352 e13f
00000290: 0000 00c0 a63d f8bf 0000 0060 83ee ea3f
000002a0: 0000 0080 f037 e83f 0000 0080 3447 e23f
000002b0: 0000 00a0 d41b f7bf 0000 00c0 7d9e ea3f
000002c0: 0000 00a0 231b da3f 0000 0060 5ce4 e13f
000002d0: 0000 00a0 a3f0 f6bf 0000 0080 9fa0 ea3f
000002e0: 0000 0060 5ebe e53f 0000 0060 9a9b f13f
000002f0: 0000 0060 ae56 9cbf 0000 00c0 681e d23f
00000300: 0000 00a0 e9f7 dd3f 0000 0080 f19f f03f
00000310: 0000 0060 a392 9f3f 0000 00a0 3a9c d13f
00000320: 0000 0020 4ed4 e53f 0000 00c0 b1f6 f83f
00000330: 0000 00a0 2255 81bf 0000 0000 dd4d 973f
00000340: 0000 0040 0c7b dd3f 0000 0080 ddd3 f83f
00000350: 0000 0020 2500 c13f 0000 00e0 0d62 8e3f
00000360: 0000 0080 80a2 e53f 0000 00c0 7c7c ff3f
00000370: 0000 0060 fb64 db3f 0000 0000 f06c 623f
00000380: 0000 00a0 b8d2 dd3f 0000 0020 157c ff3f
00000390: 0000 0080 7526 e03f 0000 00c0 5bd8 613f
000003a0: 0000 00a0 1ad1 e53f 0000 00c0 1629 0040
000003b0: 0000 0040 2e44 dc3f 0000 00a0 f208 533f
000003c0: 0000 0060 4f34 dd3f 0000 0060 e932 0040
000003d0: 0000 0080 53eb e03f 0000 00e0 6566 663f
000003e0: 0000 0040 cea2 e43f 0000 0060 03df 0040
000003f0: 0000 0000 5f53 a1bf 0000 0040 0377 603f
00000400: 0000 00a0 ecfc df3f 0000 0020 aed1 0040
00000410: 0000 00e0 d681 993f 0000 00c0 27d8 713f
00000420: 0000 0020 b416 e83f 0000 00a0 05f3 e33f
00000430: 0000 0000 c109 99be 0000 0080 4a68 e73f
00000440: 0000 0080 999c e23f 0000 0020 f7dd 87bf
00000450: 0000 00c0 7224 e73f 0000 0080 37d9 e03f
00000460: 0000 0060 a187 90bf 0000 0020 fe03 e73f
00000470: 0000 00a0 b813 df3f 0000 0020 ed47 94bf
00000480: 0000 0000 5cc5 e63f 0000 0080 ffdb dc3f
00000490: 0000 0000 9ad4 96bf 0000 0000 da55 e83f
000004a0: 0000 0040 98ed df3f 0000 0020 332c 88bf
000004b0: 0000 00c0 e83e e73f 0000 0060 c863 e03f
000004c0: 0000 00a0 371e 99bf 0000 00c0 72f3 e63f
000004d0: 0000 0000 2753 e13f 0000 0080 3f67 a0bf
000004e0: 0000 00a0 38eb e63f 0000 0060 43fb e13f
000004f0: 0000 00e0 4019 a2bf 0000 00c0 51ea e83f
00000500: 0000 0060 d580 e03f 0000 00a0 7c0f 87bf
00000510: 0000 0080 acad e73f 0000 0000 b223 e13f
00000520: 0000 00e0 9537 97bf 0000 0040 104e e73f
00000530: 0000 0000 0fff e13f 0000 0060 4c50 9dbf
00000540: 0000 00a0 fd2a e73f 0000 0060 9597 e23f
00000550: 0000 0060 7788 a0bf 0000 0040 1b4e e93f
00000560: 0000 00c0 7453 e13f 0000 00e0 877a 89bf
00000570: 0000 0080 e420 e83f 0000 0020 2dd4 e13f
00000580: 0000 0020 6244 9bbf 0000 0040 3d99 e73f
00000590: 0000 0060 bc67 e23f 0000 00c0 fba9 9fbf
000005a0: 0000 00c0 cc43 e73f 0000 0020 37ea e23f
000005b0: 0000 00e0 642d a0bf 0000 0020 fc7e e93f
000005c0: 0000 0060 3441 e23f 0000 00c0 26dd 8cbf
000005d0: 0000 00a0 d8f2 e83f 0000 00a0 9340 e23f
000005e0: 0000 00e0 ddb5 99bf 0000 00e0 a3c0 e83f
000005f0: 0000 0040 9d55 e23f 0000 0000 0449 9dbf
00000600: 0000 0040 839f e83f 0000 0060 7a81 e23f
00000610: 0000 00c0 fcb2 9dbf 0000 0020 b416 e83f
00000620: 0000 00a0 05f3 e33f 0000 0000 c109 99be
00000630: 0000 0080 4a68 e73f 0000 0080 999c e23f
00000640: 0000 0020 f7dd 87bf 0000 00c0 7224 e73f
00000650: 0000 0080 37d9 e03f 0000 0060 a187 90bf
00000660: 0000 0020 fe03 e73f 0000 00a0 b813 df3f
00000670: 0000 0020 ed47 94bf 0000 0000 5cc5 e63f
00000680: 0000 0080 ffdb dc3f 0000 0000 9ad4 96bf
00000690: 0000 0000 da55 e83f 0000 0040 98ed df3f
000006a0: 0000 0020 332c 88bf 0000 00c0 e83e e73f
000006b0: 0000 0060 c863 e03f 0000 00a0 371e 99bf
000006c0: 0000 00c0 72f3 e63f 0000 0000 2753 e13f
000006d0: 0000 0080 3f67 a0bf 0000 00a0 38eb e63f
000006e0: 0000 0060 43fb e13f 0000 00e0 4019 a2bf
000006f0: 0000 00c0 51ea e83f 0000 0060 d580 e03f
00000700: 0000 00a0 7c0f 87bf 0000 0080 acad e73f
00000710: 0000 0000 b223 e13f 0000 00e0 9537 97bf
00000720: 0000 0040 104e e73f 0000 0000 0fff e13f
00000730: 0000 0060 4c50 9dbf 0000 00a0 fd2a e73f
00000740: 0000 0060 9597 e23f 0000 0060 7788 a0bf
00000750: 0000 0040 1b4e e93f 0000 00c0 7453 e13f
00000760: 0000 00e0 877a 89bf 0000 0080 e420 e83f
00000770: 0000 0020 2dd4 e13f 0000 0020 6244 9bbf
00000780: 0000 0040 3d99 e73f 0000 0060 bc67 e23f
00000790: 0000 00c0 fba9 9fbf 0000 00c0 cc43 e73f
000007a0: 0000 0020 37ea e23f 0000 00e0 642d a0bf
000007b0: 0000 0020 fc7e e93f 0000 0060 3441 e23f
000007c0: 0000 00c0 26dd 8cbf 0000 00a0 d8f2 e83f
000007d0: 0000 00a0 9340 e23f 0000 00e0 ddb5 99bf
000007e0: 0000 00e0 a3c0 e83f 0000 0040 9d55 e23f
000007f0: 0000 0000 0449 9dbf 0000 0040 839f e83f
