files/processed_files/player/0/player_0_61.npy (npy, 2192 bytes, 1 tensors)

array f8 [258]
0	0x3fe2138340000000	0.5648819208145142
1	0x3fd169e0e0000000	0.27208730578422546
2	0xbfea3d7100000000	-0.820000171661377
3	0x3fefffe900000000	0.9999890327453613
4	0x3fe2ef5180000000	0.5917136669158936
5	0x3fccc91940000000	0.22488704323768616
6	0xbfe8c77cc0000000	-0.7743514776229858
7	0x3fefffd640000000	0.999980092048645
8	0x3fe36597c0000000	0.6061514616012573
9	0x3fcc8027a0000000	0.22266097366809845
10	0xbfe8c78680000000	-0.7743561267852783
11	0x3fefffd3a0000000	0.9999788403511047
12	0x3fe3bf68c0000000	0.6171153783798218
13	0x3fcc536000000000	0.22129440307617188
14	0xbfe8c2c940000000	-0.7737776041030884
15	0x3fefffce40000000	0.9999762773513794
16	0x3fe15e9840000000	0.5427972078323364
17	0x3fcd3f3a80000000	0.22849208116531372
18	0xbfe86bb2a0000000	-0.763146698474884
19	0x3fefffd7a0000000	0.9999807476997375
20	0x3fe0ddfe60000000	0.5270988345146179
21	0x3fcd368c20000000	0.2282271534204483
22	0xbfe86bb880000000	-0.7631494998931885
23	0x3fefffd9c0000000	0.9999817609786987
24	0x3fe0780dc0000000	0.5146549940109253
25	0x3fcd41bf40000000	0.2285689413547516
26	0xbfe86e1d40000000	-0.7634416818618774
27	0x3fefffd9e0000000	0.9999818205833435
28	0x3fe49550c0000000	0.6432269811630249
29	0x3fcf4d0120000000	0.24453748762607574
30	0xbfdac8e140000000	-0.4185107350349426
31	0x3fefffc2e0000000	0.9999708533287048
32	0x3fdfe48340000000	0.4983223080635071
33	0x3fd0443c00000000	0.2541646957397461
34	0xbfd74d6c00000000	-0.36410045623779297
35	0x3fefffdac0000000	0.9999822378158569
36	0x3fe315b840000000	0.5964013338088989
37	0x3fd46253c0000000	0.31850141286849976
38	0xbfe5fd5c40000000	-0.6871777772903442
39	0x3fefffeda0000000	0.999991238117218
40	0x3fe136fd20000000	0.5379624962806702
41	0x3fd498dbc0000000	0.32182973623275757
42	0xbfe58797e0000000	-0.6728019118309021
43	0x3feffff020000000	0.9999924302101135
44	0x3fe78e7880000000	0.7361414432525635
45	0x3fdf602360000000	0.4902428090572357
46	0xbfc7501000000000	-0.1821308135986328
47	0x3fefff1060000000	0.9998857378959656
48	0x3fdb5b42a0000000	0.42744508385658264
49	0x3fe0000280000000	0.5000011920928955
50	0xbfbfb252c0000000	-0.12381474673748016
51	0x3fefff44a0000000	0.9999106526374817
52	0x3feb336400000000	0.8500232696533203
53	0x3fec77e400000000	0.8896350860595703
54	0xbfe53bb460000000	-0.6635381579399109
55	0x3fefa6b1a0000000	0.9890983700752258
56	0x3fd35fcdc0000000	0.30272239446640015
57	0x3fec88f4e0000000	0.891718327999115
58	0xbfe16baf40000000	-0.5443950891494751
59	0x3fefa02dc0000000	0.9883030652999878
60	0x3fe9276980000000	0.7860610485076904
61	0x3fe43cc520000000	0.6324182152748108
62	0xbff88fd220000000	-1.5351125001907349
63	0x3fef846900000000	0.9849133491516113
64	0x3fd7909d00000000	0.36820149421691895
65	0x3fe458d980000000	0.6358458995819092
66	0xbff64a1c40000000	-1.3930933475494385
67	0x3fef872d00000000	0.9852509498596191
68	0x3fe8b5ce40000000	0.7721930742263794
69	0x3fe20bb880000000	0.5639307498931885
70	0xbffad227a0000000	-1.6763073205947876
71	0x3fef794a40000000	0.9835559129714966
72	0x3fd90e9d60000000	0.3915170133113861
73	0x3fe290d920000000	0.5801816582679749
74	0xbff86d2340000000	-1.5266449451446533
75	0x3fef7704e0000000	0.9832786917686462
76	0x3fe8a5e840000000	0.7702523469924927
77	0x3fe0c77a20000000	0.5243502259254456
78	0xbffa1b8f00000000	-1.631728172302246
79	0x3fef85f900000000	0.9851040840148926
80	0x3fd9bf10c0000000	0.40228670835494995
81	0x3fe14cd380000000	0.54062819480896
82	0xbff7dc01c0000000	-1.4912126064300537
83	0x3fef81f880000000	0.9846155643463135
84	0x3fe87fe1a0000000	0.7656105160713196
85	0x3fe192d8e0000000	0.5491756796836853
86	0xbff896a180000000	-1.5367751121520996
87	0x3fef7cbc00000000	0.9839763641357422
88	0x3fd9dceb00000000	0.40410876274108887
89	0x3fe1e72ac0000000	0.5594686269760132
90	0xbff65cecc0000000	-1.3976867198944092
91	0x3fef78c440000000	0.9834920167922974
92	0x3fe5b04240000000	0.677765965461731
93	0x3ff0b55fe0000000	1.0442808866500854
94	0xbfa39987c0000000	-0.03828071802854538
95	0x3fdac778c0000000	0.4184247851371765
96	0x3fdea9f060000000	0.47912225127220154
97	0x3ff0805960000000	1.0313352346420288
98	0x3fa5083a20000000	0.041078392416238785
99	0x3fdb9533e0000000	0.4309816062450409
100	0x3fe5edc380000000	0.6852738857269287
101	0x3ff8abf280000000	1.5419793128967285
102	0x3f9fbdf7c0000000	0.0309981070458889
103	0x3f70da4540000000	0.004114408977329731
104	0x3fdddfcf60000000	0.4667852818965912
105	0x3ff8a7d320000000	1.5409728288650513
106	0x3fc792d340000000	0.1841682493686676
107	0x3f6b182440000000	0.0033074100501835346
108	0x3fe5ae03c0000000	0.6774920225143433
109	0x3fff26a560000000	1.9469350576400757
110	0x3fdf1d32a0000000	0.486157089471817
111	0x3f373747e0000000	0.0003542471386026591
112	0x3fde2715a0000000	0.47113552689552307
113	0x3fff3321e0000000	1.9499834775924683
114	0x3fe1e06380000000	0.5586411952972412
115	0x3f348d2b40000000	0.0003135901060886681
116	0x3fe5e70d20000000	0.6844545006752014
117	0x3ffff97ee0000000	1.998412013053894
118	0x3fe02147e0000000	0.5040625929832458
119	0x3f31387980000000	0.0002627655630931258
120	0x3fddac84c0000000	0.46365469694137573
121	0x4000061d20000000	2.0029852390289307
122	0x3fe2ae4380000000	0.5837724208831787
123	0x3f41371f80000000	0.0005253700073808432
124	0x3fe4928660000000	0.6428863406181335
125	0x4000b497a0000000	2.08817982673645
126	0x3fa56e5ee0000000	0.04185768589377403
127	0x3f352a0f80000000	0.00032294157426804304
128	0x3fe0210780000000	0.5040318965911865
129	0x4000ba9580000000	2.0911054611206055
130	0x3fb89a3460000000	0.09610297530889511
131	0x3f4c381c20000000	0.0008611810044385493
132	0x3fe941b700000000	0.7892718315124512
133	0x3fe3cedbe0000000	0.6190013289451599
134	0xbe51c626a0000000	-1.655335246653067e-08
135	0x3fe8d10de0000000	0.7755193114280701
136	0x3fe1b68c60000000	0.5535337328910828
137	0xbf68518e00000000	-0.002968575805425644
138	0x3fe8a5dc80000000	0.7702467441558838
139	0x3fdfb50760000000	0.4954241216182709
140	0xbf7f03aa20000000	-0.007571854162961245
141	0x3fe8b28d00000000	0.7717957496643066
142	0x3fdcb7b000000000	0.4487113952636719
143	0xbf8afee500000000	-0.01318148523569107
144	0x3fe8cf5f40000000	0.7753139734268188
145	0x3fda7416a0000000	0.4133354723453522
146	0xbf94a31c00000000	-0.020153462886810303
147	0x3fe9060f00000000	0.781989574432373
148	0x3fe0833860000000	0.5160180926322937
149	0xbf8e47c340000000	-0.014785313978791237
150	0x3fe8ada1e0000000	0.7711953520774841
151	0x3fdf41bfa0000000	0.48838797211647034
152	0xbf9e2c0760000000	-0.029464831575751305
153	0x3fe88910a0000000	0.7667315602302551
154	0x3fde0dfc20000000	0.469603568315506
155	0xbfa50b8100000000	-0.04110339283943176
156	0x3fe86b8c40000000	0.763128399848938
157	0x3fdccfbcc0000000	0.4501792788505554
158	0xbfa9859ec0000000	-0.0498475655913353
159	0x3fe8f785a0000000	0.7802150845527649
160	0x3fe1373920000000	0.5379911065101624
161	0xbf9641ea80000000	-0.021735824644565582
162	0x3fe88ba440000000	0.7670460939407349
163	0x3fe0622ca0000000	0.5119841694831848
164	0xbfa1473580000000	-0.03374640643596649
165	0x3fe8629560000000	0.7620341181755066
166	0x3fdfaa2b80000000	0.4947613477706909
167	0xbfa51f31e0000000	-0.041253622621297836
168	0x3fe845b700000000	0.7585101127624512
169	0x3fde9869e0000000	0.4780525863170624
170	0xbfa9288720000000	-0.04913732782006264
171	0x3fe8ce9940000000	0.7752195596694946
172	0x3fe20925a0000000	0.5636165738105774
173	0xbf9e1c4100000000	-0.0294046550989151
174	0x3fe87783c0000000	0.7645891904830933
175	0x3fe12c5180000000	0.5366599559783936
176	0xbfa5a1bec0000000	-0.0422496423125267
177	0x3fe8368cc0000000	0.7566589117050171
178	0x3fe08aaa40000000	0.5169268846511841
179	0xbfa7fe4420000000	-0.04686177149415016
180	0x3fe809c6a0000000	0.7511933445930481
181	0x3fdfe35aa0000000	0.4982515871524811
182	0xbfaa679940000000	-0.051571644842624664
183	0x3fe8943f20000000	0.7680965065956116
184	0x3fe30061a0000000	0.5937965512275696
185	0xbfa31bc820000000	-0.03732133284211159
186	0x3fe847dea0000000	0.758773148059845
187	0x3fe25d62c0000000	0.5738996267318726
188	0xbfa9033720000000	-0.04885265603661537
189	0x3fe80eb640000000	0.7517958879470825
190	0x3fe1e21960000000	0.5588499903678894
191	0xbfab178320000000	-0.05291375890374184
192	0x3fe7deb840000000	0.7459374666213989
193	0x3fe179dec0000000	0.5461267232894897
194	0xbfad290fe0000000	-0.056953903287649155
195	0x3fe941b700000000	0.7892718315124512
196	0x3fe3cedbe0000000	0.6190013289451599
197	0xbe51c626a0000000	-1.655335246653067e-08
198	0x3fe8d10de0000000	0.7755193114280701
199	0x3fe1b68c60000000	0.5535337328910828
200	0xbf68518e00000000	-0.002968575805425644
201	0x3fe8a5dc80000000	0.7702467441558838
202	0x3fdfb50760000000	0.4954241216182709
203	0xbf7f03aa20000000	-0.007571854162961245
204	0x3fe8b28d00000000	0.7717957496643066
205	0x3fdcb7b000000000	0.4487113952636719
206	0xbf8afee500000000	-0.01318148523569107
207	0x3fe8cf5f40000000	0.7753139734268188
208	0x3fda7416a0000000	0.4133354723453522
209	0xbf94a31c00000000	-0.020153462886810303
210	0x3fe9060f00000000	0.781989574432373
211	0x3fe0833860000000	0.5160180926322937
212	0xbf8e47c340000000	-0.014785313978791237
213	0x3fe8ada1e0000000	0.7711953520774841
214	0x3fdf41bfa0000000	0.48838797211647034
215	0xbf9e2c0760000000	-0.029464831575751305
216	0x3fe88910a0000000	0.7667315602302551
217	0x3fde0dfc20000000	0.469603568315506
218	0xbfa50b8100000000	-0.04110339283943176
219	0x3fe86b8c40000000	0.763128399848938
220	0x3fdccfbcc0000000	0.4501792788505554
221	0xbfa9859ec0000000	-0.0498475655913353
222	0x3fe8f785a0000000	0.7802150845527649
223	0x3fe1373920000000	0.5379911065101624
224	0xbf9641ea80000000	-0.021735824644565582
225	0x3fe88ba440000000	0.7670460939407349
226	0x3fe0622ca0000000	0.5119841694831848
227	0xbfa1473580000000	-0.03374640643596649
228	0x3fe8629560000000	0.7620341181755066
229	0x3fdfaa2b80000000	0.4947613477706909
230	0xbfa51f31e0000000	-0.041253622621297836
231	0x3fe845b700000000	0.7585101127624512
232	0x3fde9869e0000000	0.4780525863170624
233	0xbfa9288720000000	-0.04913732782006264
234	0x3fe8ce9940000000	0.7752195596694946
235	0x3fe20925a0000000	0.5636165738105774
236	0xbf9e1c4100000000	-0.0294046550989151
237	0x3fe87783c0000000	0.7645891904830933
238	0x3fe12c5180000000	0.5366599559783936
239	0xbfa5a1bec0000000	-0.0422496423125267
240	0x3fe8368cc0000000	0.7566589117050171
241	0x3fe08aaa40000000	0.5169268846511841
242	0xbfa7fe4420000000	-0.04686177149415016
243	0x3fe809c6a0000000	0.7511933445930481
244	0x3fdfe35aa0000000	0.4982515871524811
245	0xbfaa679940000000	-0.051571644842624664
246	0x3fe8943f20000000	0.7680965065956116
247	0x3fe30061a0000000	0.5937965512275696
248	0xbfa31bc820000000	-0.03732133284211159
249	0x3fe847dea0000000	0.758773148059845
250	0x3fe25d62c0000000	0.5738996267318726
251	0xbfa9033720000000	-0.04885265603661537
252	0x3fe80eb640000000	0.7517958879470825
253	0x3fe1e21960000000	0.5588499903678894
254	0xbfab178320000000	-0.05291375890374184
255	0x3fe7deb840000000	0.7459374666213989
