files/processed_files/weight/5/weight_5_2.npy (npy, 2192 bytes, 1 tensors)

array f8 [258]
0	0x3fdebbf340000000	0.48022156953811646
1	0x3fd38552e0000000	0.30501243472099304
2	0xbfec0482c0000000	-0.8755506277084351
3	0x3fefffed00000000	0.9999909400939941
4	0x3fe00d80a0000000	0.5016482472419739
5	0x3fd0f188c0000000	0.26474207639694214
6	0xbfea374040000000	-0.8192445039749146
7	0x3fefffe260000000	0.9999858736991882
8	0x3fe0720700000000	0.5139193534851074
9	0x3fd0f5b580000000	0.26499688625335693
10	0xbfea39fda0000000	-0.8195789456367493
11	0x3fefffe4c0000000	0.999987006187439
12	0x3fe0d50ba0000000	0.5260065197944641
13	0x3fd0fafb40000000	0.26531869173049927
14	0xbfea374f00000000	-0.819251537322998
15	0x3fefffdaa0000000	0.9999821782112122
16	0x3fdd9ee6c0000000	0.4628235697746277
17	0x3fd1136d80000000	0.2668107748031616
18	0xbfea3c3d40000000	-0.8198534250259399
19	0x3fefffe040000000	0.999984860420227
20	0x3fdcf474a0000000	0.4524203836917877
21	0x3fd1392920000000	0.26911380887031555
22	0xbfea3ba7a0000000	-0.8197820782661438
23	0x3fefffe4c0000000	0.999987006187439
24	0x3fdc1c3860000000	0.43922242522239685
25	0x3fd16da0a0000000	0.2723161280155182
26	0xbfea3e7fa0000000	-0.8201292157173157
27	0x3fefffdcc0000000	0.9999831914901733
28	0x3fe187a680000000	0.5478088855743408
29	0x3fd2712320000000	0.28815534710884094
30	0xbfda271c60000000	-0.408637136220932
31	0x3fefffdc20000000	0.9999828934669495
32	0x3fdb092460000000	0.4224329888820648
33	0x3fd2eb6be0000000	0.2956189811229706
34	0xbfda1c7340000000	-0.40798646211624146
35	0x3fefffe240000000	0.9999858140945435
36	0x3fe0403540000000	0.5078378915786743
37	0x3fd64b4920000000	0.3483450710773468
38	0xbfe71e7540000000	-0.7224680185317993
39	0x3feffff2c0000000	0.9999936819076538
40	0x3fdd4848a0000000	0.45753684639930725
41	0x3fd650b160000000	0.34867510199546814
42	0xbfe72b6ec0000000	-0.724051833152771
43	0x3feffff280000000	0.9999935626983643
44	0x3fe469abc0000000	0.6378992795944214
45	0x3fe0fa2d00000000	0.5305390357971191
46	0xbfc581d760000000	-0.168024942278862
47	0x3fefff8960000000	0.9999434351921082
48	0x3fd57219c0000000	0.33508914709091187
49	0x3fe12a9860000000	0.5364496111869812
50	0xbfc13dd2c0000000	-0.13469919562339783
51	0x3feffe3580000000	0.9997813701629639
52	0x3fe785e0e0000000	0.7350925803184509
53	0x3fec065740000000	0.8757740259170532
54	0xbfe006ac40000000	-0.5008145570755005
55	0x3fefcaffc0000000	0.9935301542282104
56	0x3fcae05500000000	0.20997107028961182
57	0x3feb502120000000	0.8535314202308655
58	0xbfe0ac8100000000	-0.5210576057434082
59	0x3fefc2f360000000	0.9925476908683777
60	0x3fe2a2b560000000	0.5823618769645691
61	0x3fe8857ac0000000	0.7662938833236694
62	0xbff4c1a220000000	-1.2972737550735474
63	0x3feff46b80000000	0.9985864162445068
64	0x3fd4d6dea0000000	0.3256146013736725
65	0x3fe60fda40000000	0.6894351243972778
66	0xbff6de3020000000	-1.429245114326477
67	0x3fefc19180000000	0.9923789501190186
68	0x3fe11fc2c0000000	0.5351270437240601
69	0x3fe8a9e160000000	0.77073734998703
70	0xbff775ede0000000	-1.4662913084030151
71	0x3fefd00720000000	0.9941440224647522
72	0x3fd7bf28a0000000	0.371042400598526
73	0x3fe58daa20000000	0.6735430359840393
74	0xbff98bf040000000	-1.5966646671295166
75	0x3fef29bca0000000	0.9738448262214661
76	0x3fe08f1740000000	0.5174671411514282
77	0x3fe71871a0000000	0.7217338681221008
78	0xbff74f70c0000000	-1.4568946361541748
79	0x3fefd0d6e0000000	0.9942430853843689
80	0x3fd8a36dc0000000	0.3849748969078064
81	0x3fe45ce380000000	0.6363389492034912
82	0xbff95de240000000	-1.585420846939087
83	0x3fef2bc2e0000000	0.9740919470787048
84	0x3fe0da0520000000	0.5266137719154358
85	0x3fe6e80380000000	0.7158219814300537
86	0xbff4e60e00000000	-1.3061656951904297
87	0x3fefbf7760000000	0.9921223521232605
88	0x3fd85011c0000000	0.37988704442977905
89	0x3fe4891fc0000000	0.641738772392273
90	0xbff70e2b20000000	-1.440959095954895
91	0x3fef086b60000000	0.9697777628898621
92	0x3fe2050180000000	0.5631110668182373
93	0x3ff1378360000000	1.0760530233383179
94	0xbf90cb4840000000	-0.01640046015381813
95	0x3fdb69e200000000	0.42833757400512695
96	0x3fd6febf60000000	0.35929855704307556
97	0x3ff1980b40000000	1.0996201038360596
98	0x3f93323100000000	0.01874615252017975
99	0x3fda1e5f60000000	0.4081037938594818
100	0x3fe2a01a80000000	0.5820438861846924
101	0x3ff94cba00000000	1.5812320709228516
102	0xbf76c90680000000	-0.005562806501984596
103	0x3f7c4fe700000000	0.0069121383130550385
104	0x3fd6f640c0000000	0.3587800860404968
105	0x3ff90af120000000	1.5651713609695435
106	0x3f91ce0ec0000000	0.01738760992884636
107	0x3f72a560e0000000	0.004552248399704695
108	0x3fe25c1fa0000000	0.5737455487251282
109	0x400019b060000000	2.0125434398651123
110	0x3fdc095360000000	0.4380691945552826
111	0x3f41f455a0000000	0.0005479257670231164
112	0x3fd753eda0000000	0.364497572183609
113	0x400008b760000000	2.004256010055542
114	0x3fd5440780000000	0.33227717876434326
115	0x3f40518d00000000	0.0004980028606951237
116	0x3fe2723840000000	0.5764428377151489
117	0x40008d4020000000	2.068969964981079
118	0x3fdcd3ccc0000000	0.45042723417282104
119	0x3f3c9f9b00000000	0.00043675932101905346
120	0x3fd6f936c0000000	0.3589608073234558
121	0x4000836940000000	2.0641655921936035
122	0x3fd62c6ec0000000	0.3464619517326355
123	0x3f49066020000000	0.0007636994705535471
124	0x3fe17add20000000	0.5462480187416077
125	0x40012f5780000000	2.148116111755371
126	0xbfa904c560000000	-0.04886452481150627
127	0x3f3dab8b40000000	0.0004527296987362206
128	0x3fd988ec00000000	0.39898204803466797
129	0x4001148160000000	2.13501238822937
130	0xbfc7e9f960000000	-0.18682782351970673
131	0x3f6209c260000000	0.00220191921107471
132	0x3fe2cc7460000000	0.5874578356742859
133	0x3fe80df200000000	0.7517023086547852
134	0x3e81d3bfe0000000	1.3282259203606372e-07
135	0x3fe20fe700000000	0.5644412040710449
136	0x3fe6eae160000000	0.71617192029953
137	0x3f46c65ec0000000	0.0006950342794880271
138	0x3fe0fb9ca0000000	0.5307143330574036
139	0x3fe689cbe0000000	0.7043208479881287
140	0xbf4e61f9a0000000	-0.00092720688553527
141	0x3fe0221d20000000	0.5041642785072327
142	0x3fe6cfdda0000000	0.7128742337226868
143	0xbf65737400000000	-0.00261852890253067
144	0x3fdf48aac0000000	0.4888102412223816
145	0x3fe7479480000000	0.7274878025054932
146	0xbf72a485e0000000	-0.004551432561129332
147	0x3fe0b2ed80000000	0.5218417644500732
148	0x3fe6acea20000000	0.7086077332496643
149	0xbf8950ba60000000	-0.012361007742583752
150	0x3fdf0e1100000000	0.4852335453033447
151	0x3fe6e2eba0000000	0.7152002453804016
152	0xbf9244a320000000	-0.017839955165982246
153	0x3fddb21680000000	0.4639946222305298
154	0x3fe7114480000000	0.7208578586578369
155	0xbf94dbe740000000	-0.020370114594697952
156	0x3fdcaf9d40000000	0.4482186436653137
157	0x3fe738f740000000	0.7257038354873657
158	0xbf95f3d620000000	-0.021437974646687508
159	0x3fe0b608a0000000	0.5222209095954895
160	0x3fe79710a0000000	0.7371905446052551
161	0xbf8f8ac020000000	-0.015401364304125309
162	0x3fdecefa60000000	0.48138293623924255
163	0x3fe7daf580000000	0.7454783916473389
164	0xbf950896c0000000	-0.020540576428174973
165	0x3fdd312600000000	0.45612478256225586
166	0x3fe7fefb40000000	0.7498756647109985
167	0xbf969ab380000000	-0.022074513137340546
168	0x3fdc0873c0000000	0.438015878200531
169	0x3fe825ab80000000	0.7545983791351318
170	0xbf97dec720000000	-0.023310767486691475
171	0x3fe0cee640000000	0.5252562761306763
172	0x3fe87305e0000000	0.7640408873558044
173	0xbf91761d00000000	-0.01705212891101837
174	0x3fdf4d0980000000	0.48907697200775146
175	0x3fe891afa0000000	0.7677839398384094
176	0xbf95c99520000000	-0.021276788786053658
177	0x3fdf94fb60000000	0.49346813559532166
178	0x3fe849ce20000000	0.7590094208717346
179	0xbf92174740000000	-0.017666924744844437
180	0x3fe023f480000000	0.5043890476226807
181	0x3fe827dfe0000000	0.7548674941062927
182	0xbf8c9a5e40000000	-0.013966308906674385
183	0x3fe0f7d3c0000000	0.5302523374557495
184	0x3fe92f54c0000000	0.7870277166366577
185	0xbf92ec8540000000	-0.01848037913441658
186	0x3fe00ee320000000	0.5018172860145569
187	0x3fe90d0de0000000	0.7828435301780701
188	0xbf945a6000000000	-0.01987600326538086
189	0x3fe025f200000000	0.5046319961547852
190	0x3fe8c55780000000	0.7740895748138428
191	0xbf8e0f92a0000000	-0.014678140170872211
192	0x3fe06f4f20000000	0.5135875344276428
193	0x3fe8a34c80000000	0.7699339389801025
194	0xbf8455f2c0000000	-0.009929558262228966
195	0x3fe2cc7460000000	0.5874578356742859
196	0x3fe80df200000000	0.7517023086547852
197	0x3e81d3bfe0000000	1.3282259203606372e-07
198	0x3fe20fe700000000	0.5644412040710449
199	0x3fe6eae160000000	0.71617192029953
200	0x3f46c65ec0000000	0.0006950342794880271
201	0x3fe0fb9ca0000000	0.5307143330574036
202	0x3fe689cbe0000000	0.7043208479881287
203	0xbf4e61f9a0000000	-0.00092720688553527
204	0x3fe0221d20000000	0.5041642785072327
205	0x3fe6cfdda0000000	0.7128742337226868
206	0xbf65737400000000	-0.00261852890253067
207	0x3fdf48aac0000000	0.4888102412223816
208	0x3fe7479480000000	0.7274878025054932
209	0xbf72a485e0000000	-0.004551432561129332
210	0x3fe0b2ed80000000	0.5218417644500732
211	0x3fe6acea20000000	0.7086077332496643
212	0xbf8950ba60000000	-0.012361007742583752
213	0x3fdf0e1100000000	0.4852335453033447
214	0x3fe6e2eba0000000	0.7152002453804016
215	0xbf9244a320000000	-0.017839955165982246
216	0x3fddb21680000000	0.4639946222305298
217	0x3fe7114480000000	0.7208578586578369
218	0xbf94dbe740000000	-0.020370114594697952
219	0x3fdcaf9d40000000	0.4482186436653137
220	0x3fe738f740000000	0.7257038354873657
221	0xbf95f3d620000000	-0.021437974646687508
222	0x3fe0b608a0000000	0.5222209095954895
223	0x3fe79710a0000000	0.7371905446052551
224	0xbf8f8ac020000000	-0.015401364304125309
225	0x3fdecefa60000000	0.48138293623924255
226	0x3fe7daf580000000	0.7454783916473389
227	0xbf950896c0000000	-0.020540576428174973
228	0x3fdd312600000000	0.45612478256225586
229	0x3fe7fefb40000000	0.7498756647109985
230	0xbf969ab380000000	-0.022074513137340546
231	0x3fdc0873c0000000	0.438015878200531
232	0x3fe825ab80000000	0.7545983791351318
233	0xbf97dec720000000	-0.023310767486691475
234	0x3fe0cee640000000	0.5252562761306763
235	0x3fe87305e0000000	0.7640408873558044
236	0xbf91761d00000000	-0.01705212891101837
237	0x3fdf4d0980000000	0.48907697200775146
238	0x3fe891afa0000000	0.7677839398384094
239	0xbf95c99520000000	-0.021276788786053658
240	0x3fdf94fb60000000	0.49346813559532166
241	0x3fe849ce20000000	0.7590094208717346
242	0xbf92174740000000	-0.017666924744844437
243	0x3fe023f480000000	0.5043890476226807
244	0x3fe827dfe0000000	0.7548674941062927
245	0xbf8c9a5e40000000	-0.013966308906674385
246	0x3fe0f7d3c0000000	0.5302523374557495
247	0x3fe92f54c0000000	0.7870277166366577
248	0xbf92ec8540000000	-0.01848037913441658
249	0x3fe00ee320000000	0.5018172860145569
250	0x3fe90d0de0000000	0.7828435301780701
251	0xbf945a6000000000	-0.01987600326538086
252	0x3fe025f200000000	0.5046319961547852
253	0x3fe8c55780000000	0.7740895748138428
254	0xbf8e0f92a0000000	-0.014678140170872211
255	0x3fe06f4f20000000	0.5135875344276428
