files/processed_files/weight/5/weight_5_24.npy (npy, 2192 bytes, 1 tensors)

array f8 [258]
000000 00 00 00 60 f6 bc de 3f 00 00 00 00 98 3f d3 3f
       0.48028334975242615 0.30075645446777344
000010 00 00 00 00 f3 9e eb bf 00 00 00 c0 f7 ff ef 3f
       -0.8631529808044434 0.9999960660934448
000020 00 00 00 40 36 ed df 3f 00 00 00 40 86 f8 d0 3f
       0.49885326623916626 0.2651687264442444
000030 00 00 00 40 3c af e9 bf 00 00 00 e0 f2 ff ef 3f
       -0.8026410341262817 0.9999937415122986
000040 00 00 00 00 0c 5d e0 3f 00 00 00 c0 82 0d d1 3f
       0.5113582611083984 0.26644963026046753
000050 00 00 00 c0 81 b1 e9 bf 00 00 00 a0 f3 ff ef 3f
       -0.8029183149337769 0.9999940991401672
000060 00 00 00 60 d4 a1 e0 3f 00 00 00 c0 d2 1b d1 3f
       0.5197545886039734 0.26732319593429565
000070 00 00 00 60 c1 ae e9 bf 00 00 00 80 ef ff ef 3f
       -0.8025824427604675 0.9999921321868896
000080 00 00 00 00 5b 77 dd 3f 00 00 00 60 a6 f7 d0 3f
       0.46040987968444824 0.265115350484848
000090 00 00 00 60 1b e8 e9 bf 00 00 00 20 f2 ff ef 3f
       -0.8095833659172058 0.9999933838844299
0000a0 00 00 00 60 95 a8 dc 3f 00 00 00 a0 89 09 d1 3f
       0.4477895200252533 0.26620712876319885
0000b0 00 00 00 00 c2 e8 e9 bf 00 00 00 40 f4 ff ef 3f
       -0.8096628189086914 0.9999943971633911
0000c0 00 00 00 40 b0 d7 db 3f 00 00 00 20 47 29 d1 3f
       0.43503957986831665 0.2681443989276886
0000d0 00 00 00 c0 99 eb e9 bf 00 00 00 60 f1 ff ef 3f
       -0.8100098371505737 0.9999930262565613
0000e0 00 00 00 60 96 17 e1 3f 00 00 00 80 31 72 d2 3f
       0.5341293215751648 0.2882198095321655
0000f0 00 00 00 c0 56 bf d9 bf 00 00 00 00 f2 ff ef 3f
       -0.40230339765548706 0.9999933242797852
000100 00 00 00 60 4a f6 da 3f 00 00 00 40 59 c2 d2 3f
       0.4212823808193207 0.2931120991706848
000110 00 00 00 60 f0 6d db bf 00 00 00 00 f4 ff ef 3f
       -0.42858514189720154 0.9999942779541016
000120 00 00 00 c0 83 2f e0 3f 00 00 00 e0 e3 43 d6 3f
       0.5058001279830933 0.34789368510246277
000130 00 00 00 c0 fd de e6 bf 00 00 00 40 fb ff ef 3f
       -0.714720606803894 0.9999977350234985
000140 00 00 00 c0 4f 1e dd 3f 00 00 00 80 5d 55 d6 3f
       0.45497506856918335 0.348960280418396
000150 00 00 00 a0 ba 26 e7 bf 00 00 00 c0 fa ff ef 3f
       -0.7234776616096497 0.9999974966049194
000160 00 00 00 20 2e 48 e4 3f 00 00 00 c0 36 07 e1 3f
       0.6338110566139221 0.5321305990219116
000170 00 00 00 e0 fd 3e c3 bf 00 00 00 80 db ff ef 3f
       -0.1503598541021347 0.9999825954437256
000180 00 00 00 60 6e 79 d5 3f 00 00 00 e0 3a 7a e1 3f
       0.33553656935691833 0.5461706519126892
000190 00 00 00 60 d0 36 c7 bf 00 00 00 00 24 ff ef 3f
       -0.18136028945446014 0.9998950958251953
0001a0 00 00 00 40 84 d5 e7 3f 00 00 00 00 80 4b eb 3f
       0.7448140382766724 0.85296630859375
0001b0 00 00 00 00 da 75 db bf 00 00 00 20 dc f1 ef 3f
       -0.42906808853149414 0.9982739090919495
0001c0 00 00 00 c0 4e 76 ca 3f 00 00 00 40 bc 39 eb 3f
       0.20673546195030212 0.8507977724075317
0001d0 00 00 00 60 a3 e3 e1 bf 00 00 00 00 e7 e2 ef 3f
       -0.5590378642082214 0.9964480400085449
0001e0 00 00 00 c0 46 8c e2 3f 00 00 00 a0 c8 62 e8 3f
       0.5796235799789429 0.7620585560798645
0001f0 00 00 00 60 35 48 f2 bf 00 00 00 a0 5b f8 ef 3f
       -1.1426290273666382 0.9990671277046204
000200 00 00 00 c0 3c 64 d5 3f 00 00 00 20 03 94 e7 3f
       0.3342429995536804 0.7368178963661194
000210 00 00 00 60 86 82 f6 bf 00 00 00 c0 0e da ef 3f
       -1.406866431236267 0.9953683614730835
000220 00 00 00 40 84 b7 e0 3f 00 00 00 80 de 44 e8 3f
       0.5224019289016724 0.7584068775177002
000230 00 00 00 40 86 a6 f4 bf 00 00 00 c0 84 df ef 3f
       -1.2906553745269775 0.9960349798202515
000240 00 00 00 c0 a1 8c d8 3f 00 00 00 00 b6 07 e8 3f
       0.3835834860801697 0.750941276550293
000250 00 00 00 40 de 0e f9 bf 00 00 00 20 61 7d ef 3f
       -1.5661299228668213 0.9840551018714905
000260 00 00 00 e0 b8 4d e0 3f 00 00 00 60 cd 27 e7 3f
       0.5094875693321228 0.723608672618866
000270 00 00 00 c0 81 5c f4 bf 00 00 00 00 a8 e0 ef 3f
       -1.2725846767425537 0.9961738586425781
000280 00 00 00 00 cf a4 d9 3f 00 00 00 e0 4c ef e6 3f
       0.400684118270874 0.7167114615440369
000290 00 00 00 c0 2f c5 f8 bf 00 00 00 a0 20 79 ef 3f
       -1.5481412410736084 0.9835360646247864
0002a0 00 00 00 00 6d a1 e0 3f 00 00 00 c0 2d ec e6 3f
       0.5197052955627441 0.7163304090499878
0002b0 00 00 00 00 9f 56 f2 bf 00 00 00 c0 47 cf ef 3f
       -1.1461477279663086 0.9940527677536011
0002c0 00 00 00 40 e9 4a d9 3f 00 00 00 60 c0 c5 e6 3f
       0.39519721269607544 0.7116395831108093
0002d0 00 00 00 c0 4b 9c f6 bf 00 00 00 e0 77 5d ef 3f
       -1.4131581783294678 0.9801596999168396
0002e0 00 00 00 20 75 46 e2 3f 00 00 00 a0 70 0b f1 3f
       0.5711007714271545 1.0652929544448853
0002f0 00 00 00 20 e4 b8 90 bf 00 00 00 80 80 9a e0 3f
       -0.016330303624272346 0.5188601016998291
000300 00 00 00 60 8d 5c d8 3f 00 00 00 40 ab 28 f1 3f
       0.3806489408016205 1.0724289417266846
000310 00 00 00 e0 36 0e 93 3f 00 00 00 40 fd fd de 3f
       0.018608910962939262 0.48425227403640747
000320 00 00 00 40 8a 7e e2 3f 00 00 00 a0 9d 66 f8 3f
       0.5779467821121216 1.5250526666641235
000330 00 00 00 40 d0 c7 b2 3f 00 00 00 20 c9 1c 82 3f
       0.07336141169071198 0.008843966759741306
000340 00 00 00 a0 86 b5 d7 3f 00 00 00 60 08 2e f8 3f
       0.37045446038246155 1.5112384557724
000350 00 00 00 e0 aa be 82 3f 00 00 00 60 ef a2 7a 3f
       0.009152731858193874 0.006503043230623007
000360 00 00 00 a0 b4 45 e2 3f 00 00 00 e0 39 75 fe 3f
       0.5710089802742004 1.903619647026062
000370 00 00 00 40 32 82 e0 3f 00 00 00 e0 be 82 46 3f
       0.5158931016921997 0.0006869728094898164
000380 00 00 00 a0 c2 17 d8 3f 00 00 00 a0 70 54 fe 3f
       0.37645021080970764 1.8956152200698853
000390 00 00 00 c0 30 c5 d5 3f 00 00 00 a0 f9 8c 48 3f
       0.3401605486869812 0.0007492274162359536
0003a0 00 00 00 a0 83 5d e2 3f 00 00 00 40 96 47 ff 3f
       0.5739153027534485 1.95497727394104
0003b0 00 00 00 40 54 f3 e0 3f 00 00 00 c0 d3 98 36 3f
       0.5297032594680786 0.0003448025672696531
0003c0 00 00 00 c0 ca c7 d7 3f 00 00 00 20 70 30 ff 3f
       0.37156933546066284 1.949325680732727
0003d0 00 00 00 80 38 da d6 3f 00 00 00 20 6a e4 4d 3f
       0.35706913471221924 0.0009122389019466937
0003e0 00 00 00 c0 4a 6b e1 3f 00 00 00 60 5d 38 00 40
       0.5443471670150757 2.027521848678589
0003f0 00 00 00 a0 40 31 b3 3f 00 00 00 40 ae ba 3d 3f
       0.07497028261423111 0.00045363191748037934
000400 00 00 00 c0 d6 38 da 3f 00 00 00 40 62 28 00 40
       0.40971916913986206 2.019718647003174
000410 00 00 00 20 f9 ba c0 bf 00 00 00 e0 0e 77 61 3f
       -0.13070596754550934 0.0021319666411727667
000420 00 00 00 80 e0 a9 e2 3f 00 00 00 40 8f 25 e8 3f
       0.5832369327545166 0.7545849084854126
000430 00 00 00 a0 c7 b1 87 3e 00 00 00 a0 c0 f6 e1 3f
       1.765374264550701e-07 0.5613711476325989
000440 00 00 00 a0 6a 0e e7 3f 00 00 00 00 89 a6 4c bf
       0.7205098271369934 -0.0008743447251617908
000450 00 00 00 c0 4e e1 e0 3f 00 00 00 20 f3 d7 e6 3f
       0.5275033712387085 0.7138610482215881
000460 00 00 00 80 72 e4 60 bf 00 00 00 20 6b 30 e0 3f
       -0.0020620571449398994 0.5059104561805725
000470 00 00 00 e0 3e 60 e7 3f 00 00 00 60 5a 44 6d bf
       0.730498731136322 -0.0035726323258131742
000480 00 00 00 c0 2b d3 df 3f 00 00 00 c0 8a 03 e8 3f
       0.4972638487815857 0.7504323720932007
000490 00 00 00 60 7e ae 76 bf 00 00 00 60 44 51 e0 3f
       -0.005537503864616156 0.5099202990531921
0004a0 00 00 00 80 9e f9 e6 3f 00 00 00 00 89 5e 7e bf
       0.7179710865020752 -0.007414374500513077
0004b0 00 00 00 80 ff 9a de 3f 00 00 00 c0 17 39 e7 3f
       0.47821033000946045 0.7257193326950073
0004c0 00 00 00 a0 cf bd 87 bf 00 00 00 80 0e 5a dd 3f
       -0.011592504568397999 0.458621621131897
0004d0 00 00 00 60 22 61 e7 3f 00 00 00 00 68 07 8d bf
       0.7306072115898132 -0.014174282550811768
0004e0 00 00 00 00 d4 67 dc 3f 00 00 00 80 64 82 e7 3f
       0.44383716583251953 0.7346670627593994
0004f0 00 00 00 20 70 c2 8f bf 00 00 00 a0 2d 61 e0 3f
       -0.015507579781115055 0.511862576007843
000500 00 00 00 00 d0 e1 e7 3f 00 00 00 40 84 51 84 bf
       0.7463150024414062 -0.009921105578541756
000510 00 00 00 80 82 96 de 3f 00 00 00 80 72 31 e8 3f
       0.47793638706207275 0.7560360431671143
000520 00 00 00 a0 5f 76 8d bf 00 00 00 40 43 27 dd 3f
       -0.014385935850441456 0.4555214047431946
000530 00 00 00 40 d6 65 e8 3f 00 00 00 20 86 a0 91 bf
       0.762431263923645 -0.017213912680745125
000540 00 00 00 00 d1 05 dc 3f 00 00 00 80 f3 97 e8 3f
       0.4378550052642822 0.7685487270355225
000550 00 00 00 c0 a6 5d 93 bf 00 00 00 40 3a 94 e0 3f
       -0.0189119391143322 0.5180941820144653
000560 00 00 00 60 88 bd e8 3f 00 00 00 60 c5 92 87 bf
       0.77313631772995 -0.011510412208735943
000570 00 00 00 e0 39 70 df 3f 00 00 00 80 c7 e0 e8 3f
       0.4912247359752655 0.7774388790130615
000580 00 00 00 a0 83 dd 90 bf 00 00 00 20 f5 fd df 3f
       -0.016470009461045265 0.49987533688545227
000590 00 00 00 20 0f b1 e8 3f 00 00 00 40 af 98 8d bf
       0.7716136574745178 -0.014451378956437111
0005a0 00 00 00 20 7b 5b e0 3f 00 00 00 80 96 99 e8 3f
       0.5111671090126038 0.7687485218048096
0005b0 00 00 00 40 2e 09 87 bf 00 00 00 00 f0 dd e0 3f
       -0.01124797947704792 0.5270919799804688
0005c0 00 00 00 a0 be 73 e9 3f 00 00 00 c0 96 77 8a bf
       0.7953789830207825 -0.012923410162329674
0005d0 00 00 00 a0 1e 33 e0 3f 00 00 00 e0 38 62 e9 3f
       0.50624018907547 0.7932400107383728
0005e0 00 00 00 40 42 3e 8d bf 00 00 00 c0 bc 63 e0 3f
       -0.014278905466198921 0.5121749639511108
0005f0 00 00 00 a0 80 29 e9 3f 00 00 00 e0 2f 5a 82 bf
       0.7863162159919739 -0.008961080573499203
000600 00 00 00 a0 70 ad e0 3f 00 00 00 00 d7 0e e9 3f
       0.5211718678474426 0.7830615043640137
000610 00 00 00 a0 89 f8 6f bf 00 00 00 80 e0 a9 e2 3f
       -0.003902691649273038 0.5832369327545166
000620 00 00 00 40 8f 25 e8 3f 00 00 00 a0 c7 b1 87 3e
       0.7545849084854126 1.765374264550701e-07
000630 00 00 00 a0 c0 f6 e1 3f 00 00 00 a0 6a 0e e7 3f
       0.5613711476325989 0.7205098271369934
000640 00 00 00 00 89 a6 4c bf 00 00 00 c0 4e e1 e0 3f
       -0.0008743447251617908 0.5275033712387085
000650 00 00 00 20 f3 d7 e6 3f 00 00 00 80 72 e4 60 bf
       0.7138610482215881 -0.0020620571449398994
000660 00 00 00 20 6b 30 e0 3f 00 00 00 e0 3e 60 e7 3f
       0.5059104561805725 0.730498731136322
000670 00 00 00 60 5a 44 6d bf 00 00 00 c0 2b d3 df 3f
       -0.0035726323258131742 0.4972638487815857
000680 00 00 00 c0 8a 03 e8 3f 00 00 00 60 7e ae 76 bf
       0.7504323720932007 -0.005537503864616156
000690 00 00 00 60 44 51 e0 3f 00 00 00 80 9e f9 e6 3f
       0.5099202990531921 0.7179710865020752
0006a0 00 00 00 00 89 5e 7e bf 00 00 00 80 ff 9a de 3f
       -0.007414374500513077 0.47821033000946045
0006b0 00 00 00 c0 17 39 e7 3f 00 00 00 a0 cf bd 87 bf
       0.7257193326950073 -0.011592504568397999
0006c0 00 00 00 80 0e 5a dd 3f 00 00 00 60 22 61 e7 3f
       0.458621621131897 0.7306072115898132
0006d0 00 00 00 00 68 07 8d bf 00 00 00 00 d4 67 dc 3f
       -0.014174282550811768 0.44383716583251953
0006e0 00 00 00 80 64 82 e7 3f 00 00 00 20 70 c2 8f bf
       0.7346670627593994 -0.015507579781115055
0006f0 00 00 00 a0 2d 61 e0 3f 00 00 00 00 d0 e1 e7 3f
       0.511862576007843 0.7463150024414062
000700 00 00 00 40 84 51 84 bf 00 00 00 80 82 96 de 3f
       -0.009921105578541756 0.47793638706207275
000710 00 00 00 80 72 31 e8 3f 00 00 00 a0 5f 76 8d bf
       0.7560360431671143 -0.014385935850441456
000720 00 00 00 40 43 27 dd 3f 00 00 00 40 d6 65 e8 3f
       0.4555214047431946 0.762431263923645
000730 00 00 00 20 86 a0 91 bf 00 00 00 00 d1 05 dc 3f
       -0.017213912680745125 0.4378550052642822
000740 00 00 00 80 f3 97 e8 3f 00 00 00 c0 a6 5d 93 bf
       0.7685487270355225 -0.0189119391143322
000750 00 00 00 40 3a 94 e0 3f 00 00 00 60 88 bd e8 3f
       0.5180941820144653 0.77313631772995
000760 00 00 00 60 c5 92 87 bf 00 00 00 e0 39 70 df 3f
       -0.011510412208735943 0.4912247359752655
000770 00 00 00 80 c7 e0 e8 3f 00 00 00 a0 83 dd 90 bf
       0.7774388790130615 -0.016470009461045265
000780 00 00 00 20 f5 fd df 3f 00 00 00 20 0f b1 e8 3f
       0.49987533688545227 0.7716136574745178
000790 00 00 00 40 af 98 8d bf 00 00 00 20 7b 5b e0 3f
       -0.014451378956437111 0.5111671090126038
0007a0 00 00 00 80 96 99 e8 3f 00 00 00 40 2e 09 87 bf
       0.7687485218048096 -0.01124797947704792
0007b0 00 00 00 00 f0 dd e0 3f 00 00 00 a0 be 73 e9 3f
       0.5270919799804688 0.7953789830207825
0007c0 00 00 00 c0 96 77 8a bf 00 00 00 a0 1e 33 e0 3f
       -0.012923410162329674 0.50624018907547
0007d0 00 00 00 e0 38 62 e9 3f 00 00 00 40 42 3e 8d bf
       0.7932400107383728 -0.014278905466198921
0007e0 00 00 00 c0 bc 63 e0 3f 00 00 00 a0 80 29 e9 3f
       0.5121749639511108 0.7863162159919739
0007f0 00 00 00 e0 2f 5a 82 bf 00 00 00 a0 70 ad e0 3f
       -0.008961080573499203 0.5211718678474426
