files/processed_files/player/2/player_2_23.npy (npy, 2192 bytes, 1 tensors)

array f8 [258]
0.5043967962265015 0.24937425553798676 -0.4479191303253174 0.9993183612823486 0.51907879114151 0.20611636340618134 -0.4183010160923004 0.998657763004303
0.5283429026603699 0.20615920424461365 -0.4183264374732971 0.9987388849258423 0.534662127494812 0.2069498747587204 -0.4180482029914856 0.9985175728797913
0.4891066551208496 0.207564115524292 -0.41954684257507324 0.9987805485725403 0.47947996854782104 0.20903557538986206 -0.4194028973579407 0.9989951848983765
0.46994757652282715 0.21125346422195435 -0.41970744729042053 0.9990317821502686 0.5475532412528992 0.22876518964767456 -0.20869915187358856 0.9980935454368591
0.45772653818130493 0.2347295731306076 -0.21344313025474548 0.999081552028656 0.5235635042190552 0.2950458824634552 -0.37160128355026245 0.999611496925354
0.48580679297447205 0.29968369007110596 -0.3730987012386322 0.9997594952583313 0.6440628170967102 0.4980444610118866 -0.07286707311868668 0.9985117316246033
0.3733314275741577 0.5062164068222046 -0.09390310943126678 0.9989827871322632 0.7051917314529419 0.8532522320747375 -0.3203715980052948 0.8904105424880981
0.3138042986392975 0.9082014560699463 -0.32457900047302246 0.9300280809402466 0.7011877298355103 0.7095543146133423 -0.8714287877082825 0.6920199990272522
0.3077690601348877 0.7494276165962219 -0.9124744534492493 0.7073363661766052 0.6829264163970947 0.6515997648239136 -0.9689756631851196 0.6375373005867004
0.3194247782230377 0.693783164024353 -1.0060828924179077 0.6322333812713623 0.6843730211257935 0.5951170325279236 -0.9712832570075989 0.6654941439628601
0.3102783262729645 0.6282491683959961 -1.0118882656097412 0.6676064729690552 0.6827236413955688 0.6123223304748535 -0.8803789019584656 0.6692029237747192
0.3110930323600769 0.6442567706108093 -0.9269179105758667 0.6692426204681396 0.594414234161377 1.0636765956878662 -0.0032014395110309124 0.44739437103271484
0.4272405505180359 1.084998369216919 0.005587419494986534 0.45177194476127625 0.5875971913337708 1.5813366174697876 0.004631887190043926 0.035499781370162964
0.4106610417366028 1.5846199989318848 -0.0016724045854061842 0.015410328283905983 0.5824605226516724 2.0193238258361816 0.25730010867118835 0.0031675281934440136
0.41274434328079224 1.9937037229537964 0.19220176339149475 0.0029448331333696842 0.586677074432373 2.078702688217163 0.2648584246635437 0.003053767140954733
0.40876808762550354 2.045135974884033 0.2019396722316742 0.004033294040709734 0.5563057065010071 2.161294460296631 -0.020036084577441216 0.0025663021951913834
0.44531750679016113 2.139747381210327 -0.11552238464355469 0.00450011994689703 0.7217456698417664 0.6783996820449829 -2.227329787274357e-07 0.7190621495246887
0.62237948179245 -0.002776633482426405 0.708395779132843 0.5549636483192444 -0.009473517537117004 0.7100564241409302 0.5050028562545776 -0.016185615211725235
0.7201653718948364 0.46822333335876465 -0.02247619815170765 0.6988508105278015 0.5616616010665894 -0.025717811658978462 0.6528419852256775 0.5496857762336731
-0.03623208776116371 0.6597870588302612 0.5681214332580566 -0.03852027282118797 0.6729235053062439 0.5731664896011353 -0.03995774686336517 0.6947941780090332
0.5916076898574829 -0.0302329882979393 0.6469241976737976 0.5864585638046265 -0.03935464844107628 0.6555522084236145 0.601295530796051 -0.036750245839357376
0.6691794395446777 0.6028420329093933 -0.03662361204624176 0.6883932948112488 0.6272230744361877 -0.034576091915369034 0.6461443901062012 0.615993857383728
-0.04261026903986931 0.6531935930252075 0.6309881210327148 -0.03760532662272453 0.6655932664871216 0.635534405708313 -0.035521000623703 0.6832926273345947
0.6618771553039551 -0.03898802027106285 0.650414764881134 0.6542753577232361 -0.04759664833545685 0.6331281661987305 0.6523153185844421 -0.04928026348352432
0.6199540495872498 0.649310290813446 -0.05106695368885994 0.7217456698417664 0.6783996820449829 -2.227329787274357e-07 0.7190621495246887 0.62237948179245
-0.002776633482426405 0.708395779132843 0.5549636483192444 -0.009473517537117004 0.7100564241409302 0.5050028562545776 -0.016185615211725235 0.7201653718948364
0.46822333335876465 -0.02247619815170765 0.6988508105278015 0.5616616010665894 -0.025717811658978462 0.6528419852256775 0.5496857762336731 -0.03623208776116371
0.6597870588302612 0.5681214332580566 -0.03852027282118797 0.6729235053062439 0.5731664896011353 -0.03995774686336517 0.6947941780090332 0.5916076898574829
-0.0302329882979393 0.6469241976737976 0.5864585638046265 -0.03935464844107628 0.6555522084236145 0.601295530796051 -0.036750245839357376 0.6691794395446777
0.6028420329093933 -0.03662361204624176 0.6883932948112488 0.6272230744361877 -0.034576091915369034 0.6461443901062012 0.615993857383728 -0.04261026903986931
0.6531935930252075 0.6309881210327148 -0.03760532662272453 0.6655932664871216 0.635534405708313 -0.035521000623703 0.6832926273345947 0.6618771553039551
-0.03898802027106285 0.650414764881134 0.6542753577232361 -0.04759664833545685 0.6331281661987305 0.6523153185844421 -0.04928026348352432 0.6199540495872498
00000000: 0000 00c0 0424 e03f 0000 00e0 7eeb cf3f
00000010: 0000 0000 b5aa dcbf 0000 0080 6afa ef3f
00000020: 0000 0020 4b9c e03f 0000 0060 0562 ca3f
00000030: 0000 00a0 71c5 dabf 0000 0020 01f5 ef3f
00000040: 0000 0060 2fe8 e03f 0000 00c0 6c63 ca3f
00000050: 0000 0040 dcc5 dabf 0000 0040 abf5 ef3f
00000060: 0000 00c0 f31b e13f 0000 0060 557d ca3f
00000070: 0000 0040 4dc1 dabf 0000 0020 dbf3 ef3f
00000080: 0000 0000 864d df3f 0000 0000 7691 ca3f
00000090: 0000 0000 dbd9 dabf 0000 00a0 02f6 ef3f
000000a0: 0000 00c0 ccaf de3f 0000 0080 adc1 ca3f
000000b0: 0000 0040 7fd7 dabf 0000 00c0 c4f7 ef3f
000000c0: 0000 0000 9f13 de3f 0000 0080 5a0a cb3f
000000d0: 0000 00a0 7cdc dabf 0000 0080 11f8 ef3f
000000e0: 0000 0060 8e85 e13f 0000 0080 2d48 cd3f
000000f0: 0000 0060 a7b6 cabf 0000 00e0 61f0 ef3f
00000100: 0000 0040 644b dd3f 0000 0060 9e0b ce3f
00000110: 0000 00c0 1a52 cbbf 0000 00e0 79f8 ef3f
00000120: 0000 0040 08c1 e03f 0000 0020 08e2 d23f
00000130: 0000 00c0 50c8 d7bf 0000 0040 d1fc ef3f
00000140: 0000 0060 7517 df3f 0000 0080 042e d33f
00000150: 0000 0060 d9e0 d7bf 0000 00a0 07fe ef3f
00000160: 0000 00a0 299c e43f 0000 00e0 f5df df3f
00000170: 0000 00a0 6aa7 b2bf 0000 00e0 cef3 ef3f
00000180: 0000 0080 a9e4 d73f 0000 00c0 ec32 e03f
00000190: 0000 00c0 080a b8bf 0000 00c0 aaf7 ef3f
000001a0: 0000 0040 ee90 e63f 0000 00a0 d74d eb3f
000001b0: 0000 00e0 f780 d4bf 0000 0040 3e7e ec3f
000001c0: 0000 00a0 5e15 d43f 0000 0080 fc0f ed3f
000001d0: 0000 0000 e7c5 d4bf 0000 0040 cac2 ed3f
000001e0: 0000 0040 2170 e63f 0000 0040 abb4 e63f
000001f0: 0000 00a0 bee2 ebbf 0000 0020 0725 e63f
00000200: 0000 0000 7db2 d33f 0000 00a0 4ffb e73f
00000210: 0000 00a0 fd32 edbf 0000 00e0 7fa2 e63f
00000220: 0000 0080 88da e53f 0000 00c0 e7d9 e43f
00000230: 0000 0040 d901 efbf 0000 00a0 b466 e43f
00000240: 0000 00a0 7471 d43f 0000 00c0 7833 e63f
00000250: 0000 0060 ea18 f0bf 0000 0080 413b e43f
00000260: 0000 0040 62e6 e53f 0000 00e0 320b e33f
00000270: 0000 00a0 c014 efbf 0000 0060 ba4b e53f
00000280: 0000 00a0 99db d33f 0000 0000 9e1a e43f
00000290: 0000 00c0 b130 f0bf 0000 0040 085d e53f
000002a0: 0000 0040 dfd8 e53f 0000 0000 2598 e33f
000002b0: 0000 0060 102c ecbf 0000 0040 1c6a e53f
000002c0: 0000 00c0 f2e8 d33f 0000 0060 c09d e43f
000002d0: 0000 00c0 4fa9 edbf 0000 0080 6f6a e53f
000002e0: 0000 0000 7105 e33f 0000 00c0 d104 f13f
000002f0: 0000 00c0 e739 6abf 0000 0000 1ca2 dc3f
00000300: 0000 00c0 e857 db3f 0000 0040 275c f13f
00000310: 0000 0080 d5e2 763f 0000 00e0 d4e9 dc3f
00000320: 0000 00a0 98cd e23f 0000 00a0 274d f93f
00000330: 0000 00c0 e2f8 723f 0000 0000 072d a23f
00000340: 0000 0040 4548 da3f 0000 0080 9a5a f93f
00000350: 0000 00c0 9266 5bbf 0000 0040 738f 8f3f
00000360: 0000 0040 84a3 e23f 0000 0040 9327 0040
00000370: 0000 00e0 9a77 d03f 0000 00c0 c9f2 693f
00000380: 0000 0040 676a da3f 0000 00e0 35e6 ff3f
00000390: 0000 0040 119a c83f 0000 0040 c31f 683f
000003a0: 0000 0000 0fc6 e23f 0000 00e0 2ea1 0040
000003b0: 0000 00c0 70f3 d03f 0000 00c0 3604 693f
000003c0: 0000 00a0 4129 da3f 0000 0040 705c 0040
000003d0: 0000 00c0 28d9 c93f 0000 0020 3785 703f
000003e0: 0000 00a0 41cd e13f 0000 00c0 544a 0140
000003f0: 0000 00e0 5684 94bf 0000 0000 ed05 653f
00000400: 0000 0000 1580 dc3f 0000 00e0 331e 0140
00000410: 0000 0000 e092 bdbf 0000 00c0 b76e 723f
00000420: 0000 0060 8a18 e73f 0000 0040 73b5 e53f
00000430: 0000 0000 0ce5 8dbe 0000 00a0 8e02 e73f
00000440: 0000 0060 88ea e33f 0000 00c0 05bf 66bf
00000450: 0000 00a0 2dab e63f 0000 0020 43c2 e13f
00000460: 0000 0000 da66 83bf 0000 0040 c8b8 e63f
00000470: 0000 00c0 fb28 e03f 0000 0040 f692 90bf
00000480: 0000 0040 980b e73f 0000 0000 5ff7 dd3f
00000490: 0000 0020 0004 97bf 0000 0060 fc5c e63f
000004a0: 0000 00c0 21f9 e13f 0000 0020 c555 9abf
000004b0: 0000 00e0 14e4 e43f 0000 00a0 0697 e13f
000004c0: 0000 0020 038d a2bf 0000 00c0 f91c e53f
000004d0: 0000 0000 0d2e e23f 0000 00e0 edb8 a3bf
000004e0: 0000 00e0 9688 e53f 0000 0040 6157 e23f
000004f0: 0000 0080 5775 a4bf 0000 0000 c13b e63f
00000500: 0000 0040 73ee e23f 0000 0080 65f5 9ebf
00000510: 0000 0060 9ab3 e43f 0000 00c0 44c4 e23f
00000520: 0000 00e0 4a26 a4bf 0000 00a0 48fa e43f
00000530: 0000 0020 d03d e33f 0000 00a0 edd0 a2bf
00000540: 0000 0000 eb69 e53f 0000 0060 7b4a e33f
00000550: 0000 0080 54c0 a2bf 0000 0060 5107 e63f
00000560: 0000 0020 3612 e43f 0000 0020 f5b3 a1bf
00000570: 0000 0000 37ad e43f 0000 00c0 38b6 e33f
00000580: 0000 0060 03d1 a5bf 0000 0040 f6e6 e43f
00000590: 0000 0000 0e31 e43f 0000 0060 0141 a3bf
000005a0: 0000 0040 8a4c e53f 0000 0040 4c56 e43f
000005b0: 0000 0000 cf2f a2bf 0000 0080 88dd e53f
000005c0: 0000 0000 192e e53f 0000 00e0 3cf6 a3bf
000005d0: 0000 00a0 32d0 e43f 0000 00e0 d2ef e43f
000005e0: 0000 0080 965e a8bf 0000 0000 9642 e43f
000005f0: 0000 0060 c4df e43f 0000 0040 433b a9bf
00000600: 0000 00e0 a9d6 e33f 0000 0060 26c7 e43f
00000610: 0000 00a0 7225 aabf 0000 0060 8a18 e73f
00000620: 0000 0040 73b5 e53f 0000 0000 0ce5 8dbe
00000630: 0000 00a0 8e02 e73f 0000 0060 88ea e33f
00000640: 0000 00c0 05bf 66bf 0000 00a0 2dab e63f
00000650: 0000 0020 43c2 e13f 0000 0000 da66 83bf
00000660: 0000 0040 c8b8 e63f 0000 00c0 fb28 e03f
00000670: 0000 0040 f692 90bf 0000 0040 980b e73f
00000680: 0000 0000 5ff7 dd3f 0000 0020 0004 97bf
00000690: 0000 0060 fc5c e63f 0000 00c0 21f9 e13f
000006a0: 0000 0020 c555 9abf 0000 00e0 14e4 e43f
000006b0: 0000 00a0 0697 e13f 0000 0020 038d a2bf
000006c0: 0000 00c0 f91c e53f 0000 0000 0d2e e23f
000006d0: 0000 00e0 edb8 a3bf 0000 00e0 9688 e53f
000006e0: 0000 0040 6157 e23f 0000 0080 5775 a4bf
000006f0: 0000 0000 c13b e63f 0000 0040 73ee e23f
00000700: 0000 0080 65f5 9ebf 0000 0060 9ab3 e43f
00000710: 0000 00c0 44c4 e23f 0000 00e0 4a26 a4bf
00000720: 0000 00a0 48fa e43f 0000 0020 d03d e33f
00000730: 0000 00a0 edd0 a2bf 0000 0000 eb69 e53f
00000740: 0000 0060 7b4a e33f 0000 0080 54c0 a2bf
00000750: 0000 0060 5107 e63f 0000 0020 3612 e43f
00000760: 0000 0020 f5b3 a1bf 0000 0000 37ad e43f
00000770: 0000 00c0 38b6 e33f 0000 0060 03d1 a5bf
00000780: 0000 0040 f6e6 e43f 0000 0000 0e31 e43f
00000790: 0000 0060 0141 a3bf 0000 0040 8a4c e53f
000007a0: 0000 0040 4c56 e43f 0000 0000 cf2f a2bf
000007b0: 0000 0080 88dd e53f 0000 0000 192e e53f
000007c0: 0000 00e0 3cf6 a3bf 0000 00a0 32d0 e43f
000007d0: 0000 00e0 d2ef e43f 0000 0080 965e a8bf
000007e0: 0000 0000 9642 e43f 0000 0060 c4df e43f
000007f0: 0000 0040 433b a9bf 0000 00e0 a9d6 e33f
