files/processed_files/player/2/player_2_30.npy (npy, 2192 bytes, 1 tensors)

array f8 [258]
0.5035920739173889 0.25050222873687744 -0.43779507279396057 0.9996710419654846 0.518367350101471 0.20709048211574554 -0.40294137597084045 0.999350905418396
0.5280128717422485 0.20754431188106537 -0.4029034674167633 0.999391496181488 0.5344415307044983 0.20884673297405243 -0.4024488031864166 0.9992828369140625
0.4883194863796234 0.2081887125968933 -0.40205612778663635 0.9994091391563416 0.4786381125450134 0.20959049463272095 -0.4021031856536865 0.9995135068893433
0.46864286065101624 0.211989164352417 -0.40230637788772583 0.999528169631958 0.5474125742912292 0.2331923097372055 -0.18497124314308167 0.999082088470459
0.4570481777191162 0.2373822033405304 -0.18113476037979126 0.9995549321174622 0.5233209133148193 0.29978230595588684 -0.360834538936615 0.9998113512992859
0.48502787947654724 0.3039593994617462 -0.3601933717727661 0.9998815655708313 0.6388298869132996 0.49586066603660583 -0.08198173344135284 0.9992804527282715
0.3738560080528259 0.5220502614974976 -0.057684242725372314 0.9994939565658569 0.7090699076652527 0.8746939897537231 -0.38675662875175476 0.9445587992668152
0.2989276945590973 0.9276750087738037 -0.3463333547115326 0.9608966708183289 0.7050196528434753 0.6452497839927673 -0.9490898251533508 0.8525098562240601
0.299200177192688 0.6587250828742981 -0.9485479593276978 0.8597381114959717 0.6916089057922363 0.5744904279708862 -1.0388695001602173 0.8261374831199646
0.30244284868240356 0.5843111872673035 -1.037923812866211 0.8234457969665527 0.6924716234207153 0.5300167798995972 -1.004531741142273 0.8395063281059265
0.29888248443603516 0.5331083536148071 -1.0193263292312622 0.8403894901275635 0.6881983280181885 0.5495405793190002 -0.9479494094848633 0.8411588668823242
0.30266740918159485 0.5508643388748169 -0.9567879438400269 0.8411180973052979 0.5940896272659302 1.0746326446533203 -0.005121596157550812 0.3521443009376526
0.4264989495277405 1.1344467401504517 0.007612311746925116 0.35404324531555176 0.5989897847175598 1.598698377609253 0.0008482771227136254 0.017320280894637108
0.4246196150779724 1.6020772457122803 0.043694935739040375 0.007601969409734011 0.5902721881866455 2.028627634048462 0.29056626558303833 0.0015250839060172439
0.4242989420890808 2.0173277854919434 0.2477637082338333 0.0014131841016933322 0.5957051515579224 2.085876703262329 0.30120450258255005 0.0014736393932253122
0.41637319326400757 2.0711636543273926 0.2605336904525757 0.001937864231877029 0.5673088431358337 2.171074628829956 0.005814745090901852 0.0012391969794407487
0.4535842537879944 2.160024642944336 -0.0642419084906578 0.002168478211387992 0.719744086265564 0.6183202862739563 -1.817098791434546e-07 0.7194328308105469
0.5606467723846436 -0.0003197302285116166 0.7107792496681213 0.4942226707935333 -0.005663519259542227 0.7124505043029785 0.44483664631843567 -0.011221757158637047
0.7222682237625122 0.41024690866470337 -0.016445407643914223 0.6957123279571533 0.4982125461101532 -0.021954087540507317 0.6538853645324707 0.49246272444725037
-0.029227422550320625 0.6621358394622803 0.5095692873001099 -0.028812795877456665 0.6752999424934387 0.5137932300567627 -0.0281644519418478 0.6908531785011292
0.5299210548400879 -0.026320159435272217 0.6486396193504333 0.5275571346282959 -0.03327617049217224 0.6585602164268494 0.5436034202575684 -0.029531991109251976
0.6713249683380127 0.5453951954841614 -0.02796230837702751 0.685461699962616 0.5654183030128479 -0.029991870746016502 0.6473253965377808 0.555172860622406
-0.036038875579833984 0.6558839678764343 0.5684091448783875 -0.030427414923906326 0.6682261228561401 0.5730947256088257 -0.02744271606206894 0.6806812286376953
0.5988916754722595 -0.033434201031923294 0.6499695777893066 0.5885806083679199 -0.03917791694402695 0.6315805912017822 0.58597731590271 -0.03983641415834427
0.6168498992919922 0.581835150718689 -0.040859404951334 0.719744086265564 0.6183202862739563 -1.817098791434546e-07 0.7194328308105469 0.5606467723846436
-0.0003197302285116166 0.7107792496681213 0.4942226707935333 -0.005663519259542227 0.7124505043029785 0.44483664631843567 -0.011221757158637047 0.7222682237625122
0.41024690866470337 -0.016445407643914223 0.6957123279571533 0.4982125461101532 -0.021954087540507317 0.6538853645324707 0.49246272444725037 -0.029227422550320625
0.6621358394622803 0.5095692873001099 -0.028812795877456665 0.6752999424934387 0.5137932300567627 -0.0281644519418478 0.6908531785011292 0.5299210548400879
-0.026320159435272217 0.6486396193504333 0.5275571346282959 -0.03327617049217224 0.6585602164268494 0.5436034202575684 -0.029531991109251976 0.6713249683380127
0.5453951954841614 -0.02796230837702751 0.685461699962616 0.5654183030128479 -0.029991870746016502 0.6473253965377808 0.555172860622406 -0.036038875579833984
0.6558839678764343 0.5684091448783875 -0.030427414923906326 0.6682261228561401 0.5730947256088257 -0.02744271606206894 0.6806812286376953 0.5988916754722595
-0.033434201031923294 0.6499695777893066 0.5885806083679199 -0.03917791694402695 0.6315805912017822 0.58597731590271 -0.03983641415834427 0.6168498992919922
00000000: 0000 0020 6d1d e03f 0000 0080 3a08 d03f
00000010: 0000 00a0 d504 dcbf 0000 0020 4efd ef3f
00000020: 0000 0020 7796 e03f 0000 00e0 f081 ca3f
00000030: 0000 00a0 cac9 d9bf 0000 00c0 aefa ef3f
00000040: 0000 0040 7be5 e03f 0000 00e0 cf90 ca3f
00000050: 0000 00a0 2bc9 d9bf 0000 00e0 03fb ef3f
00000060: 0000 0020 251a e13f 0000 0060 7dbb ca3f
00000070: 0000 00a0 b8c1 d9bf 0000 0000 20fa ef3f
00000080: 0000 0060 a040 df3f 0000 0080 eda5 ca3f
00000090: 0000 00a0 49bb d9bf 0000 00e0 28fb ef3f
000000a0: 0000 00c0 01a2 de3f 0000 0080 dcd3 ca3f
000000b0: 0000 0000 0fbc d9bf 0000 00c0 03fc ef3f
000000c0: 0000 00a0 3efe dd3f 0000 0000 7622 cb3f
000000d0: 0000 0040 63bf d9bf 0000 0080 22fc ef3f
000000e0: 0000 0060 6784 e13f 0000 00e0 3ed9 cd3f
000000f0: 0000 0040 23ad c7bf 0000 0000 7bf8 ef3f
00000100: 0000 0000 4740 dd3f 0000 0040 8a62 ce3f
00000110: 0000 0080 6c2f c7bf 0000 00a0 5afc ef3f
00000120: 0000 0080 0bbf e03f 0000 0020 a22f d33f
00000130: 0000 00c0 e917 d7bf 0000 0060 74fe ef3f
00000140: 0000 0060 b20a df3f 0000 0020 1274 d33f
00000150: 0000 0080 680d d7bf 0000 00a0 07ff ef3f
00000160: 0000 0060 4b71 e43f 0000 0060 2ebc df3f
00000170: 0000 0040 c1fc b4bf 0000 0000 1bfa ef3f
00000180: 0000 00c0 41ed d73f 0000 00c0 a2b4 e03f
00000190: 0000 0000 ca88 adbf 0000 00c0 dafb ef3f
000001a0: 0000 0060 b3b0 e63f 0000 0040 7efd eb3f
000001b0: 0000 00e0 9ec0 d8bf 0000 0060 d339 ee3f
000001c0: 0000 00a0 a121 d33f 0000 0080 83af ed3f
000001d0: 0000 0060 532a d6bf 0000 0060 aabf ee3f
000001e0: 0000 0060 858f e63f 0000 00e0 e2a5 e43f
000001f0: 0000 00a0 f15e eebf 0000 00c0 c247 eb3f
00000200: 0000 0080 1826 d33f 0000 00a0 4614 e53f
00000210: 0000 0040 815a eebf 0000 0080 f982 eb3f
00000220: 0000 0000 a921 e63f 0000 00c0 3962 e23f
00000230: 0000 00a0 359f f0bf 0000 00e0 b76f ea3f
00000240: 0000 0040 395b d33f 0000 0060 adb2 e23f
00000250: 0000 0000 569b f0bf 0000 0000 ab59 ea3f
00000260: 0000 0040 ba28 e63f 0000 00c0 e5f5 e03f
00000270: 0000 00e0 8f12 f0bf 0000 0060 3cdd ea3f
00000280: 0000 0000 e420 d33f 0000 0040 390f e13f
00000290: 0000 0020 294f f0bf 0000 0080 78e4 ea3f
000002a0: 0000 0080 b805 e63f 0000 0020 d695 e13f
000002b0: 0000 0000 9a55 eebf 0000 0000 c6ea ea3f
000002c0: 0000 0020 e75e d33f 0000 0040 aea0 e13f
000002d0: 0000 00c0 019e eebf 0000 0080 70ea ea3f
000002e0: 0000 0040 c802 e33f 0000 0000 b231 f13f
000002f0: 0000 0000 62fa 74bf 0000 0040 8889 d63f
00000300: 0000 0040 c24b db3f 0000 00a0 b126 f23f
00000310: 0000 0060 162e 7f3f 0000 0000 a5a8 d63f
00000320: 0000 00a0 ec2a e33f 0000 00c0 4494 f93f
00000330: 0000 0040 ddcb 4b3f 0000 0060 68bc 913f
00000340: 0000 00c0 f72c db3f 0000 00c0 1ba2 f93f
00000350: 0000 00c0 2e5f a63f 0000 0020 3e23 7f3f
00000360: 0000 0080 82e3 e23f 0000 0020 a13a 0040
00000370: 0000 0040 a398 d23f 0000 0060 aafc 583f
00000380: 0000 00c0 b627 db3f 0000 00c0 7c23 0040
00000390: 0000 00a0 b8b6 cf3f 0000 00e0 5227 573f
000003a0: 0000 0040 0410 e33f 0000 0020 e0af 0040
000003b0: 0000 0040 ef46 d33f 0000 0040 e424 583f
000003c0: 0000 00c0 dba5 da3f 0000 0040 be91 0040
000003d0: 0000 0080 95ac d03f 0000 00e0 fdbf 5f3f
000003e0: 0000 00e0 6427 e23f 0000 0060 5c5e 0140
000003f0: 0000 00c0 33d1 773f 0000 00a0 914d 543f
00000400: 0000 0040 8607 dd3f 0000 0000 bb47 0140
00000410: 0000 0060 2872 b0bf 0000 00e0 a0c3 613f
00000420: 0000 00c0 2408 e73f 0000 00a0 47c9 e33f
00000430: 0000 0000 8163 88be 0000 0000 9805 e73f
00000440: 0000 0080 d1f0 e13f 0000 00e0 2ef4 34bf
00000450: 0000 0020 b4be e63f 0000 0020 58a1 df3f
00000460: 0000 0060 a132 77bf 0000 0000 65cc e63f
00000470: 0000 0020 3478 dc3f 0000 00c0 6efb 86bf
00000480: 0000 0040 d21c e73f 0000 0040 7c41 da3f
00000490: 0000 00a0 10d7 90bf 0000 0080 4643 e63f
000004a0: 0000 00e0 b6e2 df3f 0000 00e0 217b 96bf
000004b0: 0000 0000 a1ec e43f 0000 0060 8284 df3f
000004c0: 0000 0020 cbed 9dbf 0000 0080 3730 e53f
000004d0: 0000 0040 644e e03f 0000 0000 1a81 9dbf
000004e0: 0000 00a0 0e9c e53f 0000 0080 fe70 e03f
000004f0: 0000 0060 24d7 9cbf 0000 0020 781b e63f
00000500: 0000 0000 1df5 e03f 0000 0000 acf3 9abf
00000510: 0000 00e0 a7c1 e43f 0000 0080 bfe1 e03f
00000520: 0000 0000 9309 a1bf 0000 00e0 ec12 e53f
00000530: 0000 0000 3365 e13f 0000 0060 a23d 9ebf
00000540: 0000 0080 7e7b e53f 0000 00a0 e073 e13f
00000550: 0000 00c0 26a2 9cbf 0000 0060 4def e53f
00000560: 0000 0020 e817 e23f 0000 0060 30b6 9ebf
00000570: 0000 00c0 e3b6 e43f 0000 00e0 f9c3 e13f
00000580: 0000 0000 b073 a2bf 0000 0060 00fd e43f
00000590: 0000 0060 6830 e23f 0000 0040 5d28 9fbf
000005a0: 0000 00c0 1b62 e53f 0000 00c0 ca56 e23f
000005b0: 0000 0080 f119 9cbf 0000 0000 24c8 e53f
000005c0: 0000 00e0 1e2a e33f 0000 00a0 491e a1bf
000005d0: 0000 0000 8dcc e43f 0000 0000 a7d5 e23f
000005e0: 0000 00c0 200f a4bf 0000 0080 e835 e43f
000005f0: 0000 0080 53c0 e23f 0000 0040 7065 a4bf
00000600: 0000 0000 3cbd e33f 0000 00c0 649e e23f
00000610: 0000 0020 86eb a4bf 0000 00c0 2408 e73f
00000620: 0000 00a0 47c9 e33f 0000 0000 8163 88be
00000630: 0000 0000 9805 e73f 0000 0080 d1f0 e13f
00000640: 0000 00e0 2ef4 34bf 0000 0020 b4be e63f
00000650: 0000 0020 58a1 df3f 0000 0060 a132 77bf
00000660: 0000 0000 65cc e63f 0000 0020 3478 dc3f
00000670: 0000 00c0 6efb 86bf 0000 0040 d21c e73f
00000680: 0000 0040 7c41 da3f 0000 00a0 10d7 90bf
00000690: 0000 0080 4643 e63f 0000 00e0 b6e2 df3f
000006a0: 0000 00e0 217b 96bf 0000 0000 a1ec e43f
000006b0: 0000 0060 8284 df3f 0000 0020 cbed 9dbf
000006c0: 0000 0080 3730 e53f 0000 0040 644e e03f
000006d0: 0000 0000 1a81 9dbf 0000 00a0 0e9c e53f
000006e0: 0000 0080 fe70 e03f 0000 0060 24d7 9cbf
000006f0: 0000 0020 781b e63f 0000 0000 1df5 e03f
00000700: 0000 0000 acf3 9abf 0000 00e0 a7c1 e43f
00000710: 0000 0080 bfe1 e03f 0000 0000 9309 a1bf
00000720: 0000 00e0 ec12 e53f 0000 0000 3365 e13f
00000730: 0000 0060 a23d 9ebf 0000 0080 7e7b e53f
00000740: 0000 00a0 e073 e13f 0000 00c0 26a2 9cbf
00000750: 0000 0060 4def e53f 0000 0020 e817 e23f
00000760: 0000 0060 30b6 9ebf 0000 00c0 e3b6 e43f
00000770: 0000 00e0 f9c3 e13f 0000 0000 b073 a2bf
00000780: 0000 0060 00fd e43f 0000 0060 6830 e23f
00000790: 0000 0040 5d28 9fbf 0000 00c0 1b62 e53f
000007a0: 0000 00c0 ca56 e23f 0000 0080 f119 9cbf
000007b0: 0000 0000 24c8 e53f 0000 00e0 1e2a e33f
000007c0: 0000 00a0 491e a1bf 0000 0000 8dcc e43f
000007d0: 0000 0000 a7d5 e23f 0000 00c0 200f a4bf
000007e0: 0000 0080 e835 e43f 0000 0080 53c0 e23f
000007f0: 0000 0040 7065 a4bf 0000 0000 3cbd e33f
