files/processed_files/weight/0/weight_0_71.npy (npy, 2192 bytes, 1 tensors)

array f8 [258]
000000 00 00 00 60 58 d0 e0 3f 00 00 00 a0 8a 27 d2 3f
       0.5254327654838562 0.28366342186927795
000010 00 00 00 00 8e e6 ea bf 00 00 00 a0 ec ff ef 3f
       -0.8406438827514648 0.9999907612800598
000020 00 00 00 c0 91 61 e1 3f 00 00 00 e0 10 f7 ce 3f
       0.5431603193283081 0.24191485345363617
000030 00 00 00 60 f7 ef e9 bf 00 00 00 60 db ff ef 3f
       -0.8105427622795105 0.9999825358390808
000040 00 00 00 a0 2d bb e1 3f 00 00 00 20 6a 23 cf 3f
       0.554098904132843 0.24326826632022858
000050 00 00 00 a0 bd ef e9 bf 00 00 00 60 df ff ef 3f
       -0.8105152249336243 0.9999844431877136
000060 00 00 00 a0 c7 11 e2 3f 00 00 00 80 5d 51 cf 3f
       0.5646703839302063 0.244670569896698
000070 00 00 00 00 76 ed e9 bf 00 00 00 20 d5 ff ef 3f
       -0.810236930847168 0.999979555606842
000080 00 00 00 c0 fa 58 e0 3f 00 00 00 c0 61 d2 ce 3f
       0.5108617544174194 0.2407953441143036
000090 00 00 00 e0 77 95 e9 bf 00 00 00 40 dc ff ef 3f
       -0.7994956374168396 0.9999829530715942
0000a0 00 00 00 80 7e 1b e0 3f 00 00 00 40 86 de ce 3f
       0.5033562183380127 0.2411659061908722
0000b0 00 00 00 60 00 95 e9 bf 00 00 00 00 e2 ff ef 3f
       -0.7994386553764343 0.9999856948852539
0000c0 00 00 00 60 60 ce df 3f 00 00 00 e0 db ed ce 3f
       0.4969712197780609 0.24163387715816498
0000d0 00 00 00 e0 26 96 e9 bf 00 00 00 00 dd ff ef 3f
       -0.7995790839195251 0.9999833106994629
0000e0 00 00 00 20 df 9c e2 3f 00 00 00 a0 67 3d d1 3f
       0.5816493630409241 0.2693728506565094
0000f0 00 00 00 a0 dd ab e1 bf 00 00 00 40 d5 ff ef 3f
       -0.5522297024726868 0.9999796152114868
000100 00 00 00 40 3d 4a df 3f 00 00 00 00 56 fe d0 3f
       0.48890620470046997 0.26552343368530273
000110 00 00 00 c0 4b af df bf 00 00 00 20 d7 ff ef 3f
       -0.49507421255111694 0.9999805092811584
000120 00 00 00 20 8c 8a e1 3f 00 00 00 40 f8 17 d5 3f
       0.5481625199317932 0.32958799600601196
000130 00 00 00 c0 5c c2 e7 bf 00 00 00 e0 f5 ff ef 3f
       -0.7424758672714233 0.9999951720237732
000140 00 00 00 20 79 3f e0 3f 00 00 00 40 36 eb d4 3f
       0.5077481865882874 0.32685619592666626
000150 00 00 00 60 f5 44 e7 bf 00 00 00 e0 f5 ff ef 3f
       -0.7271677851676941 0.9999951720237732
000160 00 00 00 a0 6a d0 e4 3f 00 00 00 60 0d 91 e0 3f
       0.6504414677619934 0.517706573009491
000170 00 00 00 60 8d f8 d7 bf 00 00 00 a0 98 ff ef 3f
       -0.3745454251766205 0.9999507069587708
000180 00 00 00 60 f3 71 db 3f 00 00 00 e0 b3 94 df 3f
       0.42882999777793884 0.4934510886669159
000190 00 00 00 60 a2 0a d1 bf 00 00 00 a0 7f ff ef 3f
       -0.2662740647792816 0.9999387860298157
0001a0 00 00 00 20 f0 86 e6 3f 00 00 00 80 64 af ed 3f
       0.7039719223976135 0.9276602268218994
0001b0 00 00 00 a0 13 df e2 bf 00 00 00 40 58 d3 ef 3f
       -0.5897310376167297 0.9945489168167114
0001c0 00 00 00 80 12 1a d4 3f 00 00 00 e0 3b e3 ea 3f
       0.3140913248062134 0.8402385115623474
0001d0 00 00 00 c0 53 fb de bf 00 00 00 40 93 d8 ef 3f
       -0.48408979177474976 0.9951874017715454
0001e0 00 00 00 20 82 87 e3 3f 00 00 00 c0 fb 05 e7 3f
       0.6102915406227112 0.7194803953170776
0001f0 00 00 00 c0 08 a4 f1 bf 00 00 00 80 a3 95 ee 3f
       -1.1025474071502686 0.9557664394378662
000200 00 00 00 60 ca d3 d9 3f 00 00 00 c0 a7 62 e6 3f
       0.4035516679286957 0.6995428800582886
000210 00 00 00 c0 6e 01 f1 bf 00 00 00 a0 4d c3 ee 3f
       -1.062849760055542 0.9613407254219055
000220 00 00 00 40 35 3b e2 3f 00 00 00 60 38 34 e7 3f
       0.5697275400161743 0.7251245379447937
000230 00 00 00 40 8c 4d f3 bf 00 00 00 60 c5 3e ee 3f
       -1.206432580947876 0.9451624751091003
000240 00 00 00 c0 5a 0f dc 3f 00 00 00 c0 70 8e e6 3f
       0.43843716382980347 0.7048877477645874
000250 00 00 00 20 e8 90 f2 bf 00 00 00 40 87 eb ed 3f
       -1.1603776216506958 0.935001015663147
000260 00 00 00 a0 db e5 e1 3f 00 00 00 e0 6a ba e5 3f
       0.5593088269233704 0.679006040096283
000270 00 00 00 c0 18 00 f3 bf 00 00 00 80 56 58 ee 3f
       -1.187523603439331 0.9482834339141846
000280 00 00 00 00 d5 c9 dc 3f 00 00 00 80 4f 39 e5 3f
       0.44981884956359863 0.6632459163665771
000290 00 00 00 40 6d 4d f2 bf 00 00 00 e0 05 ff ed 3f
       -1.1439030170440674 0.9373807311058044
0002a0 00 00 00 e0 23 1d e2 3f 00 00 00 e0 41 9a e5 3f
       0.5660571455955505 0.6750802397727966
0002b0 00 00 00 c0 87 9b f1 bf 00 00 00 c0 f5 45 ee 3f
       -1.1004712581634521 0.9460400342941284
0002c0 00 00 00 60 76 79 dc 3f 00 00 00 80 47 27 e5 3f
       0.44491347670555115 0.6610448360443115
0002d0 00 00 00 00 25 10 f1 bf 00 00 00 00 76 f5 ed 3f
       -1.066441535949707 0.936213493347168
0002e0 00 00 00 40 43 cf e2 3f 00 00 00 20 f8 b5 f0 3f
       0.5878006219863892 1.0444260835647583
0002f0 00 00 00 00 db 8f 9d bf 00 00 00 c0 53 46 e9 3f
       -0.028869077563285828 0.7898348569869995
000300 00 00 00 00 c1 7c dc 3f 00 00 00 80 b4 73 f0 3f
       0.4451143741607666 1.0282483100891113
000310 00 00 00 60 01 5a 9f 3f 00 00 00 60 ed 92 e9 3f
       0.03061678074300289 0.7991854548454285
000320 00 00 00 20 38 fa e2 3f 00 00 00 c0 39 c9 f7 3f
       0.5930443406105042 1.4866273403167725
000330 00 00 00 a0 b1 92 ba 3f 00 00 00 80 0f 84 92 3f
       0.10380087047815323 0.018081896007061005
000340 00 00 00 00 3b 24 dc 3f 00 00 00 80 02 8d f7 3f
       0.439711332321167 1.471926212310791
000350 00 00 00 c0 2f 53 ce 3f 00 00 00 a0 1d 41 89 3f
       0.23691365122795105 0.012331229634582996
000360 00 00 00 60 8d a4 e2 3f 00 00 00 c0 1b 9b fd 3f
       0.582586944103241 1.8503682613372803
000370 00 00 00 e0 34 ac e2 3f 00 00 00 00 3a 48 6d 3f
       0.58352130651474 0.0035744793713092804
000380 00 00 00 00 25 e8 db 3f 00 00 00 e0 ce 65 fd 3f
       0.43604397773742676 1.8373554944992065
000390 00 00 00 c0 2d 93 e5 3f 00 00 00 a0 4e 64 6c 3f
       0.6742161512374878 0.003465798916295171
0003a0 00 00 00 40 94 c8 e2 3f 00 00 00 e0 1b 82 fe 3f
       0.5869847536087036 1.9067648649215698
0003b0 00 00 00 c0 b0 89 e3 3f 00 00 00 40 fe fa 64 3f
       0.6105579137802124 0.0025610891170799732
0003c0 00 00 00 a0 97 78 db 3f 00 00 00 e0 a5 4a fe 3f
       0.4292353689670563 1.8932245969772339
0003d0 00 00 00 20 8c b8 e6 3f 00 00 00 20 03 dc 6e 3f
       0.7100277543067932 0.003767019370570779
0003e0 00 00 00 00 60 d2 e1 3f 00 00 00 e0 f5 b1 ff 3f
       0.5569305419921875 1.9809473752975464
0003f0 00 00 00 40 13 ef d0 3f 00 00 00 40 18 fa 66 3f
       0.2645919919013977 0.00280480133369565
000400 00 00 00 c0 b1 3a dd 3f 00 00 00 40 3e a5 ff 3f
       0.4567074179649353 1.9778425693511963
000410 00 00 00 40 c3 b2 d6 3f 00 00 00 00 17 05 73 3f
       0.3546608090400696 0.004643525928258896
000420 00 00 00 60 22 74 e3 3f 00 00 00 40 c3 be e6 3f
       0.6079265475273132 0.7107864618301392
000430 00 00 00 60 1d b0 64 3e 00 00 00 40 7b cc e2 3f
       3.853430641242994e-08 0.5874611139297485
000440 00 00 00 80 31 8f e5 3f 00 00 00 a0 ac 0e 2a 3f
       0.673729658126831 0.0001988015865208581
000450 00 00 00 80 32 cf e1 3f 00 00 00 c0 17 21 e5 3f
       0.5565426349639893 0.6602896451950073
000460 00 00 00 a0 20 a6 6c bf 00 00 00 20 ef 04 e1 3f
       -0.0034971844870597124 0.5318523049354553
000470 00 00 00 60 54 47 e5 3f 00 00 00 80 d7 b3 7e bf
       0.6649572253227234 -0.007495729252696037
000480 00 00 00 a0 15 6b e0 3f 00 00 00 a0 17 85 e5 3f
       0.5130718350410461 0.6724966168403625
000490 00 00 00 60 18 c2 88 bf 00 00 00 40 90 aa e1 3f
       -0.012088957242667675 0.5520707368850708
0004a0 00 00 00 c0 e6 7c e4 3f 00 00 00 80 cd ef 8c bf
       0.6402467489242554 -0.014129262417554855
0004b0 00 00 00 40 ac 9f e0 3f 00 00 00 a0 24 ed e4 3f
       0.5194913148880005 0.6539481282234192
0004c0 00 00 00 a0 a5 20 97 bf 00 00 00 60 17 09 e0 3f
       -0.02258547581732273 0.501109778881073
0004d0 00 00 00 a0 46 42 e5 3f 00 00 00 e0 53 8f 9c bf
       0.6643403172492981 -0.02789050154387951
0004e0 00 00 00 c0 2b 2e df 3f 00 00 00 60 6b 84 e5 3f
       0.4871930480003357 0.6724144816398621
0004f0 00 00 00 00 80 87 9f bf 00 00 00 a0 5c c0 e1 3f
       -0.030790328979492188 0.5547316670417786
000500 00 00 00 80 a0 7a e5 3f 00 00 00 c0 5a 63 93 bf
       0.6712191104888916 -0.018933694809675217
000510 00 00 00 00 46 93 e0 3f 00 00 00 e0 30 e5 e5 3f
       0.5179777145385742 0.6842274069786072
000520 00 00 00 40 a1 e3 9a bf 00 00 00 20 1d b0 df 3f
       -0.026258964091539383 0.49512413144111633
000530 00 00 00 c0 77 2b e6 3f 00 00 00 20 03 2a 9e bf
       0.6928061246871948 -0.02945713885128498
000540 00 00 00 a0 44 8d de 3f 00 00 00 80 e8 67 e6 3f
       0.47737231850624084 0.7001841068267822
000550 00 00 00 20 49 70 a0 bf 00 00 00 40 0a e2 e1 3f
       -0.0321066714823246 0.5588427782058716
000560 00 00 00 a0 4b 91 e6 3f 00 00 00 80 c7 4d 97 bf
       0.7052362561225891 -0.022757641971111298
000570 00 00 00 c0 6e ac e0 3f 00 00 00 20 10 12 e7 3f
       0.521048903465271 0.720954954624176
000580 00 00 00 e0 fe 8f 9e bf 00 00 00 c0 7c be e0 3f
       -0.029846174642443657 0.5232528448104858
000590 00 00 00 80 d4 12 e7 3f 00 00 00 80 e9 7f 9b bf
       0.7210485935211182 -0.02685513347387314
0005a0 00 00 00 20 b4 0b e1 3f 00 00 00 c0 c2 00 e7 3f
       0.5326786637306213 0.7188428640365601
0005b0 00 00 00 20 78 f6 97 bf 00 00 00 40 b8 06 e2 3f
       -0.02340114302933216 0.5633202791213989
0005c0 00 00 00 40 5e a7 e7 3f 00 00 00 40 02 fc 9a bf
       0.7391806840896606 -0.026351962238550186
0005d0 00 00 00 c0 5a 01 e1 3f 00 00 00 60 63 df e7 3f
       0.5314153432846069 0.7460190653800964
0005e0 00 00 00 c0 84 e6 9f bf 00 00 00 a0 c8 ec e0 3f
       -0.031152796000242233 0.5289042592048645
0005f0 00 00 00 00 5b bf e7 3f 00 00 00 c0 f5 31 9c bf
       0.7421088218688965 -0.027534332126379013
000600 00 00 00 c0 90 16 e1 3f 00 00 00 a0 25 92 e7 3f
       0.5340045690536499 0.7365902066230774
000610 00 00 00 20 28 32 98 bf 00 00 00 60 22 74 e3 3f
       -0.023628832772374153 0.6079265475273132
000620 00 00 00 40 c3 be e6 3f 00 00 00 60 1d b0 64 3e
       0.7107864618301392 3.853430641242994e-08
000630 00 00 00 40 7b cc e2 3f 00 00 00 80 31 8f e5 3f
       0.5874611139297485 0.673729658126831
000640 00 00 00 a0 ac 0e 2a 3f 00 00 00 80 32 cf e1 3f
       0.0001988015865208581 0.5565426349639893
000650 00 00 00 c0 17 21 e5 3f 00 00 00 a0 20 a6 6c bf
       0.6602896451950073 -0.0034971844870597124
000660 00 00 00 20 ef 04 e1 3f 00 00 00 60 54 47 e5 3f
       0.5318523049354553 0.6649572253227234
000670 00 00 00 80 d7 b3 7e bf 00 00 00 a0 15 6b e0 3f
       -0.007495729252696037 0.5130718350410461
000680 00 00 00 a0 17 85 e5 3f 00 00 00 60 18 c2 88 bf
       0.6724966168403625 -0.012088957242667675
000690 00 00 00 40 90 aa e1 3f 00 00 00 c0 e6 7c e4 3f
       0.5520707368850708 0.6402467489242554
0006a0 00 00 00 80 cd ef 8c bf 00 00 00 40 ac 9f e0 3f
       -0.014129262417554855 0.5194913148880005
0006b0 00 00 00 a0 24 ed e4 3f 00 00 00 a0 a5 20 97 bf
       0.6539481282234192 -0.02258547581732273
0006c0 00 00 00 60 17 09 e0 3f 00 00 00 a0 46 42 e5 3f
       0.501109778881073 0.6643403172492981
0006d0 00 00 00 e0 53 8f 9c bf 00 00 00 c0 2b 2e df 3f
       -0.02789050154387951 0.4871930480003357
0006e0 00 00 00 60 6b 84 e5 3f 00 00 00 00 80 87 9f bf
       0.6724144816398621 -0.030790328979492188
0006f0 00 00 00 a0 5c c0 e1 3f 00 00 00 80 a0 7a e5 3f
       0.5547316670417786 0.6712191104888916
000700 00 00 00 c0 5a 63 93 bf 00 00 00 00 46 93 e0 3f
       -0.018933694809675217 0.5179777145385742
000710 00 00 00 e0 30 e5 e5 3f 00 00 00 40 a1 e3 9a bf
       0.6842274069786072 -0.026258964091539383
000720 00 00 00 20 1d b0 df 3f 00 00 00 c0 77 2b e6 3f
       0.49512413144111633 0.6928061246871948
000730 00 00 00 20 03 2a 9e bf 00 00 00 a0 44 8d de 3f
       -0.02945713885128498 0.47737231850624084
000740 00 00 00 80 e8 67 e6 3f 00 00 00 20 49 70 a0 bf
       0.7001841068267822 -0.0321066714823246
000750 00 00 00 40 0a e2 e1 3f 00 00 00 a0 4b 91 e6 3f
       0.5588427782058716 0.7052362561225891
000760 00 00 00 80 c7 4d 97 bf 00 00 00 c0 6e ac e0 3f
       -0.022757641971111298 0.521048903465271
000770 00 00 00 20 10 12 e7 3f 00 00 00 e0 fe 8f 9e bf
       0.720954954624176 -0.029846174642443657
000780 00 00 00 c0 7c be e0 3f 00 00 00 80 d4 12 e7 3f
       0.5232528448104858 0.7210485935211182
000790 00 00 00 80 e9 7f 9b bf 00 00 00 20 b4 0b e1 3f
       -0.02685513347387314 0.5326786637306213
0007a0 00 00 00 c0 c2 00 e7 3f 00 00 00 20 78 f6 97 bf
       0.7188428640365601 -0.02340114302933216
0007b0 00 00 00 40 b8 06 e2 3f 00 00 00 40 5e a7 e7 3f
       0.5633202791213989 0.7391806840896606
0007c0 00 00 00 40 02 fc 9a bf 00 00 00 c0 5a 01 e1 3f
       -0.026351962238550186 0.5314153432846069
0007d0 00 00 00 60 63 df e7 3f 00 00 00 c0 84 e6 9f bf
       0.7460190653800964 -0.031152796000242233
0007e0 00 00 00 a0 c8 ec e0 3f 00 00 00 00 5b bf e7 3f
       0.5289042592048645 0.7421088218688965
0007f0 00 00 00 c0 f5 31 9c bf 00 00 00 c0 90 16 e1 3f
       -0.027534332126379013 0.5340045690536499
