files/processed_files/weight/0/weight_0_112.npy (npy, 2192 bytes, 1 tensors)

array f8 [258]
0.5244027376174927 0.2758488357067108 -0.8108156323432922 0.9999964833259583 0.5429285764694214 0.2359912246465683 -0.7723926305770874 0.9999938011169434
0.5541993975639343 0.23756994307041168 -0.7724987864494324 0.9999930262565613 0.5642615556716919 0.23958075046539307 -0.7722234129905701 0.9999915957450867
0.5096145272254944 0.23441293835639954 -0.7651042938232422 0.9999942183494568 0.5019742250442505 0.23511770367622375 -0.765271782875061 0.999994158744812
0.4945251941680908 0.23534874618053436 -0.765583336353302 0.9999933838844299 0.5800520181655884 0.2664054334163666 -0.5115338563919067 0.9999933838844299
0.4855388104915619 0.26341357827186584 -0.47082310914993286 0.999992847442627 0.5475926399230957 0.3255620300769806 -0.7131682634353638 0.9999985694885254
0.5048015117645264 0.32151514291763306 -0.702736496925354 0.9999983310699463 0.6498982906341553 0.5201690196990967 -0.3615068197250366 0.9999839663505554
0.4214525818824768 0.5006308555603027 -0.23295049369335175 0.9999434351921082 0.7088601589202881 0.9240507483482361 -0.44162750244140625 0.9980612993240356
0.32207053899765015 0.846856951713562 -0.30078253149986267 0.9958563446998596 0.5627307295799255 0.9628733396530151 -0.7525381445884705 0.9949610829353333
0.41794466972351074 0.9570112228393555 -0.7444515824317932 0.9678280353546143 0.511181652545929 0.990067720413208 -0.849291980266571 0.9762211441993713
0.4478175640106201 0.9854410886764526 -0.8379608988761902 0.9025270938873291 0.496344655752182 0.9551712870597839 -0.8323028683662415 0.9778178930282593
0.4608668386936188 0.936273455619812 -0.8520624041557312 0.9056837558746338 0.5070805549621582 0.9420126080513 -0.7489078044891357 0.9718939661979675
0.4567556381225586 0.9236360192298889 -0.7564471960067749 0.8978083729743958 0.6006426215171814 1.0744309425354004 -0.07296602427959442 0.7420868277549744
0.45179933309555054 1.0978089570999146 0.07440308481454849 0.745448648929596 0.5987814664840698 1.5311107635498047 -0.04542049393057823 0.017451347783207893
0.44858407974243164 1.5287880897521973 0.17074358463287354 0.011935795657336712 0.5918988585472107 1.9061235189437866 0.43212199211120605 0.0016015185974538326
0.4482784867286682 1.9030373096466064 0.5081383585929871 0.0022964368108659983 0.5977008938789368 1.9631266593933105 0.459303617477417 0.0008343875524587929
0.45038509368896484 1.964228868484497 0.5322939157485962 0.0038540430832654238 0.5616158246994019 2.039278507232666 0.1276015043258667 0.0010652574710547924
0.4514226019382477 2.0322070121765137 0.20075233280658722 0.0064988527446985245 0.5591514110565186 0.9725321531295776 2.1445370634864958e-07 0.5404527187347412
0.9317652583122253 -0.0142434136942029 0.5119949579238892 0.9094714522361755 -0.018743708729743958 0.48749226331710815 0.9036258459091187 -0.019967740401625633
0.4701381027698517 0.8991997241973877 -0.019705163314938545 0.5012043118476868 0.9756284356117249 -0.0155966030433774 0.46792492270469666 0.9957683086395264
-0.021477892994880676 0.45055994391441345 0.9860567450523376 -0.02446112036705017 0.4423070549964905 0.971476674079895 -0.024549804627895355 0.5036495327949524
1.0020155906677246 -0.00787398312240839 0.4724923372268677 1.0080493688583374 -0.010902940295636654 0.45920097827911377 0.9929749369621277 -0.011739027686417103
0.45442211627960205 0.9772732257843018 -0.011511577293276787 0.5063431859016418 1.0155409574508667 -0.0009837194811552763 0.47850269079208374 1.0194649696350098
-0.0029364002402871847 0.46546605229377747 1.0075112581253052 -0.002955522621050477 0.45786818861961365 0.9943929314613342 -0.0022401802707463503 0.5081372857093811
1.0201804637908936 0.004817269276827574 0.48458001017570496 1.0250270366668701 0.004144334699958563 0.47228261828422546 1.0156123638153076 0.005303751677274704
0.4655431807041168 1.00516939163208 0.007164488080888987 0.5591514110565186 0.9725321531295776 2.1445370634864958e-07 0.5404527187347412 0.9317652583122253
-0.0142434136942029 0.5119949579238892 0.9094714522361755 -0.018743708729743958 0.48749226331710815 0.9036258459091187 -0.019967740401625633 0.4701381027698517
0.8991997241973877 -0.019705163314938545 0.5012043118476868 0.9756284356117249 -0.0155966030433774 0.46792492270469666 0.9957683086395264 -0.021477892994880676
0.45055994391441345 0.9860567450523376 -0.02446112036705017 0.4423070549964905 0.971476674079895 -0.024549804627895355 0.5036495327949524 1.0020155906677246
-0.00787398312240839 0.4724923372268677 1.0080493688583374 -0.010902940295636654 0.45920097827911377 0.9929749369621277 -0.011739027686417103 0.45442211627960205
0.9772732257843018 -0.011511577293276787 0.5063431859016418 1.0155409574508667 -0.0009837194811552763 0.47850269079208374 1.0194649696350098 -0.0029364002402871847
0.46546605229377747 1.0075112581253052 -0.002955522621050477 0.45786818861961365 0.9943929314613342 -0.0022401802707463503 0.5081372857093811 1.0201804637908936
0.004817269276827574 0.48458001017570496 1.0250270366668701 0.004144334699958563 0.47228261828422546 1.0156123638153076 0.005303751677274704 0.4655431807041168
00000000: 0000 0040 e8c7 e03f 0000 00e0 81a7 d13f
00000010: 0000 00a0 33f2 e9bf 0000 00a0 f8ff ef3f
00000020: 0000 00c0 ab5f e13f 0000 00e0 f534 ce3f
00000030: 0000 00c0 70b7 e8bf 0000 0000 f3ff ef3f
00000040: 0000 0060 00bc e13f 0000 0020 b168 ce3f
00000050: 0000 0060 4fb8 e8bf 0000 0060 f1ff ef3f
00000060: 0000 0040 6e0e e23f 0000 0000 95aa ce3f
00000070: 0000 00e0 0db6 e8bf 0000 0060 eeff ef3f
00000080: 0000 0020 c34e e03f 0000 0040 3e01 ce3f
00000090: 0000 0000 bc7b e8bf 0000 00e0 f3ff ef3f
000000a0: 0000 0040 2c10 e03f 0000 0040 5618 ce3f
000000b0: 0000 0040 1b7d e8bf 0000 00c0 f3ff ef3f
000000c0: 0000 0000 4da6 df3f 0000 0060 e81f ce3f
000000d0: 0000 00a0 a87f e8bf 0000 0020 f2ff ef3f
000000e0: 0000 0040 c98f e23f 0000 0060 c90c d13f
000000f0: 0000 0040 7c5e e0bf 0000 0020 f2ff ef3f
00000100: 0000 0060 1113 df3f 0000 00a0 c4db d03f
00000110: 0000 0040 f721 debf 0000 0000 f1ff ef3f
00000120: 0000 0000 e185 e13f 0000 0020 02d6 d43f
00000130: 0000 0040 46d2 e6bf 0000 0000 fdff ef3f
00000140: 0000 0080 5527 e03f 0000 0040 b493 d43f
00000150: 0000 0040 d17c e6bf 0000 0080 fcff ef3f
00000160: 0000 0080 f7cb e43f 0000 0080 39a5 e03f
00000170: 0000 0080 ed22 d7bf 0000 0060 deff ef3f
00000180: 0000 0040 14f9 da3f 0000 0000 2b05 e03f
00000190: 0000 0060 52d1 cdbf 0000 0060 89ff ef3f
000001a0: 0000 0080 fbae e63f 0000 00e0 d291 ed3f
000001b0: 0000 0000 a043 dcbf 0000 0040 1ef0 ef3f
000001c0: 0000 00c0 cd9c d43f 0000 00c0 7319 eb3f
000001d0: 0000 0060 0540 d3bf 0000 0020 0ede ef3f
000001e0: 0000 00e0 e301 e23f 0000 00c0 dbcf ee3f
000001f0: 0000 00e0 ca14 e8bf 0000 00a0 b8d6 ef3f
00000200: 0000 0000 9bbf da3f 0000 0000 d69f ee3f
00000210: 0000 0020 8cd2 e7bf 0000 0080 72f8 ee3f
00000220: 0000 00a0 995b e03f 0000 0080 a2ae ef3f
00000230: 0000 0060 662d ebbf 0000 0020 343d ef3f
00000240: 0000 0000 0ba9 dc3f 0000 00c0 bb88 ef3f
00000250: 0000 0060 93d0 eabf 0000 0080 80e1 ec3f
00000260: 0000 0060 1cc4 df3f 0000 0060 c390 ee3f
00000270: 0000 00a0 39a2 eabf 0000 00c0 484a ef3f
00000280: 0000 00a0 d77e dd3f 0000 00c0 f3f5 ed3f
00000290: 0000 0060 1844 ebbf 0000 0080 5cfb ec3f
000002a0: 0000 0000 013a e03f 0000 00a0 f724 ee3f
000002b0: 0000 0080 0df7 e7bf 0000 0060 c119 ef3f
000002c0: 0000 0000 7c3b dd3f 0000 0020 6d8e ed3f
000002d0: 0000 00c0 d034 e8bf 0000 00a0 d8ba ec3f
000002e0: 0000 00e0 7638 e33f 0000 0080 de30 f13f
000002f0: 0000 00c0 e6ad b2bf 0000 00e0 2cbf e73f
00000300: 0000 00c0 47ea dc3f 0000 0020 a090 f13f
00000310: 0000 00a0 140c b33f 0000 0020 b7da e73f
00000320: 0000 00c0 3729 e33f 0000 0000 6e7f f83f
00000330: 0000 00e0 5a41 a7bf 0000 0020 c4de 913f
00000340: 0000 0000 9ab5 dc3f 0000 0080 ea75 f83f
00000350: 0000 0000 edda c53f 0000 0060 cb71 883f
00000360: 0000 00e0 d5f0 e23f 0000 0060 7b7f fe3f
00000370: 0000 0000 e3a7 db3f 0000 0080 413d 5a3f
00000380: 0000 0040 98b0 dc3f 0000 0040 d772 fe3f
00000390: 0000 0060 ab42 e03f 0000 0020 facf 623f
000003a0: 0000 00a0 5d20 e33f 0000 0080 f768 ff3f
000003b0: 0000 0000 3b65 dd3f 0000 00a0 5957 4b3f
000003c0: 0000 0000 1cd3 dc3f 0000 0040 7b6d ff3f
000003d0: 0000 0040 8d08 e13f 0000 00a0 8392 6f3f
000003e0: 0000 00c0 c1f8 e13f 0000 0040 7150 0040
000003f0: 0000 0000 3f55 c03f 0000 0080 0374 513f
00000400: 0000 00a0 1be4 dc3f 0000 00c0 f541 0040
00000410: 0000 00a0 40b2 c93f 0000 0080 8a9e 7a3f
00000420: 0000 0080 91e4 e13f 0000 00c0 fb1e ef3f
00000430: 0000 00c0 92c8 8c3e 0000 0080 634b e13f
00000440: 0000 0060 05d1 ed3f 0000 00a0 a62b 8dbf
00000450: 0000 0040 4362 e03f 0000 00e0 631a ed3f
00000460: 0000 0000 8d31 93bf 0000 00c0 1233 df3f
00000470: 0000 00c0 80ea ec3f 0000 0060 6c72 94bf
00000480: 0000 0020 be16 de3f 0000 0080 3ec6 ec3f
00000490: 0000 0020 972d 94bf 0000 00a0 dd09 e03f
000004a0: 0000 0020 5938 ef3f 0000 00a0 1cf1 8fbf
000004b0: 0000 0060 7bf2 dd3f 0000 0080 55dd ef3f
000004c0: 0000 0000 4dfe 95bf 0000 0060 f9d5 dc3f
000004d0: 0000 00e0 c68d ef3f 0000 0000 560c 99bf
000004e0: 0000 0040 c24e dc3f 0000 0040 5616 ef3f
000004f0: 0000 0080 9523 99bf 0000 00a0 e51d e03f
00000500: 0000 0080 4108 f03f 0000 0020 3c20 80bf
00000510: 0000 0080 503d de3f 0000 0060 f820 f03f
00000520: 0000 00e0 4754 86bf 0000 0080 8c63 dd3f
00000530: 0000 0060 73c6 ef3f 0000 00a0 a10a 88bf
00000540: 0000 0080 4015 dd3f 0000 0080 d245 ef3f
00000550: 0000 00c0 6193 87bf 0000 00a0 f633 e03f
00000560: 0000 00e0 a73f f03f 0000 00c0 041e 50bf
00000570: 0000 00c0 c99f de3f 0000 0080 ba4f f03f
00000580: 0000 00e0 130e 68bf 0000 0020 32ca dd3f
00000590: 0000 0020 c41e f03f 0000 0020 2e36 68bf
000005a0: 0000 0060 b64d dd3f 0000 0020 11d2 ef3f
000005b0: 0000 00a0 ff59 62bf 0000 0020 a942 e03f
000005c0: 0000 00c0 a852 f03f 0000 00e0 45bb 733f
000005d0: 0000 00e0 5b03 df3f 0000 00c0 8266 f03f
000005e0: 0000 0060 a6f9 703f 0000 00e0 e039 de3f
000005f0: 0000 00c0 f23f f03f 0000 0000 63b9 753f
00000600: 0000 00a0 75cb dd3f 0000 0080 2c15 f03f
00000610: 0000 00a0 8258 7d3f 0000 0080 91e4 e13f
00000620: 0000 00c0 fb1e ef3f 0000 00c0 92c8 8c3e
00000630: 0000 0080 634b e13f 0000 0060 05d1 ed3f
00000640: 0000 00a0 a62b 8dbf 0000 0040 4362 e03f
00000650: 0000 00e0 631a ed3f 0000 0000 8d31 93bf
00000660: 0000 00c0 1233 df3f 0000 00c0 80ea ec3f
00000670: 0000 0060 6c72 94bf 0000 0020 be16 de3f
00000680: 0000 0080 3ec6 ec3f 0000 0020 972d 94bf
00000690: 0000 00a0 dd09 e03f 0000 0020 5938 ef3f
000006a0: 0000 00a0 1cf1 8fbf 0000 0060 7bf2 dd3f
000006b0: 0000 0080 55dd ef3f 0000 0000 4dfe 95bf
000006c0: 0000 0060 f9d5 dc3f 0000 00e0 c68d ef3f
000006d0: 0000 0000 560c 99bf 0000 0040 c24e dc3f
000006e0: 0000 0040 5616 ef3f 0000 0080 9523 99bf
000006f0: 0000 00a0 e51d e03f 0000 0080 4108 f03f
00000700: 0000 0020 3c20 80bf 0000 0080 503d de3f
00000710: 0000 0060 f820 f03f 0000 00e0 4754 86bf
00000720: 0000 0080 8c63 dd3f 0000 0060 73c6 ef3f
00000730: 0000 00a0 a10a 88bf 0000 0080 4015 dd3f
00000740: 0000 0080 d245 ef3f 0000 00c0 6193 87bf
00000750: 0000 00a0 f633 e03f 0000 00e0 a73f f03f
00000760: 0000 00c0 041e 50bf 0000 00c0 c99f de3f
00000770: 0000 0080 ba4f f03f 0000 00e0 130e 68bf
00000780: 0000 0020 32ca dd3f 0000 0020 c41e f03f
00000790: 0000 0020 2e36 68bf 0000 0060 b64d dd3f
000007a0: 0000 0020 11d2 ef3f 0000 00a0 ff59 62bf
000007b0: 0000 0020 a942 e03f 0000 00c0 a852 f03f
000007c0: 0000 00e0 45bb 733f 0000 00e0 5b03 df3f
000007d0: 0000 00c0 8266 f03f 0000 0060 a6f9 703f
000007e0: 0000 00e0 e039 de3f 0000 00c0 f23f f03f
000007f0: 0000 0000 63b9 753f 0000 00a0 75cb dd3f
