files/processed_files/weight/0/weight_0_79.npy (npy, 2192 bytes, 1 tensors)

array f8 [258]
0	0x3fe0cbd6c0000000	0.5248826742172241
1	0x3fd22fe000000000	0.28417205810546875
2	0xbfec621700000000	-0.8869738578796387
3	0x3feffff580000000	0.9999949932098389
4	0x3fe15d4460000000	0.5426351428031921
5	0x3fcf0b6820000000	0.24253560602664948
6	0xbfeb6dba00000000	-0.8571443557739258
7	0x3fefffed80000000	0.9999911785125732
8	0x3fe1b6b8c0000000	0.553554892539978
9	0x3fcf3af480000000	0.24398666620254517
10	0xbfeb6d5600000000	-0.8570966720581055
11	0x3fefffef80000000	0.9999921321868896
12	0x3fe20eed80000000	0.5643222332000732
13	0x3fcf6f91c0000000	0.24559232592582703
14	0xbfeb6aebc0000000	-0.8568018674850464
15	0x3fefffea80000000	0.9999897480010986
16	0x3fe0551a00000000	0.5103883743286133
17	0x3fceeeaae0000000	0.241658553481102
18	0xbfeb194340000000	-0.8468338251113892
19	0x3fefffece0000000	0.9999908804893494
20	0x3fe019dc40000000	0.5031567811965942
21	0x3fcef57820000000	0.2418661266565323
22	0xbfeb18c440000000	-0.8467732667922974
23	0x3fefffeec0000000	0.999991774559021
24	0x3fdfc76140000000	0.4965441823005676
25	0x3fcf08eea0000000	0.24246008694171906
26	0xbfeb19b240000000	-0.8468867540359497
27	0x3fefffeb00000000	0.9999899864196777
28	0x3fe29969c0000000	0.58122718334198
29	0x3fd13b2860000000	0.2692357003688812
30	0xbfe2f05480000000	-0.5918371677398682
31	0x3fefffeba0000000	0.9999902844429016
32	0x3fdf458dc0000000	0.48862022161483765
33	0x3fd10529c0000000	0.2659401297569275
34	0xbfe13e3540000000	-0.5388437509536743
35	0x3fefffe940000000	0.9999891519546509
36	0x3fe1858a60000000	0.5475513339042664
37	0x3fd5159a00000000	0.32944345474243164
38	0xbfe932e660000000	-0.787463366985321
39	0x3feffffb20000000	0.9999976754188538
40	0x3fe03b1cc0000000	0.5072158575057983
41	0x3fd4eb4100000000	0.3268587589263916
42	0xbfe8bad0e0000000	-0.7728046774864197
43	0x3feffffa80000000	0.9999973773956299
44	0x3fe4ccecc0000000	0.6500152349472046
45	0x3fe08efa20000000	0.5174532532691956
46	0xbfda746060000000	-0.4133530557155609
47	0x3fefffcf00000000	0.999976634979248
48	0x3fdb6f9ea0000000	0.42868772149086
49	0x3fdf95da80000000	0.4935213327407837
50	0xbfd3015180000000	-0.2969554662704468
51	0x3fefff9a00000000	0.9999513626098633
52	0x3fe68a8700000000	0.7044100761413574
53	0x3fedad1520000000	0.927378237247467
54	0xbfe3f93060000000	-0.6241685748100281
55	0x3fefe613c0000000	0.9968355894088745
56	0x3fd4196580000000	0.3140500783920288
57	0x3fead9ce40000000	0.8390876054763794
58	0xbfe0412080000000	-0.5079500675201416
59	0x3fefe40680000000	0.9965851306915283
60	0x3fe37cc9e0000000	0.6089829802513123
61	0x3fe70422e0000000	0.7192549109458923
62	0xbff236cae0000000	-1.138377070426941
63	0x3fef626420000000	0.9807606339454651
64	0x3fd9d32ea0000000	0.4035145342350006
65	0x3fe6818f60000000	0.7033154368400574
66	0xbff17c4c80000000	-1.092846393585205
67	0x3fef663440000000	0.9812260866165161
68	0x3fe2330840000000	0.5687295198440552
69	0x3fe78d2c40000000	0.7359830141067505
70	0xbff3e8d260000000	-1.244341254234314
71	0x3fef335ca0000000	0.9750197529792786
72	0x3fdc04cca0000000	0.43779292702674866
73	0x3fe6bed140000000	0.710793137550354
74	0xbff311bfc0000000	-1.191833257675171
75	0x3feeb6b580000000	0.9598033428192139
76	0x3fe1c03d60000000	0.5547167658805847
77	0x3fe63d8c40000000	0.695013165473938
78	0xbff3a2c5c0000000	-1.2272393703460693
79	0x3fef3e41a0000000	0.9763496518135071
80	0x3fdcc803a0000000	0.44970789551734924
81	0x3fe592f300000000	0.6741881370544434
82	0xbff2d3fcc0000000	-1.1767547130584717
83	0x3feeb8c2c0000000	0.9600538015365601
84	0x3fe1f3c400000000	0.5610065460205078
85	0x3fe60ad8c0000000	0.6888240575790405
86	0xbff22e1060000000	-1.1362460851669312
87	0x3fef3287e0000000	0.9749183058738708
88	0x3fdc7a7a40000000	0.44497543573379517
89	0x3fe5732dc0000000	0.6703099012374878
90	0xbff18be6c0000000	-1.0966556072235107
91	0x3feeb4b700000000	0.9595599174499512
92	0x3fe2ce2bc0000000	0.5876673460006714
93	0x3ff0b4c340000000	1.0441315174102783
94	0xbf9ee0fea0000000	-0.030155161395668983
95	0x3fe96ced80000000	0.7945468425750732
96	0x3fdc7bd300000000	0.44505763053894043
97	0x3ff06f9d60000000	1.0272496938705444
98	0x3fa05c9200000000	0.031956255435943604
99	0x3fe99ae7e0000000	0.8001593947410583
100	0x3fe3038a00000000	0.594182014465332
101	0x3ff7c63a80000000	1.4858956336975098
102	0x3fbca5ec60000000	0.11190678924322128
103	0x3f85668100000000	0.010449416935443878
104	0x3fdc394b40000000	0.4409969449043274
105	0x3ff78cb5c0000000	1.4718530178070068
106	0x3fcec18660000000	0.2402809113264084
107	0x3f7ef1a940000000	0.007554684765636921
108	0x3fe2b5cdc0000000	0.5846928358078003
109	0x3ffd965d60000000	1.8492101430892944
110	0x3fe2f869a0000000	0.5928238034248352
111	0x3f5e11ac00000000	0.0018352679908275604
112	0x3fdc105840000000	0.4384976029396057
113	0x3ffd659360000000	1.8372987508773804
114	0x3fe5e33c60000000	0.6839887499809265
115	0x3f5a1316c0000000	0.0015914652030915022
116	0x3fe2d876e0000000	0.5889238715171814
117	0x3ffe7c1940000000	1.9052975177764893
118	0x3fe3da8620000000	0.620425283908844
119	0x3f5829f880000000	0.001474850345402956
120	0x3fdbb07f00000000	0.4326474666595459
121	0x3ffe499d60000000	1.8929723501205444
122	0x3fe706aec0000000	0.719565749168396
123	0x3f5fd80ba0000000	0.0019435990834608674
124	0x3fe1ec6d80000000	0.5601108074188232
125	0x3fffadb820000000	1.9799119234085083
126	0x3fd1676140000000	0.2719348073005676
127	0x3f55ab31a0000000	0.0013225540751591325
128	0x3fdd5e2900000000	0.45887207984924316
129	0x3fffa13520000000	1.976857304573059
130	0x3fd6e442a0000000	0.35768190026283264
131	0x3f65b0b7c0000000	0.002647742163389921
132	0x3fe3750600000000	0.6080350875854492
133	0x3fe6e9e8c0000000	0.7160533666610718
134	0x3e682e7e60000000	4.5041769425324674e-08
135	0x3fe2b39620000000	0.5844221711158752
136	0x3fe5dbc4e0000000	0.6830772757530212
137	0xbf72a3bf40000000	-0.0045506926253438
138	0x3fe191a320000000	0.5490279793739319
139	0x3fe5e7aa80000000	0.6845295429229736
140	0xbf83116ea0000000	-0.009310592897236347
141	0x3fe0aef000000000	0.5213546752929688
142	0x3fe66bfe40000000	0.7006827592849731
143	0xbf8b9f39c0000000	-0.01348729245364666
144	0x3fdfef1440000000	0.4989672303199768
145	0x3fe6c53160000000	0.7115713953971863
146	0xbf922981e0000000	-0.017736462876200676
147	0x3fe194bda0000000	0.5494068264961243
148	0x3fe55962a0000000	0.6671612858772278
149	0xbf90ec1ac0000000	-0.016525667160749435
150	0x3fe09234a0000000	0.5178473591804504
151	0x3fe63c4020000000	0.6948547959327698
152	0xbf9a34c180000000	-0.02559187263250351
153	0x3fe01bda60000000	0.5034000277519226
154	0x3fe6c941c0000000	0.7120674848556519
155	0xbf9f79ddc0000000	-0.03073832020163536
156	0x3fdf8d2680000000	0.4929901361465454
157	0x3fe72f20e0000000	0.7245029807090759
158	0xbfa11e6500000000	-0.03343501687049866
159	0x3fe1c4a620000000	0.5552549958229065
160	0x3fe65de660000000	0.698962390422821
161	0xbf93add480000000	-0.019217796623706818
162	0x3fe09b2060000000	0.5189363360404968
163	0x3fe740e040000000	0.726669430732727
164	0xbf9baf5280000000	-0.027035988867282867
165	0x3fdfc2d900000000	0.49626755714416504
166	0x3fe7d0f280000000	0.7442562580108643
167	0xbf9f15bfa0000000	-0.030356401577591896
168	0x3fdea21a80000000	0.4786440134048462
169	0x3fe8512460000000	0.7599050402641296
170	0xbfa1208fc0000000	-0.03345154970884323
171	0x3fe20112e0000000	0.5626310706138611
172	0x3fe76b9be0000000	0.7318858504295349
173	0xbf95fa7000000000	-0.02146315574645996
174	0x3fe0d90f80000000	0.5264966487884521
175	0x3fe82d8ae0000000	0.7555593848228455
176	0xbf9ea4f300000000	-0.029926106333732605
177	0x3fe101bc00000000	0.5314617156982422
178	0x3fe8000660000000	0.7500030398368835
179	0xbf9b79f4c0000000	-0.02683241292834282
180	0x3fe15e7b40000000	0.5427833795547485
181	0x3fe7d599c0000000	0.7448242902755737
182	0xbf97c73c00000000	-0.023220956325531006
183	0x3fe2396d20000000	0.5695100426673889
184	0x3fe86b5980000000	0.7631042003631592
185	0xbf9863da80000000	-0.02381841093301773
186	0x3fe130cdc0000000	0.5372074842453003
187	0x3fe8dab940000000	0.7766996622085571
188	0xbf9e837ac0000000	-0.02979842945933342
189	0x3fe14059a0000000	0.539105236530304
190	0x3fe8a4dbc0000000	0.7701243162155151
191	0xbf9a7d5f40000000	-0.02586888149380684
192	0x3fe1915340000000	0.5489898920059204
193	0x3fe8710ce0000000	0.7638000845909119
194	0xbf9655c720000000	-0.02181159146130085
195	0x3fe3750600000000	0.6080350875854492
196	0x3fe6e9e8c0000000	0.7160533666610718
197	0x3e682e7e60000000	4.5041769425324674e-08
198	0x3fe2b39620000000	0.5844221711158752
199	0x3fe5dbc4e0000000	0.6830772757530212
200	0xbf72a3bf40000000	-0.0045506926253438
201	0x3fe191a320000000	0.5490279793739319
202	0x3fe5e7aa80000000	0.6845295429229736
203	0xbf83116ea0000000	-0.009310592897236347
204	0x3fe0aef000000000	0.5213546752929688
205	0x3fe66bfe40000000	0.7006827592849731
206	0xbf8b9f39c0000000	-0.01348729245364666
207	0x3fdfef1440000000	0.4989672303199768
208	0x3fe6c53160000000	0.7115713953971863
209	0xbf922981e0000000	-0.017736462876200676
210	0x3fe194bda0000000	0.5494068264961243
211	0x3fe55962a0000000	0.6671612858772278
212	0xbf90ec1ac0000000	-0.016525667160749435
213	0x3fe09234a0000000	0.5178473591804504
214	0x3fe63c4020000000	0.6948547959327698
215	0xbf9a34c180000000	-0.02559187263250351
216	0x3fe01bda60000000	0.5034000277519226
217	0x3fe6c941c0000000	0.7120674848556519
218	0xbf9f79ddc0000000	-0.03073832020163536
219	0x3fdf8d2680000000	0.4929901361465454
220	0x3fe72f20e0000000	0.7245029807090759
221	0xbfa11e6500000000	-0.03343501687049866
222	0x3fe1c4a620000000	0.5552549958229065
223	0x3fe65de660000000	0.698962390422821
224	0xbf93add480000000	-0.019217796623706818
225	0x3fe09b2060000000	0.5189363360404968
226	0x3fe740e040000000	0.726669430732727
227	0xbf9baf5280000000	-0.027035988867282867
228	0x3fdfc2d900000000	0.49626755714416504
229	0x3fe7d0f280000000	0.7442562580108643
230	0xbf9f15bfa0000000	-0.030356401577591896
231	0x3fdea21a80000000	0.4786440134048462
232	0x3fe8512460000000	0.7599050402641296
233	0xbfa1208fc0000000	-0.03345154970884323
234	0x3fe20112e0000000	0.5626310706138611
235	0x3fe76b9be0000000	0.7318858504295349
236	0xbf95fa7000000000	-0.02146315574645996
237	0x3fe0d90f80000000	0.5264966487884521
238	0x3fe82d8ae0000000	0.7555593848228455
239	0xbf9ea4f300000000	-0.029926106333732605
240	0x3fe101bc00000000	0.5314617156982422
241	0x3fe8000660000000	0.7500030398368835
242	0xbf9b79f4c0000000	-0.02683241292834282
243	0x3fe15e7b40000000	0.5427833795547485
244	0x3fe7d599c0000000	0.7448242902755737
245	0xbf97c73c00000000	-0.023220956325531006
246	0x3fe2396d20000000	0.5695100426673889
247	0x3fe86b5980000000	0.7631042003631592
248	0xbf9863da80000000	-0.02381841093301773
249	0x3fe130cdc0000000	0.5372074842453003
250	0x3fe8dab940000000	0.7766996622085571
251	0xbf9e837ac0000000	-0.02979842945933342
252	0x3fe14059a0000000	0.539105236530304
253	0x3fe8a4dbc0000000	0.7701243162155151
254	0xbf9a7d5f40000000	-0.02586888149380684
255	0x3fe1915340000000	0.5489898920059204
