files/processed_files/weight/1/weight_1_28.npy (npy, 2192 bytes, 1 tensors)

array f8 [258]
0	0x3fde677060000000	0.47506341338157654
1	0x3fd0f76980000000	0.2651008367538452
2	0xbfed832360000000	-0.9222580790519714
3	0x3fefff6700000000	0.9999270439147949
4	0x3fdfab1fc0000000	0.4948195815086365
5	0x3fcc856c80000000	0.22282177209854126
6	0xbfeb5ac860000000	-0.854831874370575
7	0x3fefff0080000000	0.9998781681060791
8	0x3fe0567220000000	0.5105524659156799
9	0x3fcca1e940000000	0.22369113564491272
10	0xbfeb5dd960000000	-0.8552061915397644
11	0x3fefff3740000000	0.9999042749404907
12	0x3fe0c23aa0000000	0.5237095952033997
13	0x3fccd06840000000	0.22511008381843567
14	0xbfeb593940000000	-0.8546415567398071
15	0x3fefff0520000000	0.9998803734779358
16	0x3fdc9a4300000000	0.4469153881072998
17	0x3fcd26f580000000	0.22775143384933472
18	0xbfeb457440000000	-0.8522282838821411
19	0x3feffec400000000	0.9998493194580078
20	0x3fdb8f13c0000000	0.43060773611068726
21	0x3fcdd4c3a0000000	0.23305554687976837
22	0xbfeb4208c0000000	-0.8518108129501343
23	0x3feffefc00000000	0.9998760223388672
24	0x3fdab8da60000000	0.4175325334072113
25	0x3fce937340000000	0.23887482285499573
26	0xbfeb46bfc0000000	-0.8523863554000854
27	0x3feffe94c0000000	0.9998267889022827
28	0x3fe1580a60000000	0.5419971346855164
29	0x3fd081c760000000	0.2579210698604584
30	0xbfdb1c6160000000	-0.42360720038414
31	0x3fefff17a0000000	0.9998891949653625
32	0x3fd988ef00000000	0.3989827632904053
33	0x3fd2280de0000000	0.28369471430778503
34	0xbfd958da20000000	-0.39604809880256653
35	0x3feffedb40000000	0.999860405921936
36	0x3fe050c6c0000000	0.5098603963851929
37	0x3fd4dfba00000000	0.3261551856994629
38	0xbfe88529a0000000	-0.7662551999092102
39	0x3fefffae80000000	0.9999611377716064
40	0x3fdc7b9500000000	0.44504284858703613
41	0x3fd4f5c280000000	0.32749998569488525
42	0xbfe85631a0000000	-0.7605217099189758
43	0x3fefff7cc0000000	0.9999374151229858
44	0x3fe59f5f40000000	0.6757045984268188
45	0x3fe2747180000000	0.576714277267456
46	0xbfcdaf0500000000	-0.23190367221832275
47	0x3feffcab00000000	0.9995932579040527
48	0x3fd2fa2a60000000	0.29651889204978943
49	0x3fe3b92020000000	0.6163483262062073
50	0xbfc3871fc0000000	-0.15256115794181824
51	0x3feff53720000000	0.998683512210846
52	0x3fe8017340000000	0.7501770257949829
53	0x3ff07298a0000000	1.0279775857925415
54	0xbfe7153540000000	-0.7213388681411743
55	0x3fee6a2280000000	0.950455904006958
56	0x3fcb02bea0000000	0.21102125942707062
57	0x3ff0623220000000	1.0239735841751099
58	0xbfe46ddc80000000	-0.6384108066558838
59	0x3fec0f0600000000	0.8768339157104492
60	0x3fe27735a0000000	0.5770519375801086
61	0x3feb350860000000	0.8502237200737
62	0xbff98c4a00000000	-1.596750259399414
63	0x3feda92600000000	0.9268980026245117
64	0x3fd3ac94a0000000	0.30740848183631897
65	0x3fe866e360000000	0.7625595927238464
66	0xbffa5a0e40000000	-1.6469862461090088
67	0x3fecccdac0000000	0.9000066518783569
68	0x3fe07088c0000000	0.5137370824813843
69	0x3feb2a2200000000	0.8488931655883789
70	0xbffc736aa0000000	-1.7781778573989868
71	0x3fed3be6c0000000	0.9135621786117554
72	0x3fd6b0b700000000	0.3545358180999756
73	0x3fe85dffc0000000	0.7614744901657104
74	0xbffd294100000000	-1.8225717544555664
75	0x3febd207a0000000	0.8693884015083313
76	0x3fdfdde100000000	0.49791741371154785
77	0x3fe9650ce0000000	0.7935852408409119
78	0xbffb4e20a0000000	-1.7065740823745728
79	0x3fed730580000000	0.9202907085418701
80	0x3fd6ea8860000000	0.358064740896225
81	0x3fe6b37de0000000	0.7094106078147888
82	0xbffc7ac1c0000000	-1.7799699306488037
83	0x3fec0f54a0000000	0.8768714070320129
84	0x3fe0741e60000000	0.5141746401786804
85	0x3fe92bc5e0000000	0.7865933775901794
86	0xbff98e9e80000000	-1.5973191261291504
87	0x3fed585dc0000000	0.9170368909835815
88	0x3fd6888080000000	0.35208141803741455
89	0x3fe6d963a0000000	0.714036762714386
90	0xbffa7bb640000000	-1.655203104019165
91	0x3febf98860000000	0.87421053647995
92	0x3fe4cf7840000000	0.6503258943557739
93	0x3ff4538640000000	1.2703917026519775
94	0xbfa9ce8500000000	-0.050403743982315063
95	0x3fb460c040000000	0.07960130274295807
96	0x3fd6fbc540000000	0.3591168522834778
97	0x3ff480f2e0000000	1.2814816236495972
98	0x3fac0c0940000000	0.054779328405857086
99	0x3fb2184d20000000	0.0706833079457283
100	0x3fe4a3e340000000	0.6450058221817017
101	0x3ffcf819c0000000	1.8105714321136475
102	0xbf8895cbe0000000	-0.01200446393340826
103	0x3f7724c5e0000000	0.005650303792208433
104	0x3fd7b34880000000	0.37031757831573486
105	0x3ffd272fe0000000	1.822067141532898
106	0x3fcf1e2000000000	0.24310684204101562
107	0x3f6b951180000000	0.003366979770362377
108	0x3fe44f3c00000000	0.6346721649169922
109	0x400242d4c0000000	2.282632350921631
110	0x3fe2f89b40000000	0.592847466468811
111	0x3f4b4f8c40000000	0.0008334574522450566
112	0x3fd7ff6580000000	0.3749631643295288
113	0x400252bfe0000000	2.290405035018921
114	0x3feae7c300000000	0.8407912254333496
115	0x3f4af23640000000	0.0008223309414461255
116	0x3fe47ce560000000	0.6402460932731628
117	0x4002ca1b20000000	2.348684549331665
118	0x3fe3b6f720000000	0.616084635257721
119	0x3f3c44bde0000000	0.00043134341831319034
120	0x3fd7adfba0000000	0.36999407410621643
121	0x4002de6800000000	2.3585968017578125
122	0x3fec418a60000000	0.8830005526542664
123	0x3f5098fc80000000	0.001013037282973528
124	0x3fe33a2ae0000000	0.600850522518158
125	0x400387d9e0000000	2.441333532333374
126	0x3f8a45efc0000000	0.012828705832362175
127	0x3f44e9b200000000	0.0006382102146744728
128	0x3fda503b40000000	0.41114693880081177
129	0x40038fce40000000	2.4452176094055176
130	0x3fd1254f40000000	0.2679021954536438
131	0x3f57cd6500000000	0.0014527784660458565
132	0x3fe2e18220000000	0.5900278687477112
133	0x3fea7594e0000000	0.8268532156944275
134	0x3e92d72b80000000	2.807454393405351e-07
135	0x3fe1e00680000000	0.5585968494415283
136	0x3fe93797e0000000	0.7880362868309021
137	0xbf6f27cae0000000	-0.003803154220804572
138	0x3fe08ca380000000	0.5171678066253662
139	0x3fe93eb2a0000000	0.788903534412384
140	0xbf82eb0740000000	-0.009237343445420265
141	0x3fdf5969a0000000	0.4898323118686676
142	0x3fea444e40000000	0.8208380937576294
143	0xbf8e782900000000	-0.014877624809741974
144	0x3fde452200000000	0.47296953201293945
145	0x3feb271ac0000000	0.8485234975814819
146	0xbf95de8e80000000	-0.021356798708438873
147	0x3fe0b4fd80000000	0.5220935344696045
148	0x3fe8c1c400000000	0.7736530303955078
149	0xbf91acffa0000000	-0.017261499539017677
150	0x3fdeea95c0000000	0.48306792974472046
151	0x3fe8945ea0000000	0.768111526966095
152	0xbf9d3ca560000000	-0.028551658615469933
153	0x3fdd604120000000	0.458999902009964
154	0x3fe87f6220000000	0.7655497193336487
155	0xbfa15aa940000000	-0.03389481455087662
156	0x3fdc08b360000000	0.43803104758262634
157	0x3fe86d1980000000	0.7633178234100342
158	0xbfa2af91a0000000	-0.03649573400616646
159	0x3fe0ac3c20000000	0.521024763584137
160	0x3fe9a69a20000000	0.8015871644020081
161	0xbf95e1bec0000000	-0.02136896178126335
162	0x3fde698360000000	0.47519001364707947
163	0x3fe982a380000000	0.7971971035003662
164	0xbfa0796ee0000000	-0.032176461070775986
165	0x3fdc9f04c0000000	0.44720572233200073
166	0x3fe95250e0000000	0.7912983298301697
167	0xbfa211f0a0000000	-0.03529312089085579
168	0x3fdb144a00000000	0.4231133460998535
169	0x3fe92da600000000	0.7868223190307617
170	0xbfa302fc40000000	-0.037132151424884796
171	0x3fe0c21fa0000000	0.5236967206001282
172	0x3feab454e0000000	0.8345131278038025
173	0xbf9995b000000000	-0.024985074996948242
174	0x3fde9c2220000000	0.47827962040901184
175	0x3feb2131e0000000	0.8478021025657654
176	0xbfa366f4c0000000	-0.03789486736059189
177	0x3fdf57c320000000	0.4897315800189972
178	0x3feb0fcaa0000000	0.8456776738166809
179	0xbfa1c4db20000000	-0.034705016762018204
180	0x3fe03455e0000000	0.5063886046409607
181	0x3feaf661a0000000	0.8425758481025696
182	0xbf9d4493c0000000	-0.02858191356062889
183	0x3fe0ebe440000000	0.5287953615188599
184	0x3febc81220000000	0.8681727051734924
185	0xbf9cee8f60000000	-0.028253784403204918
186	0x3fdf44dce0000000	0.48857805132865906
187	0x3fec1110e0000000	0.8770832419395447
188	0xbfa1ea2a00000000	-0.03498965501785278
189	0x3fdfb8ad40000000	0.49564677476882935
190	0x3febf1caa0000000	0.8732655644416809
191	0xbf9da27960000000	-0.028940102085471153
192	0x3fe0594800000000	0.5108985900878906
193	0x3febdb1000000000	0.8704910278320312
194	0xbf970fbea0000000	-0.022520998492836952
195	0x3fe2e18220000000	0.5900278687477112
196	0x3fea7594e0000000	0.8268532156944275
197	0x3e92d72b80000000	2.807454393405351e-07
198	0x3fe1e00680000000	0.5585968494415283
199	0x3fe93797e0000000	0.7880362868309021
200	0xbf6f27cae0000000	-0.003803154220804572
201	0x3fe08ca380000000	0.5171678066253662
202	0x3fe93eb2a0000000	0.788903534412384
203	0xbf82eb0740000000	-0.009237343445420265
204	0x3fdf5969a0000000	0.4898323118686676
205	0x3fea444e40000000	0.8208380937576294
206	0xbf8e782900000000	-0.014877624809741974
207	0x3fde452200000000	0.47296953201293945
208	0x3feb271ac0000000	0.8485234975814819
209	0xbf95de8e80000000	-0.021356798708438873
210	0x3fe0b4fd80000000	0.5220935344696045
211	0x3fe8c1c400000000	0.7736530303955078
212	0xbf91acffa0000000	-0.017261499539017677
213	0x3fdeea95c0000000	0.48306792974472046
214	0x3fe8945ea0000000	0.768111526966095
215	0xbf9d3ca560000000	-0.028551658615469933
216	0x3fdd604120000000	0.458999902009964
217	0x3fe87f6220000000	0.7655497193336487
218	0xbfa15aa940000000	-0.03389481455087662
219	0x3fdc08b360000000	0.43803104758262634
220	0x3fe86d1980000000	0.7633178234100342
221	0xbfa2af91a0000000	-0.03649573400616646
222	0x3fe0ac3c20000000	0.521024763584137
223	0x3fe9a69a20000000	0.8015871644020081
224	0xbf95e1bec0000000	-0.02136896178126335
225	0x3fde698360000000	0.47519001364707947
226	0x3fe982a380000000	0.7971971035003662
227	0xbfa0796ee0000000	-0.032176461070775986
228	0x3fdc9f04c0000000	0.44720572233200073
229	0x3fe95250e0000000	0.7912983298301697
230	0xbfa211f0a0000000	-0.03529312089085579
231	0x3fdb144a00000000	0.4231133460998535
232	0x3fe92da600000000	0.7868223190307617
233	0xbfa302fc40000000	-0.037132151424884796
234	0x3fe0c21fa0000000	0.5236967206001282
235	0x3feab454e0000000	0.8345131278038025
236	0xbf9995b000000000	-0.024985074996948242
237	0x3fde9c2220000000	0.47827962040901184
238	0x3feb2131e0000000	0.8478021025657654
239	0xbfa366f4c0000000	-0.03789486736059189
240	0x3fdf57c320000000	0.4897315800189972
241	0x3feb0fcaa0000000	0.8456776738166809
242	0xbfa1c4db20000000	-0.034705016762018204
243	0x3fe03455e0000000	0.5063886046409607
244	0x3feaf661a0000000	0.8425758481025696
245	0xbf9d4493c0000000	-0.02858191356062889
246	0x3fe0ebe440000000	0.5287953615188599
247	0x3febc81220000000	0.8681727051734924
248	0xbf9cee8f60000000	-0.028253784403204918
249	0x3fdf44dce0000000	0.48857805132865906
250	0x3fec1110e0000000	0.8770832419395447
251	0xbfa1ea2a00000000	-0.03498965501785278
252	0x3fdfb8ad40000000	0.49564677476882935
253	0x3febf1caa0000000	0.8732655644416809
254	0xbf9da27960000000	-0.028940102085471153
255	0x3fe0594800000000	0.5108985900878906
