files/processed_files/weight/1/weight_1_9.npy (npy, 2192 bytes, 1 tensors)

array f8 [258]
00000000: 0000 00c0 5d42 de3f 0000 00e0 68aa d03f
00000010: 0000 00c0 8b68 f2bf 0000 00e0 b7fe ef3f
00000020: 0000 00a0 4b96 df3f 0000 00a0 22f1 cb3f
00000030: 0000 0020 7933 f1bf 0000 0000 38fd ef3f
00000040: 0000 0020 c249 e03f 0000 00e0 3af9 cb3f
00000050: 0000 00c0 5335 f1bf 0000 00a0 7bfd ef3f
00000060: 0000 00c0 ffbe e03f 0000 0020 0118 cc3f
00000070: 0000 0040 1534 f1bf 0000 00e0 45fd ef3f
00000080: 0000 0060 6382 dc3f 0000 0020 4b1e cc3f
00000090: 0000 0020 714f f1bf 0000 0040 34fd ef3f
000000a0: 0000 0060 7997 db3f 0000 00c0 1d70 cc3f
000000b0: 0000 00a0 f54f f1bf 0000 0020 87fd ef3f
000000c0: 0000 0000 05ce da3f 0000 00a0 95c6 cc3f
000000d0: 0000 0000 4953 f1bf 0000 00c0 7efd ef3f
000000e0: 0000 00c0 ea54 e13f 0000 0020 2027 d03f
000000f0: 0000 00a0 7c1f e4bf 0000 00c0 aafc ef3f
00000100: 0000 0020 3c93 d93f 0000 0040 fc51 d13f
00000110: 0000 0040 4154 e4bf 0000 00e0 48fd ef3f
00000120: 0000 0080 e23c e03f 0000 00e0 67d4 d43f
00000130: 0000 0060 b343 efbf 0000 0080 2bff ef3f
00000140: 0000 0060 b189 dc3f 0000 00c0 64fc d43f
00000150: 0000 0040 a16a efbf 0000 0020 15ff ef3f
00000160: 0000 0060 bfd0 e53f 0000 00e0 07a3 e23f
00000170: 0000 0040 dfd7 d6bf 0000 0040 02f2 ef3f
00000180: 0000 0040 fb06 d33f 0000 0080 7fca e33f
00000190: 0000 00e0 08ff d7bf 0000 0080 0bf4 ef3f
000001a0: 0000 0060 4b16 e83f 0000 0060 e044 ef3f
000001b0: 0000 00a0 65c3 e6bf 0000 0000 6d8b e93f
000001c0: 0000 0000 4c60 cf3f 0000 0060 1400 f03f
000001d0: 0000 0040 0d33 eabf 0000 0000 3d6a e83f
000001e0: 0000 0040 595e e33f 0000 00a0 f8ba ef3f
000001f0: 0000 0040 a74c f8bf 0000 00e0 9b32 df3f
00000200: 0000 00a0 426d d23f 0000 00c0 4fb4 ec3f
00000210: 0000 00a0 d2cb fcbf 0000 0000 50e7 dd3f
00000220: 0000 00e0 6398 e13f 0000 0040 8ce8 ef3f
00000230: 0000 0040 2dec fabf 0000 0060 4fb5 db3f
00000240: 0000 0040 c195 d53f 0000 00c0 ca39 ec3f
00000250: 0000 00a0 17c1 ffbf 0000 0020 e122 da3f
00000260: 0000 00e0 01bf e03f 0000 0020 715b ee3f
00000270: 0000 00c0 0f77 fabf 0000 00c0 3956 de3f
00000280: 0000 0000 d4b5 d43f 0000 0080 f355 ea3f
00000290: 0000 00a0 5981 ffbf 0000 0000 c28b dc3f
000002a0: 0000 0080 ddbe e13f 0000 0000 1c30 ee3f
000002b0: 0000 0060 3169 f8bf 0000 0080 8d32 de3f
000002c0: 0000 0040 e198 d43f 0000 0020 1f4c ea3f
000002d0: 0000 00a0 d911 fdbf 0000 0080 2ac5 dc3f
000002e0: 0000 0020 5665 e43f 0000 0060 7269 f43f
000002f0: 0000 0020 f197 a1bf 0000 00e0 6afc cb3f
00000300: 0000 00a0 31e2 d63f 0000 0080 7766 f43f
00000310: 0000 0040 14cb a33f 0000 00a0 3736 cc3f
00000320: 0000 0040 77cf e33f 0000 0020 1df5 fc3f
00000330: 0000 0080 f849 983f 0000 0020 c42a a33f
00000340: 0000 0020 37bc d63f 0000 00a0 e2c8 fc3f
00000350: 0000 0020 5821 903f 0000 0080 79bc 973f
00000360: 0000 00c0 e4af e33f 0000 00a0 824c 0240
00000370: 0000 00c0 aad6 e53f 0000 0000 f540 763f
00000380: 0000 0080 c8cb d63f 0000 0040 4f38 0240
00000390: 0000 00c0 bb25 e23f 0000 0060 3641 783f
000003a0: 0000 0000 9af5 e33f 0000 0060 54e3 0240
000003b0: 0000 0040 c8b9 e63f 0000 0020 6235 653f
000003c0: 0000 00a0 2778 d63f 0000 0020 cad0 0240
000003d0: 0000 0060 a33c e33f 0000 0020 17a1 7d3f
000003e0: 0000 0020 456a e23f 0000 0080 c791 0340
000003f0: 0000 00a0 25b7 bc3f 0000 00c0 e947 703f
00000400: 0000 0060 00ce d83f 0000 00c0 477c 0340
00000410: 0000 0040 68a1 a1bf 0000 0080 507f 823f
00000420: 0000 00a0 806d e33f 0000 00a0 71bc ed3f
00000430: 0000 0000 561f 84be 0000 00e0 5b51 e23f
00000440: 0000 0020 cfea ec3f 0000 0060 527c 46bf
00000450: 0000 0060 97de e03f 0000 0060 3e2a ed3f
00000460: 0000 0000 08f4 5fbf 0000 0020 70b6 df3f
00000470: 0000 0020 e509 ee3f 0000 00a0 3209 73bf
00000480: 0000 0020 f9cd de3f 0000 0040 cc05 ef3f
00000490: 0000 0040 12c6 7bbf 0000 0000 a818 e03f
000004a0: 0000 00c0 407d ed3f 0000 0080 2763 6f3f
000004b0: 0000 0000 8fe7 dd3f 0000 0060 d2d8 ee3f
000004c0: 0000 00c0 1087 78bf 0000 0000 57b1 de3f
000004d0: 0000 00c0 a402 ef3f 0000 00c0 df50 8fbf
000004e0: 0000 00e0 ede4 df3f 0000 0060 b2b7 ee3f
000004f0: 0000 0060 b94c 94bf 0000 0000 ec45 e03f
00000500: 0000 0080 ce65 ee3f 0000 0060 a050 5a3f
00000510: 0000 0000 f461 de3f 0000 00c0 9fa0 ef3f
00000520: 0000 00e0 752d 77bf 0000 00c0 da38 df3f
00000530: 0000 0020 3a9d ef3f 0000 00a0 a597 88bf
00000540: 0000 00a0 612a e03f 0000 00a0 844e ef3f
00000550: 0000 0000 d037 8fbf 0000 0060 838c e03f
00000560: 0000 0060 0151 ef3f 0000 0020 d1f3 55bf
00000570: 0000 00a0 4212 df3f 0000 0060 f82e f03f
00000580: 0000 0020 a594 79bf 0000 0040 4cd3 df3f
00000590: 0000 00e0 ea22 f03f 0000 0060 a334 77bf
000005a0: 0000 0080 8f60 e03f 0000 00c0 07f2 ef3f
000005b0: 0000 0080 53ae 72bf 0000 00e0 5edf e03f
000005c0: 0000 0040 bd12 f03f 0000 00c0 dbd0 71bf
000005d0: 0000 0000 a903 e03f 0000 0020 6e72 f03f
000005e0: 0000 00c0 f2dd 7abf 0000 0000 e560 e03f
000005f0: 0000 00e0 cc61 f03f 0000 00c0 0161 62bf
00000600: 0000 0020 b2d1 e03f 0000 0000 9140 f03f
00000610: 0000 00a0 9b17 603f 0000 00a0 806d e33f
00000620: 0000 00a0 71bc ed3f 0000 0000 561f 84be
00000630: 0000 00e0 5b51 e23f 0000 0020 cfea ec3f
00000640: 0000 0060 527c 46bf 0000 0060 97de e03f
00000650: 0000 0060 3e2a ed3f 0000 0000 08f4 5fbf
00000660: 0000 0020 70b6 df3f 0000 0020 e509 ee3f
00000670: 0000 00a0 3209 73bf 0000 0020 f9cd de3f
00000680: 0000 0040 cc05 ef3f 0000 0040 12c6 7bbf
00000690: 0000 0000 a818 e03f 0000 00c0 407d ed3f
000006a0: 0000 0080 2763 6f3f 0000 0000 8fe7 dd3f
000006b0: 0000 0060 d2d8 ee3f 0000 00c0 1087 78bf
000006c0: 0000 0000 57b1 de3f 0000 00c0 a402 ef3f
000006d0: 0000 00c0 df50 8fbf 0000 00e0 ede4 df3f
000006e0: 0000 0060 b2b7 ee3f 0000 0060 b94c 94bf
000006f0: 0000 0000 ec45 e03f 0000 0080 ce65 ee3f
00000700: 0000 0060 a050 5a3f 0000 0000 f461 de3f
00000710: 0000 00c0 9fa0 ef3f 0000 00e0 752d 77bf
00000720: 0000 00c0 da38 df3f 0000 0020 3a9d ef3f
00000730: 0000 00a0 a597 88bf 0000 00a0 612a e03f
00000740: 0000 00a0 844e ef3f 0000 0000 d037 8fbf
00000750: 0000 0060 838c e03f 0000 0060 0151 ef3f
00000760: 0000 0020 d1f3 55bf 0000 00a0 4212 df3f
00000770: 0000 0060 f82e f03f 0000 0020 a594 79bf
00000780: 0000 0040 4cd3 df3f 0000 00e0 ea22 f03f
00000790: 0000 0060 a334 77bf 0000 0080 8f60 e03f
000007a0: 0000 00c0 07f2 ef3f 0000 0080 53ae 72bf
000007b0: 0000 00e0 5edf e03f 0000 0040 bd12 f03f
000007c0: 0000 00c0 dbd0 71bf 0000 0000 a903 e03f
000007d0: 0000 0020 6e72 f03f 0000 00c0 f2dd 7abf
000007e0: 0000 0000 e560 e03f 0000 00e0 cc61 f03f
000007f0: 0000 00c0 0161 62bf 0000 0020 b2d1 e03f
0.47280067205429077 0.2604009807109833 -1.1505239009857178 0.9998435378074646 0.49354830384254456 0.2182963639497757 -1.0750666856765747 0.9996604919433594
0.5090036988258362 0.2185433954000473 -1.075519323348999 0.9996927380561829 0.5233153104782104 0.21948255598545074 -1.0752155780792236 0.9996671080589294
0.4454582631587982 0.2196744829416275 -1.0818949937820435 0.9996587038040161 0.43112024664878845 0.22217151522636414 -1.0820213556289673 0.9996982216835022
0.4188244342803955 0.22481031715869904 -1.0828332901000977 0.9996942281723022 0.5416158437728882 0.25238803029060364 -0.6288436055183411 0.9995931386947632
0.3996115028858185 0.27062898874282837 -0.6352850198745728 0.999668538570404 0.507432222366333 0.3254642188549042 -0.9770142436027527 0.9998986721038818
0.44590410590171814 0.3279048800468445 -0.9817663431167603 0.999888002872467 0.6817318797111511 0.5824012160301208 -0.3569257855415344 0.998292088508606
0.29730111360549927 0.6184689998626709 -0.3749410808086395 0.9985406398773193 0.7527214884757996 0.9771577715873718 -0.7113521695137024 0.7982697486877441
0.24512624740600586 1.0000194311141968 -0.8187319040298462 0.7629685401916504 0.6052671670913696 0.9915736317634583 -1.518714189529419 0.48746392130851746
0.28791871666908264 0.8970106840133667 -1.799761414527893 0.4672431945800781 0.5498523116111755 0.997137188911438 -1.6826603412628174 0.4329412877559662
0.3372653126716614 0.8820546865463257 -1.984641671180725 0.40837886929512024 0.5233163237571716 0.9486623406410217 -1.6540677547454834 0.4740127921104431
0.32359790802001953 0.8229920864105225 -1.969079613685608 0.4460301399230957 0.554548978805542 0.9433727264404297 -1.5256818532943726 0.47183549404144287
0.3218310475349426 0.8217921853065491 -1.816857933998108 0.4495340585708618 0.6373701691627502 1.275743842124939 -0.03436234965920448 0.21864067018032074
0.3575557768344879 1.2750163078308105 0.0386587455868721 0.22040458023548126 0.6190754175186157 1.8098422288894653 0.023719675838947296 0.03743565455079079
0.355237752199173 1.7990442514419556 0.015752198174595833 0.023179911077022552 0.615221381187439 2.287358522415161 0.6824544668197632 0.005433041602373123
0.35618793964385986 2.2774949073791504 0.5671061277389526 0.005921566393226385 0.6237306594848633 2.3610007762908936 0.7101784944534302 0.002588931703940034
0.3510836660861969 2.3519480228424072 0.6011521220207214 0.007233705837279558 0.5754724144935608 2.446181297302246 0.11216960102319717 0.003974831663072109
0.38757333159446716 2.4356837272644043 -0.03443456441164017 0.00903189554810524 0.6071169972419739 0.9292533993721008 -1.4992360775067937e-07 0.5724315047264099
0.9036632180213928 -0.0006862070295028389 0.527171790599823 0.9114066958427429 -0.0019502714276313782 0.49551013112068176 0.9387078881263733 -0.004647443536669016
0.4813216030597687 0.969457745552063 -0.006780692376196384 0.5030097961425781 0.9215396642684937 0.003831460140645504 0.4672582149505615 0.963967502117157
-0.005988183431327343 0.47957396507263184 0.969072699546814 -0.015290973708033562 0.4983477294445038 0.9599239230155945 -0.01982392929494381 0.5085353851318359
0.949927568435669 0.001606136909686029 0.4747285842895508 0.988357424736023 -0.0056585888378322124 0.48784512281417847 0.9879427552223206 -0.012007993645966053
0.5051735043525696 0.9783347249031067 -0.015243172645568848 0.5171524882316589 0.9786383509635925 -0.0013398687588050961 0.48548951745033264 1.0114673376083374
-0.0062452745623886585 0.4972715973854065 1.008524775505066 -0.005665434058755636 0.5117871761322021 0.9982947111129761 -0.004560781642794609 0.5272669196128845
1.0045750141143799 -0.004349573515355587 0.5004467964172363 1.0279370546340942 -0.006559322588145733 0.5118279457092285 1.0238770246505737 -0.0022435220889747143
0.5255976319313049 1.015763282775879 0.001964382128790021 0.6071169972419739 0.9292533993721008 -1.4992360775067937e-07 0.5724315047264099 0.9036632180213928
-0.0006862070295028389 0.527171790599823 0.9114066958427429 -0.0019502714276313782 0.49551013112068176 0.9387078881263733 -0.004647443536669016 0.4813216030597687
0.969457745552063 -0.006780692376196384 0.5030097961425781 0.9215396642684937 0.003831460140645504 0.4672582149505615 0.963967502117157 -0.005988183431327343
0.47957396507263184 0.969072699546814 -0.015290973708033562 0.4983477294445038 0.9599239230155945 -0.01982392929494381 0.5085353851318359 0.949927568435669
0.001606136909686029 0.4747285842895508 0.988357424736023 -0.0056585888378322124 0.48784512281417847 0.9879427552223206 -0.012007993645966053 0.5051735043525696
0.9783347249031067 -0.015243172645568848 0.5171524882316589 0.9786383509635925 -0.0013398687588050961 0.48548951745033264 1.0114673376083374 -0.0062452745623886585
0.4972715973854065 1.008524775505066 -0.005665434058755636 0.5117871761322021 0.9982947111129761 -0.004560781642794609 0.5272669196128845 1.0045750141143799
-0.004349573515355587 0.5004467964172363 1.0279370546340942 -0.006559322588145733 0.5118279457092285 1.0238770246505737 -0.0022435220889747143 0.5255976319313049
