files/processed_files/weight/2/weight_2_42.npy (npy, 2192 bytes, 1 tensors)

array f8 [258]
0.509678304195404 0.270666241645813 -0.2918030023574829 0.9999082088470459 0.5191409587860107 0.23538000881671906 -0.26999837160110474 0.9998902082443237
0.5256707668304443 0.23477791249752045 -0.27012237906455994 0.9998953938484192 0.5306240320205688 0.2339954972267151 -0.270053505897522 0.9999046325683594
0.4980403482913971 0.23652322590351105 -0.266446053981781 0.9998778104782104 0.48945537209510803 0.23695939779281616 -0.2663092017173767 0.9998666048049927
0.4821973443031311 0.23781099915504456 -0.26652002334594727 0.9998695254325867 0.5402647256851196 0.24495436251163483 -0.08568461984395981 0.9998893141746521
0.46829620003700256 0.2509365975856781 -0.06664833426475525 0.9998683929443359 0.5241849422454834 0.3027588427066803 -0.22115302085876465 0.9999344348907471
0.49572986364364624 0.3031633794307709 -0.21634209156036377 0.999913215637207 0.5930196046829224 0.42788413166999817 -0.01010311022400856 0.9999032616615295
0.42421454191207886 0.44168299436569214 0.027211641892790794 0.9998160004615784 0.6189336180686951 0.6940773725509644 -0.23146383464336395 0.9917783737182617
0.36924970149993896 0.6928803324699402 -0.2212938368320465 0.9930711984634399 0.5609933137893677 0.5274747014045715 -0.5892931222915649 0.9844751954078674
0.4337112009525299 0.5058631300926208 -0.6193241477012634 0.9849112629890442 0.5417088270187378 0.5017411708831787 -0.6606859564781189 0.978801429271698
0.46575966477394104 0.48063942790031433 -0.6889246702194214 0.9770225286483765 0.5368391275405884 0.4728698432445526 -0.6360204815864563 0.9799572825431824
0.4708159565925598 0.45124784111976624 -0.6732011437416077 0.9780673384666443 0.5384012460708618 0.47854912281036377 -0.585797905921936 0.979326069355011
0.4669387936592102 0.45554351806640625 -0.6213958859443665 0.978026807308197 0.570902407169342 0.9634144902229309 -0.005886106751859188 0.9685903191566467
0.45260220766067505 0.9549156427383423 0.007205166853964329 0.9645782709121704 0.5684992074966431 1.3275277614593506 -0.008740333840250969 0.026281312108039856
0.44349223375320435 1.3297216892242432 0.047320056706666946 0.03521251678466797 0.5668700933456421 1.6847401857376099 0.20608332753181458 0.0009356515947729349
0.4549575448036194 1.6872706413269043 0.20846983790397644 0.0012712028110399842 0.5706027746200562 1.7248543500900269 0.21439571678638458 0.0008305290248245001
0.45160436630249023 1.7286962270736694 0.21804854273796082 0.0014532346976920962 0.549486517906189 1.7982748746871948 -0.017273802310228348 0.0006362651474773884
0.4745774269104004 1.802712321281433 -0.04648108035326004 0.001040993956848979 0.567513108253479 0.5014815926551819 1.9710281407014918e-08 0.5550116896629333
0.4727831482887268 -6.253125320654362e-05 0.5333887338638306 0.4629174768924713 -0.0032696181442588568 0.5159415006637573 0.47319647669792175 -0.006910214200615883
0.5075488686561584 0.48917073011398315 -0.010936913080513477 0.5351795554161072 0.4439144432544708 -0.009022966958582401 0.5149858593940735 0.44026264548301697
-0.014731359668076038 0.502124547958374 0.4393145740032196 -0.017747223377227783 0.491689532995224 0.43848609924316406 -0.019735516980290413 0.5372506380081177
0.46025145053863525 -0.013020358979701996 0.5129573941230774 0.4581018388271332 -0.01923227496445179 0.4985683262348175 0.4550522267818451 -0.021917859092354774
0.48605144023895264 0.45325276255607605 -0.023837655782699585 0.5400851368904114 0.48200225830078125 -0.01647225394845009 0.5165714621543884 0.4937780797481537
-0.023831896483898163 0.5205332040786743 0.49793294072151184 -0.02397417277097702 0.5264046788215637 0.4985436499118805 -0.02244575321674347 0.5428788661956787
0.5048956274986267 -0.019591093063354492 0.5224948525428772 0.5107529759407043 -0.02496042102575302 0.5125296115875244 0.5123643279075623 -0.025473659858107567
0.5049375891685486 0.513157308101654 -0.02523036114871502 0.567513108253479 0.5014815926551819 1.9710281407014918e-08 0.5550116896629333 0.4727831482887268
-6.253125320654362e-05 0.5333887338638306 0.4629174768924713 -0.0032696181442588568 0.5159415006637573 0.47319647669792175 -0.006910214200615883 0.5075488686561584
0.48917073011398315 -0.010936913080513477 0.5351795554161072 0.4439144432544708 -0.009022966958582401 0.5149858593940735 0.44026264548301697 -0.014731359668076038
0.502124547958374 0.4393145740032196 -0.017747223377227783 0.491689532995224 0.43848609924316406 -0.019735516980290413 0.5372506380081177 0.46025145053863525
-0.013020358979701996 0.5129573941230774 0.4581018388271332 -0.01923227496445179 0.4985683262348175 0.4550522267818451 -0.021917859092354774 0.48605144023895264
0.45325276255607605 -0.023837655782699585 0.5400851368904114 0.48200225830078125 -0.01647225394845009 0.5165714621543884 0.4937780797481537 -0.023831896483898163
0.5205332040786743 0.49793294072151184 -0.02397417277097702 0.5264046788215637 0.4985436499118805 -0.02244575321674347 0.5428788661956787 0.5048956274986267
-0.019591093063354492 0.5224948525428772 0.5107529759407043 -0.02496042102575302 0.5125296115875244 0.5123643279075623 -0.025473659858107567 0.5049375891685486
00000000: 0000 00e0 484f e03f 0000 0080 9852 d13f
00000010: 0000 0080 e6ac d2bf 0000 0080 3fff ef3f
00000020: 0000 0080 cd9c e03f 0000 00a0 ee20 ce3f
00000030: 0000 0040 a747 d1bf 0000 00c0 19ff ef3f
00000040: 0000 0080 4bd2 e03f 0000 00e0 330d ce3f
00000050: 0000 0060 af49 d1bf 0000 00a0 24ff ef3f
00000060: 0000 0040 dffa e03f 0000 0080 90f3 cd3f
00000070: 0000 0080 8e48 d1bf 0000 0000 38ff ef3f
00000080: 0000 00a0 e4df df3f 0000 00a0 6446 ce3f
00000090: 0000 00c0 730d d1bf 0000 00c0 fffe ef3f
000000a0: 0000 00a0 3c53 df3f 0000 0080 af54 ce3f
000000b0: 0000 00c0 350b d1bf 0000 0040 e8fe ef3f
000000c0: 0000 0040 52dc de3f 0000 0040 9770 ce3f
000000d0: 0000 0000 aa0e d1bf 0000 0060 eefe ef3f
000000e0: 0000 0040 d949 e13f 0000 0020 aa5a cf3f
000000f0: 0000 0060 6def b5bf 0000 00e0 17ff ef3f
00000100: 0000 00a0 90f8 dd3f 0000 0060 580f d03f
00000110: 0000 0080 dd0f b1bf 0000 0000 ecfe ef3f
00000120: 0000 0080 1fc6 e03f 0000 00a0 6660 d33f
00000130: 0000 0000 be4e ccbf 0000 0080 76ff ef3f
00000140: 0000 00c0 09ba df3f 0000 0060 0767 d33f
00000150: 0000 0000 19b1 cbbf 0000 0000 4aff ef3f
00000160: 0000 0040 04fa e23f 0000 0020 7462 db3f
00000170: 0000 0080 f0b0 84bf 0000 0020 35ff ef3f
00000180: 0000 00c0 5426 db3f 0000 00c0 8844 dc3f
00000190: 0000 0060 5edd 9b3f 0000 0020 7efe ef3f
000001a0: 0000 00e0 4dce e33f 0000 00c0 e135 e63f
000001b0: 0000 0060 9ba0 cdbf 0000 0000 a6bc ef3f
000001c0: 0000 0080 c9a1 d73f 0000 0060 132c e63f
000001d0: 0000 0040 5b53 ccbf 0000 0040 3dc7 ef3f
000001e0: 0000 0040 a8f3 e13f 0000 00a0 12e1 e03f
000001f0: 0000 0040 7ddb e2bf 0000 0020 d280 ef3f
00000200: 0000 00a0 ecc1 db3f 0000 00e0 0730 e03f
00000210: 0000 00e0 80d1 e3bf 0000 00a0 6484 ef3f
00000220: 0000 00c0 ad55 e13f 0000 0080 430e e03f
00000230: 0000 00e0 5624 e5bf 0000 0060 5752 ef3f
00000240: 0000 00a0 01cf dd3f 0000 00e0 cbc2 de3f
00000250: 0000 00c0 ab0b e6bf 0000 00c0 c443 ef3f
00000260: 0000 0040 c92d e13f 0000 00e0 7f43 de3f
00000270: 0000 00a0 475a e4bf 0000 0060 cf5b ef3f
00000280: 0000 0040 d921 de3f 0000 00a0 3ee1 dc3f
00000290: 0000 0020 dd8a e5bf 0000 00e0 534c ef3f
000002a0: 0000 0040 953a e13f 0000 0080 8ca0 de3f
000002b0: 0000 0040 dbbe e2bf 0000 00a0 a356 ef3f
000002c0: 0000 0040 53e2 dd3f 0000 0000 a027 dd3f
000002d0: 0000 00a0 79e2 e3bf 0000 00e0 fe4b ef3f
000002e0: 0000 0020 d544 e23f 0000 00a0 4ad4 ee3f
000002f0: 0000 00c0 071c 78bf 0000 0020 b1fe ee3f
00000300: 0000 0040 6ff7 dc3f 0000 0040 ab8e ee3f
00000310: 0000 0040 2a83 7d3f 0000 0040 d3dd ee3f
00000320: 0000 0040 2531 e23f 0000 00c0 8d3d f53f
00000330: 0000 00c0 73e6 81bf 0000 0000 7de9 9a3f
00000340: 0000 0040 2d62 dc3f 0000 0040 8a46 f53f
00000350: 0000 00a0 553a a83f 0000 0000 6007 a23f
00000360: 0000 00c0 cc23 e23f 0000 0020 b2f4 fa3f
00000370: 0000 0040 f060 ca3f 0000 0080 d0a8 4e3f
00000380: 0000 0040 061e dd3f 0000 0080 0fff fa3f
00000390: 0000 00c0 23af ca3f 0000 00a0 cfd3 543f
000003a0: 0000 00c0 6042 e23f 0000 00e0 0099 fb3f
000003b0: 0000 00a0 5171 cb3f 0000 0080 fb36 4b3f
000003c0: 0000 0000 16e7 dc3f 0000 0060 bda8 fb3f
000003d0: 0000 00c0 03e9 cb3f 0000 00e0 4ecf 573f
000003e0: 0000 00c0 6495 e13f 0000 00e0 bbc5 fc3f
000003f0: 0000 0040 39b0 91bf 0000 0000 61d9 443f
00000400: 0000 0000 7a5f de3f 0000 00e0 e8d7 fc3f
00000410: 0000 0040 5ecc a7bf 0000 00c0 3e0e 513f
00000420: 0000 0040 1129 e23f 0000 0020 230c e03f
00000430: 0000 00c0 eb29 553e 0000 00e0 a7c2 e13f
00000440: 0000 0040 1442 de3f 0000 00c0 6664 10bf
00000450: 0000 0040 8511 e13f 0000 00a0 70a0 dd3f
00000460: 0000 00e0 e2c8 6abf 0000 00c0 9782 e03f
00000470: 0000 00e0 d948 de3f 0000 0080 e24d 7cbf
00000480: 0000 0020 d73d e03f 0000 00c0 924e df3f
00000490: 0000 00a0 1766 86bf 0000 00e0 3020 e13f
000004a0: 0000 0020 1869 dc3f 0000 0020 a27a 82bf
000004b0: 0000 00a0 c37a e03f 0000 0060 432d dc3f
000004c0: 0000 00a0 792b 8ebf 0000 0080 6711 e03f
000004d0: 0000 00e0 ba1d dc3f 0000 0000 542c 92bf
000004e0: 0000 0060 d777 df3f 0000 0000 2810 dc3f
000004f0: 0000 0020 8c35 94bf 0000 0040 2831 e13f
00000500: 0000 0080 c274 dd3f 0000 0000 6baa 8abf
00000510: 0000 00a0 256a e03f 0000 0060 8a51 dd3f
00000520: 0000 0020 a0b1 93bf 0000 0020 8be8 df3f
00000530: 0000 0060 931f dd3f 0000 00a0 a271 96bf
00000540: 0000 0080 771b df3f 0000 00e0 1702 dd3f
00000550: 0000 0000 e668 98bf 0000 00a0 6048 e13f
00000560: 0000 0000 20d9 de3f 0000 0040 1ade 90bf
00000570: 0000 00e0 c087 e03f 0000 0060 0f9a df3f
00000580: 0000 0080 6367 98bf 0000 0040 35a8 e03f
00000590: 0000 0020 22de df3f 0000 0080 af8c 98bf
000005a0: 0000 00a0 4ed8 e03f 0000 00a0 23e8 df3f
000005b0: 0000 0000 05fc 96bf 0000 0080 435f e13f
000005c0: 0000 00e0 1a28 e03f 0000 0000 b00f 94bf
000005d0: 0000 0020 47b8 e03f 0000 00a0 1658 e03f
000005e0: 0000 0080 398f 99bf 0000 0080 a466 e03f
000005f0: 0000 00e0 4965 e03f 0000 0060 c415 9abf
00000600: 0000 00e0 7228 e03f 0000 00e0 c86b e03f
00000610: 0000 00e0 fcd5 99bf 0000 0040 1129 e23f
00000620: 0000 0020 230c e03f 0000 00c0 eb29 553e
00000630: 0000 00e0 a7c2 e13f 0000 0040 1442 de3f
00000640: 0000 00c0 6664 10bf 0000 0040 8511 e13f
00000650: 0000 00a0 70a0 dd3f 0000 00e0 e2c8 6abf
00000660: 0000 00c0 9782 e03f 0000 00e0 d948 de3f
00000670: 0000 0080 e24d 7cbf 0000 0020 d73d e03f
00000680: 0000 00c0 924e df3f 0000 00a0 1766 86bf
00000690: 0000 00e0 3020 e13f 0000 0020 1869 dc3f
000006a0: 0000 0020 a27a 82bf 0000 00a0 c37a e03f
000006b0: 0000 0060 432d dc3f 0000 00a0 792b 8ebf
000006c0: 0000 0080 6711 e03f 0000 00e0 ba1d dc3f
000006d0: 0000 0000 542c 92bf 0000 0060 d777 df3f
000006e0: 0000 0000 2810 dc3f 0000 0020 8c35 94bf
000006f0: 0000 0040 2831 e13f 0000 0080 c274 dd3f
00000700: 0000 0000 6baa 8abf 0000 00a0 256a e03f
00000710: 0000 0060 8a51 dd3f 0000 0020 a0b1 93bf
00000720: 0000 0020 8be8 df3f 0000 0060 931f dd3f
00000730: 0000 00a0 a271 96bf 0000 0080 771b df3f
00000740: 0000 00e0 1702 dd3f 0000 0000 e668 98bf
00000750: 0000 00a0 6048 e13f 0000 0000 20d9 de3f
00000760: 0000 0040 1ade 90bf 0000 00e0 c087 e03f
00000770: 0000 0060 0f9a df3f 0000 0080 6367 98bf
00000780: 0000 0040 35a8 e03f 0000 0020 22de df3f
00000790: 0000 0080 af8c 98bf 0000 00a0 4ed8 e03f
000007a0: 0000 00a0 23e8 df3f 0000 0000 05fc 96bf
000007b0: 0000 0080 435f e13f 0000 00e0 1a28 e03f
000007c0: 0000 0000 b00f 94bf 0000 0020 47b8 e03f
000007d0: 0000 00a0 1658 e03f 0000 0080 398f 99bf
000007e0: 0000 0080 a466 e03f 0000 00e0 4965 e03f
000007f0: 0000 0060 c415 9abf 0000 00e0 7228 e03f
