files/processed_files/weight/2/weight_2_59.npy (npy, 2192 bytes, 1 tensors)

array f8 [258]
00000000: 0000 0060 362b e03f 0000 0020 e75e d13f
00000010: 0000 0000 8328 d5bf 0000 00a0 5cff ef3f
00000020: 0000 0040 677e e03f 0000 00a0 d705 ce3f
00000030: 0000 0000 bbea d3bf 0000 0000 3fff ef3f
00000040: 0000 00a0 6cb8 e03f 0000 00c0 4cf2 cd3f
00000050: 0000 0040 daeb d3bf 0000 00c0 3aff ef3f
00000060: 0000 0060 2ee8 e03f 0000 00a0 46d3 cd3f
00000070: 0000 0060 e8ea d3bf 0000 00c0 48ff ef3f
00000080: 0000 0000 dd94 df3f 0000 00e0 802b ce3f
00000090: 0000 0000 c69b d3bf 0000 00a0 34ff ef3f
000000a0: 0000 0000 2c20 df3f 0000 0040 dc2c ce3f
000000b0: 0000 0060 949a d3bf 0000 00a0 15ff ef3f
000000c0: 0000 00a0 01a5 de3f 0000 0000 8b47 ce3f
000000d0: 0000 0000 8f9d d3bf 0000 00e0 23ff ef3f
000000e0: 0000 00a0 f932 e13f 0000 0060 7864 cf3f
000000f0: 0000 0060 8c11 c1bf 0000 0080 40ff ef3f
00000100: 0000 00a0 b1f9 dd3f 0000 0020 a01f d03f
00000110: 0000 00c0 61d8 bbbf 0000 00a0 12ff ef3f
00000120: 0000 00a0 8fa8 e03f 0000 0020 3570 d33f
00000130: 0000 0060 c4c1 d0bf 0000 0080 9dff ef3f
00000140: 0000 00c0 b97a df3f 0000 0060 5384 d33f
00000150: 0000 0040 0256 d0bf 0000 0040 7fff ef3f
00000160: 0000 0060 9efb e23f 0000 0020 9734 db3f
00000170: 0000 0040 649a a7bf 0000 0060 87ff ef3f
00000180: 0000 00c0 c313 db3f 0000 0040 ea58 dc3f
00000190: 0000 00e0 2f9b 833f 0000 00e0 29ff ef3f
000001a0: 0000 00e0 facd e33f 0000 00e0 774d e63f
000001b0: 0000 0040 ecf0 cdbf 0000 0060 79e3 ef3f
000001c0: 0000 00c0 8e40 d83f 0000 00e0 2bfe e63f
000001d0: 0000 00c0 83eb c8bf 0000 0080 2ee4 ef3f
000001e0: 0000 0080 e2c7 e13f 0000 0060 131f e13f
000001f0: 0000 00e0 795d e2bf 0000 00a0 cfe1 ef3f
00000200: 0000 0060 14f0 db3f 0000 0060 bd74 e23f
00000210: 0000 00a0 ae0d e3bf 0000 0040 bbdb ef3f
00000220: 0000 00a0 191f e13f 0000 0020 3372 e03f
00000230: 0000 0040 e58f e4bf 0000 00a0 05c4 ef3f
00000240: 0000 0060 03b4 dd3f 0000 0060 0eda e13f
00000250: 0000 00e0 6634 e5bf 0000 0000 3aab ef3f
00000260: 0000 00e0 6ef8 e03f 0000 00c0 b6fb de3f
00000270: 0000 0060 8edf e3bf 0000 00a0 c7c0 ef3f
00000280: 0000 0060 2e2b de3f 0000 0000 73cc e03f
00000290: 0000 0020 bdc1 e4bf 0000 00a0 2aa6 ef3f
000002a0: 0000 0040 1412 e13f 0000 0040 1b3d df3f
000002b0: 0000 00c0 433d e2bf 0000 0060 00ba ef3f
000002c0: 0000 0040 dce4 dd3f 0000 00e0 c0d2 e03f
000002d0: 0000 0060 5127 e3bf 0000 0040 48a2 ef3f
000002e0: 0000 0000 782b e23f 0000 0020 c189 ee3f
000002f0: 0000 0040 bdbb 87bf 0000 0000 f570 ef3f
00000300: 0000 0000 62fd dc3f 0000 0020 956e ee3f
00000310: 0000 0060 fa0d 8a3f 0000 0040 8a6b ef3f
00000320: 0000 0040 a53d e23f 0000 00c0 f702 f53f
00000330: 0000 00e0 fbc9 963f 0000 0020 ce0c 983f
00000340: 0000 0000 76c3 dc3f 0000 00a0 5b13 f53f
00000350: 0000 00c0 c09a ad3f 0000 0060 eca4 a23f
00000360: 0000 0020 9146 e23f 0000 00a0 5995 fa3f
00000370: 0000 00c0 948d d13f 0000 0080 89cd 463f
00000380: 0000 0040 c194 dd3f 0000 0020 0fae fa3f
00000390: 0000 00a0 d3fd ce3f 0000 00c0 389d 513f
000003a0: 0000 00c0 1a60 e23f 0000 00e0 783c fb3f
000003b0: 0000 0060 ee5f d23f 0000 0020 3ab4 423f
000003c0: 0000 0040 376f dd3f 0000 0040 275a fb3f
000003d0: 0000 0040 3834 d03f 0000 00e0 09e3 553f
000003e0: 0000 00c0 34da e13f 0000 00c0 9c59 fc3f
000003f0: 0000 0040 a562 a93f 0000 0020 fd95 433f
00000400: 0000 0060 24aa de3f 0000 0040 0277 fc3f
00000410: 0000 0080 eabc 81bf 0000 0040 2022 503f
00000420: 0000 00e0 910f e23f 0000 0000 a29d e03f
00000430: 0000 0020 c23d 5f3e 0000 00e0 bd9f e13f
00000440: 0000 0040 ce8b df3f 0000 00c0 6648 323f
00000450: 0000 0020 79f5 e03f 0000 00e0 9d03 df3f
00000460: 0000 0020 0a6c 70bf 0000 00a0 277a e03f
00000470: 0000 0040 42d1 df3f 0000 00a0 bc59 82bf
00000480: 0000 0060 de46 e03f 0000 00c0 4e82 e03f
00000490: 0000 0080 98a0 8dbf 0000 0080 9803 e13f
000004a0: 0000 0020 3790 dd3f 0000 0080 e47d 86bf
000004b0: 0000 0060 224e e03f 0000 0000 729a dd3f
000004c0: 0000 0060 a63f 92bf 0000 0060 08d0 df3f
000004d0: 0000 00e0 a1ae dd3f 0000 0060 2229 96bf
000004e0: 0000 0000 2d36 df3f 0000 0040 1db1 dd3f
000004f0: 0000 0080 c9a0 98bf 0000 0080 8c24 e13f
00000500: 0000 0040 3992 de3f 0000 0080 6d17 90bf
00000510: 0000 0040 a857 e03f 0000 0080 f6b1 de3f
00000520: 0000 0020 f81b 97bf 0000 00e0 16c8 df3f
00000530: 0000 00c0 25a6 de3f 0000 0020 3c0c 9abf
00000540: 0000 00e0 610c df3f 0000 0060 7096 de3f
00000550: 0000 00e0 e81f 9cbf 0000 00a0 2049 e13f
00000560: 0000 00a0 20fa df3f 0000 0080 e640 94bf
00000570: 0000 0000 e78a e03f 0000 00e0 0f8c e03f
00000580: 0000 00a0 d740 9bbf 0000 0000 549c e03f
00000590: 0000 00c0 edb7 e03f 0000 00e0 37c4 9abf
000005a0: 0000 00e0 b9c2 e03f 0000 00c0 74b5 e03f
000005b0: 0000 0020 da07 99bf 0000 00e0 3c6a e13f
000005c0: 0000 0040 09bc e03f 0000 0000 9520 98bf
000005d0: 0000 00a0 12c7 e03f 0000 00c0 fe0e e13f
000005e0: 0000 0080 fa87 9cbf 0000 0020 917e e03f
000005f0: 0000 00a0 a529 e13f 0000 0020 82b6 9bbf
00000600: 0000 0040 814c e03f 0000 0080 8f30 e13f
00000610: 0000 0020 e299 9abf 0000 00e0 910f e23f
00000620: 0000 0000 a29d e03f 0000 0020 c23d 5f3e
00000630: 0000 00e0 bd9f e13f 0000 0040 ce8b df3f
00000640: 0000 00c0 6648 323f 0000 0020 79f5 e03f
00000650: 0000 00e0 9d03 df3f 0000 0020 0a6c 70bf
00000660: 0000 00a0 277a e03f 0000 0040 42d1 df3f
00000670: 0000 00a0 bc59 82bf 0000 0060 de46 e03f
00000680: 0000 00c0 4e82 e03f 0000 0080 98a0 8dbf
00000690: 0000 0080 9803 e13f 0000 0020 3790 dd3f
000006a0: 0000 0080 e47d 86bf 0000 0060 224e e03f
000006b0: 0000 0000 729a dd3f 0000 0060 a63f 92bf
000006c0: 0000 0060 08d0 df3f 0000 00e0 a1ae dd3f
000006d0: 0000 0060 2229 96bf 0000 0000 2d36 df3f
000006e0: 0000 0040 1db1 dd3f 0000 0080 c9a0 98bf
000006f0: 0000 0080 8c24 e13f 0000 0040 3992 de3f
00000700: 0000 0080 6d17 90bf 0000 0040 a857 e03f
00000710: 0000 0080 f6b1 de3f 0000 0020 f81b 97bf
00000720: 0000 00e0 16c8 df3f 0000 00c0 25a6 de3f
00000730: 0000 0020 3c0c 9abf 0000 00e0 610c df3f
00000740: 0000 0060 7096 de3f 0000 00e0 e81f 9cbf
00000750: 0000 00a0 2049 e13f 0000 00a0 20fa df3f
00000760: 0000 0080 e640 94bf 0000 0000 e78a e03f
00000770: 0000 00e0 0f8c e03f 0000 00a0 d740 9bbf
00000780: 0000 0000 549c e03f 0000 00c0 edb7 e03f
00000790: 0000 00e0 37c4 9abf 0000 00e0 b9c2 e03f
000007a0: 0000 00c0 74b5 e03f 0000 0020 da07 99bf
000007b0: 0000 00e0 3c6a e13f 0000 0040 09bc e03f
000007c0: 0000 0000 9520 98bf 0000 00a0 12c7 e03f
000007d0: 0000 00c0 fe0e e13f 0000 0080 fa87 9cbf
000007e0: 0000 0020 917e e03f 0000 00a0 a529 e13f
000007f0: 0000 0020 82b6 9bbf 0000 0040 814c e03f
0.5052749514579773 0.27141740918159485 -0.3305976390838623 0.9999220967292786 0.5154300928115845 0.2345532923936844 -0.311201810836792 0.9999079704284668
0.5225127339363098 0.23395690321922302 -0.3112702965736389 0.9999059438705444 0.5283424258232117 0.23301012814044952 -0.3112126290798187 0.9999126195907593
0.49346089363098145 0.23570261895656586 -0.3063826560974121 0.9999030232429504 0.48633861541748047 0.23574402928352356 -0.3063097894191742 0.9998882412910461
0.47882118821144104 0.23655831813812256 -0.3064916133880615 0.9998950362205505 0.5374725461006165 0.24525360763072968 -0.1333480328321457 0.9999086856842041
0.4683651030063629 0.25193026661872864 -0.1087704747915268 0.9998868107795715 0.5205762982368469 0.30372360348701477 -0.26182660460472107 0.999953031539917
0.4918655753135681 0.3049515187740326 -0.255249559879303 0.9999386072158813 0.5932151675224304 0.4250848591327667 -0.046099789440631866 0.9999424815177917
0.42308133840560913 0.44292694330215454 0.009573339484632015 0.9998978972434998 0.6188940405845642 0.6969565749168396 -0.23391488194465637 0.9965178370475769
0.37894028425216675 0.7185267806053162 -0.19468733668327332 0.9966042041778564 0.555649995803833 0.5350434184074402 -0.573910653591156 0.9963148236274719
0.4365282952785492 0.5767504572868347 -0.5954201817512512 0.9955726861953735 0.535046398639679 0.5139403939247131 -0.6425653696060181 0.9926784634590149
0.46411213278770447 0.5578681826591492 -0.6626467108726501 0.9896516799926758 0.5303263068199158 0.4841133952140808 -0.6210395693778992 0.9922826886177063
0.47138556838035583 0.5249571800231934 -0.6486497521400452 0.9890339970588684 0.5334569215774536 0.4881046414375305 -0.5699785947799683 0.9914552569389343
0.4670935273170471 0.5257267355918884 -0.5985495448112488 0.9885598421096802 0.5678062438964844 0.954315721988678 -0.011588552966713905 0.9825387001037598
0.45296525955200195 0.950998842716217 0.012721973471343517 0.9818774461746216 0.5700250864028931 1.3132245540618896 0.022254882380366325 0.023486347869038582
0.449429988861084 1.3172260522842407 0.05782129615545273 0.03641451522707939 0.5711141228675842 1.661462426185608 0.27426642179489136 0.000695888651534915
0.4622042775154114 1.6674948930740356 0.24212117493152618 0.0010750822257250547 0.5742315053939819 1.7022637128829956 0.28710517287254333 0.0005708011449314654
0.45991307497024536 1.709510087966919 0.25318723917007446 0.001335868495516479 0.5578864812850952 1.7718780040740967 0.04958073049783707 0.0005977140390314162
0.4791346490383148 1.779054880142212 -0.008661109954118729 0.0009846987668424845 0.5644006133079529 0.5192422866821289 2.9095675202484017e-08 0.5507497191429138
0.4929080605506897 0.00027897366089746356 0.5299649834632874 0.48459574580192566 -0.004009284544736147 0.5149114727973938 0.4971471428871155 -0.008960221894085407
0.5086509585380554 0.5159066915512085 -0.014466468244791031 0.531688928604126 0.461927205324173 -0.01098230853676796 0.5095378756523132 0.4625515937805176
-0.017820930108428 0.4970723092556 0.46378371119499207 -0.021641289815306664 0.48768162727355957 0.4639351963996887 -0.02405085414648056 0.5357115268707275
0.47767478227615356 -0.0157143697142601 0.5107003450393677 0.47961199283599854 -0.0225676316767931 0.49658748507499695 0.4788908362388611 -0.02543729729950428
0.48513075709342957 0.47793206572532654 -0.027465475723147392 0.5401766896247864 0.4996415674686432 -0.019778825342655182 0.5169558525085449 0.5170974135398865
-0.026614541187882423 0.5190830230712891 0.5224522352218628 -0.026139138266444206 0.523770272731781 0.5221503973007202 -0.024444015696644783 0.5442184805870056
0.5229536294937134 -0.023561790585517883 0.5243008732795715 0.5330804586410522 -0.027862466871738434 0.5154500603675842 0.5363338589668274 -0.0270634014159441
0.5093389749526978 0.5371778011322021 -0.025977643206715584 0.5644006133079529 0.5192422866821289 2.9095675202484017e-08 0.5507497191429138 0.4929080605506897
0.00027897366089746356 0.5299649834632874 0.48459574580192566 -0.004009284544736147 0.5149114727973938 0.4971471428871155 -0.008960221894085407 0.5086509585380554
0.5159066915512085 -0.014466468244791031 0.531688928604126 0.461927205324173 -0.01098230853676796 0.5095378756523132 0.4625515937805176 -0.017820930108428
0.4970723092556 0.46378371119499207 -0.021641289815306664 0.48768162727355957 0.4639351963996887 -0.02405085414648056 0.5357115268707275 0.47767478227615356
-0.0157143697142601 0.5107003450393677 0.47961199283599854 -0.0225676316767931 0.49658748507499695 0.4788908362388611 -0.02543729729950428 0.48513075709342957
0.47793206572532654 -0.027465475723147392 0.5401766896247864 0.4996415674686432 -0.019778825342655182 0.5169558525085449 0.5170974135398865 -0.026614541187882423
0.5190830230712891 0.5224522352218628 -0.026139138266444206 0.523770272731781 0.5221503973007202 -0.024444015696644783 0.5442184805870056 0.5229536294937134
-0.023561790585517883 0.5243008732795715 0.5330804586410522 -0.027862466871738434 0.5154500603675842 0.5363338589668274 -0.0270634014159441 0.5093389749526978
