files/processed_files/weight/7/weight_7_34.npy (npy, 2192 bytes, 1 tensors)

array f8 [258]
0.5077508091926575 0.29236817359924316 -0.4749564230442047 0.9998987317085266 0.5205009579658508 0.25639501214027405 -0.44239187240600586 0.9997743964195251
0.5290759205818176 0.257051557302475 -0.4424535930156708 0.9997768402099609 0.5355956554412842 0.256924033164978 -0.4422459006309509 0.9997531175613403
0.4964880645275116 0.2581445872783661 -0.4412393867969513 0.9997922778129578 0.48890307545661926 0.2598143517971039 -0.4410618245601654 0.9998252391815186
0.4800896644592285 0.2610962390899658 -0.4412497282028198 0.9998267292976379 0.5473558902740479 0.27401238679885864 -0.19492867588996887 0.9996486902236938
0.4708872139453888 0.2800311744213104 -0.18736562132835388 0.9998041987419128 0.5249369740486145 0.33063849806785583 -0.3830413818359375 0.9999284148216248
0.49146440625190735 0.33002814650535583 -0.3813476860523224 0.9999421238899231 0.6081899404525757 0.4786764979362488 -0.06269080191850662 0.9997438788414001
0.41946282982826233 0.4700305163860321 -0.04485831782221794 0.9998251795768738 0.6460660099983215 0.7767381072044373 -0.2877645194530487 0.9823236465454102
0.343421071767807 0.7439028024673462 -0.33259117603302 0.9849470853805542 0.5729879140853882 0.6758840084075928 -0.8002367615699768 0.8606740236282349
0.4242856204509735 0.5951679348945618 -0.8737068176269531 0.8801022171974182 0.5444952249526978 0.6754842400550842 -0.9062497615814209 0.7963472604751587
0.44886314868927 0.6026922464370728 -0.9730137586593628 0.8170139193534851 0.5342770218849182 0.6422824263572693 -0.896420955657959 0.8182263374328613
0.46470749378204346 0.5798961520195007 -0.9566132426261902 0.8337478041648865 0.5398690104484558 0.6387993097305298 -0.8052862286567688 0.8164118528366089
0.46303609013557434 0.5764607787132263 -0.876686155796051 0.8425737023353577 0.5652598738670349 1.0014691352844238 0.0025253179483115673 0.7755739092826843
0.4439287781715393 0.9966718554496765 -0.0010324231116101146 0.7862099409103394 0.5640134215354919 1.4030095338821411 0.05451197177171707 0.036126453429460526
0.42934226989746094 1.3928501605987549 0.08022120594978333 0.030886083841323853 0.5479736328125 1.7602190971374512 0.36335715651512146 0.009686819277703762
0.421678364276886 1.759019374847412 0.34058040380477905 0.013361386954784393 0.5503553748130798 1.803614854812622 0.37529030442237854 0.00509260268881917
0.4147593677043915 1.8036868572235107 0.3562409579753876 0.014725904911756516 0.5242215991020203 1.8761849403381348 0.07278621196746826 0.004191811662167311
0.43818873167037964 1.8791776895523071 0.02808969095349312 0.009843357838690281 0.5869165658950806 0.6499770879745483 1.1843172842418426e-07 0.5638598203659058
0.6264535784721375 -0.0026945210993289948 0.5370230078697205 0.6267827749252319 -0.004765345714986324 0.5179867148399353 0.640363335609436 -0.006776928436011076
0.5061702728271484 0.6572473645210266 -0.008885654620826244 0.5362741351127625 0.6321752667427063 -0.010142955929040909 0.5122923851013184 0.6431049108505249
-0.01589546725153923 0.5015669465065002 0.6535295844078064 -0.018894240260124207 0.4938403367996216 0.6646334528923035 -0.02019355446100235 0.5425573587417603
0.6535438895225525 -0.011627977713942528 0.5180274248123169 0.6634597778320312 -0.01705055870115757 0.5021476149559021 0.6719943881034851 -0.019564060494303703
0.49014216661453247 0.682341456413269 -0.021413082256913185 0.5503538250923157 0.6756225228309631 -0.012803789228200912 0.53156578540802 0.6833440065383911
-0.017849504947662354 0.5346677303314209 0.672951340675354 -0.015803543850779533 0.5416585803031921 0.6652834415435791 -0.013193502090871334 0.5577713847160339
0.6958336234092712 -0.014118658378720284 0.53915935754776 0.6978505253791809 -0.01584814116358757 0.5409680008888245 0.6875489950180054 -0.011764227412641048
0.5475075244903564 0.6795929074287415 -0.00816209614276886 0.5869165658950806 0.6499770879745483 1.1843172842418426e-07 0.5638598203659058 0.6264535784721375
-0.0026945210993289948 0.5370230078697205 0.6267827749252319 -0.004765345714986324 0.5179867148399353 0.640363335609436 -0.006776928436011076 0.5061702728271484
0.6572473645210266 -0.008885654620826244 0.5362741351127625 0.6321752667427063 -0.010142955929040909 0.5122923851013184 0.6431049108505249 -0.01589546725153923
0.5015669465065002 0.6535295844078064 -0.018894240260124207 0.4938403367996216 0.6646334528923035 -0.02019355446100235 0.5425573587417603 0.6535438895225525
-0.011627977713942528 0.5180274248123169 0.6634597778320312 -0.01705055870115757 0.5021476149559021 0.6719943881034851 -0.019564060494303703 0.49014216661453247
0.682341456413269 -0.021413082256913185 0.5503538250923157 0.6756225228309631 -0.012803789228200912 0.53156578540802 0.6833440065383911 -0.017849504947662354
0.5346677303314209 0.672951340675354 -0.015803543850779533 0.5416585803031921 0.6652834415435791 -0.013193502090871334 0.5577713847160339 0.6958336234092712
-0.014118658378720284 0.53915935754776 0.6978505253791809 -0.01584814116358757 0.5409680008888245 0.6875489950180054 -0.011764227412641048 0.5475075244903564
00000000: 0000 00a0 7e3f e03f 0000 0000 29b6 d23f
00000010: 0000 00a0 af65 debf 0000 00a0 2bff ef3f
00000020: 0000 00a0 f1a7 e03f 0000 00a0 c668 d03f
00000030: 0000 0000 2650 dcbf 0000 00e0 26fe ef3f
00000040: 0000 00a0 30ee e03f 0000 0060 8873 d03f
00000050: 0000 00e0 2851 dcbf 0000 0000 2cfe ef3f
00000060: 0000 0080 9923 e13f 0000 0080 7171 d03f
00000070: 0000 00c0 c14d dcbf 0000 0040 fafd ef3f
00000080: 0000 00e0 75c6 df3f 0000 00e0 7085 d03f
00000090: 0000 0020 443d dcbf 0000 0060 4cfe ef3f
000000a0: 0000 0020 304a df3f 0000 0060 cca0 d03f
000000b0: 0000 0060 5b3a dcbf 0000 0080 91fe ef3f
000000c0: 0000 0000 cab9 de3f 0000 0000 cdb5 d03f
000000d0: 0000 0080 6f3d dcbf 0000 00a0 94fe ef3f
000000e0: 0000 0080 f083 e13f 0000 0040 6b89 d13f
000000f0: 0000 0040 6cf3 c8bf 0000 0040 1ffd ef3f
00000100: 0000 0020 0423 de3f 0000 00e0 07ec d13f
00000110: 0000 00c0 98fb c7bf 0000 0060 65fe ef3f
00000120: 0000 00a0 48cc e03f 0000 0060 2e29 d53f
00000130: 0000 0000 c083 d8bf 0000 00e0 69ff ef3f
00000140: 0000 0020 2774 df3f 0000 0060 2e1f d53f
00000150: 0000 0020 0068 d8bf 0000 00a0 86ff ef3f
00000160: 0000 00c0 4a76 e33f 0000 00c0 a2a2 de3f
00000170: 0000 0020 810c b0bf 0000 00e0 e6fd ef3f
00000180: 0000 00a0 7ad8 da3f 0000 00e0 fa14 de3f
00000190: 0000 0060 abf7 a6bf 0000 0060 91fe ef3f
000001a0: 0000 00a0 92ac e43f 0000 00e0 09db e83f
000001b0: 0000 00e0 bb6a d2bf 0000 0000 326f ef3f
000001c0: 0000 0060 9cfa d53f 0000 0040 0dce e73f
000001d0: 0000 0080 2c49 d5bf 0000 00c0 af84 ef3f
000001e0: 0000 00c0 ea55 e23f 0000 0080 d7a0 e53f
000001f0: 0000 0020 8a9b e9bf 0000 0040 a48a eb3f
00000200: 0000 00e0 7e27 db3f 0000 00a0 9d0b e33f
00000210: 0000 0000 68f5 ebbf 0000 0020 cc29 ec3f
00000220: 0000 0040 816c e13f 0000 0020 919d e53f
00000230: 0000 0080 ffff ecbf 0000 0040 ad7b e93f
00000240: 0000 0080 2cba dc3f 0000 0040 4149 e33f
00000250: 0000 00c0 ed22 efbf 0000 0060 fa24 ea3f
00000260: 0000 0020 cc18 e13f 0000 00e0 938d e43f
00000270: 0000 0000 7baf ecbf 0000 0000 e92e ea3f
00000280: 0000 0080 c4bd dd3f 0000 0060 828e e23f
00000290: 0000 0060 939c eebf 0000 00e0 0fae ea3f
000002a0: 0000 0060 9b46 e13f 0000 0040 0b71 e43f
000002b0: 0000 00a0 e7c4 e9bf 0000 00c0 0b20 ea3f
000002c0: 0000 0020 62a2 dd3f 0000 00e0 5d72 e23f
000002d0: 0000 0020 d00d ecbf 0000 0020 5df6 ea3f
000002e0: 0000 00e0 9b16 e23f 0000 0080 0406 f03f
000002f0: 0000 00c0 f9af 643f 0000 0060 80d1 e83f
00000300: 0000 0040 5469 dc3f 0000 0060 bce4 ef3f
00000310: 0000 00e0 4bea 50bf 0000 00c0 a128 e93f
00000320: 0000 00e0 650c e23f 0000 0020 ba72 f63f
00000330: 0000 0040 fee8 ab3f 0000 00a0 2a7f a23f
00000340: 0000 0000 587a db3f 0000 0040 1d49 f63f
00000350: 0000 0080 6089 b43f 0000 0000 9aa0 9f3f
00000360: 0000 0000 0089 e13f 0000 0080 db29 fc3f
00000370: 0000 0060 3e41 d73f 0000 00e0 aed6 833f
00000380: 0000 0040 c7fc da3f 0000 0080 f124 fc3f
00000390: 0000 00c0 11cc d53f 0000 0000 375d 8b3f
000003a0: 0000 00e0 829c e13f 0000 0040 9bdb fc3f
000003b0: 0000 00a0 c104 d83f 0000 0020 fbdb 743f
000003c0: 0000 00e0 6a8b da3f 0000 00c0 e6db fc3f
000003d0: 0000 00e0 a6cc d63f 0000 0080 9d28 8e3f
000003e0: 0000 0060 6cc6 e03f 0000 0080 da04 fe3f
000003f0: 0000 0000 1ea2 b23f 0000 00e0 6e2b 713f
00000400: 0000 00c0 480b dc3f 0000 00a0 1c11 fe3f
00000410: 0000 0040 8bc3 9c3f 0000 0020 c128 843f
00000420: 0000 0040 05c8 e23f 0000 00c0 9ccc e43f
00000430: 0000 0000 91ca 7f3e 0000 00c0 230b e23f
00000440: 0000 0060 e80b e43f 0000 0000 d212 66bf
00000450: 0000 00e0 4a2f e13f 0000 00c0 9a0e e43f
00000460: 0000 00c0 d384 73bf 0000 00e0 5893 e03f
00000470: 0000 0040 db7d e43f 0000 00e0 1fc2 7bbf
00000480: 0000 0000 8c32 e03f 0000 00a0 2b08 e53f
00000490: 0000 0060 a432 82bf 0000 0060 2829 e13f
000004a0: 0000 00a0 c73a e43f 0000 0080 d4c5 84bf
000004b0: 0000 0000 b364 e03f 0000 00c0 5094 e43f
000004c0: 0000 00c0 e646 90bf 0000 0020 d60c e03f
000004d0: 0000 00e0 b6e9 e43f 0000 0000 0359 93bf
000004e0: 0000 0080 149b df3f 0000 0060 ad44 e53f
000004f0: 0000 0080 9ead 94bf 0000 0040 a15c e13f
00000500: 0000 00e0 d4e9 e43f 0000 00c0 68d0 87bf
00000510: 0000 0040 ae93 e03f 0000 0000 103b e53f
00000520: 0000 00a0 b375 91bf 0000 00e0 9711 e03f
00000530: 0000 0060 fa80 e53f 0000 00e0 9908 94bf
00000540: 0000 0040 7d5e df3f 0000 00c0 bdd5 e53f
00000550: 0000 00a0 4fed 95bf 0000 00a0 7f9c e13f
00000560: 0000 0020 b39e e53f 0000 0080 df38 8abf
00000570: 0000 0040 9602 e13f 0000 0040 f4dd e53f
00000580: 0000 0000 2447 92bf 0000 0080 ff1b e13f
00000590: 0000 0040 d188 e53f 0000 00e0 cd2e 90bf
000005a0: 0000 0060 4455 e13f 0000 0080 004a e53f
000005b0: 0000 00e0 3105 8bbf 0000 0060 43d9 e13f
000005c0: 0000 00e0 4444 e63f 0000 0040 3eea 8cbf
000005d0: 0000 0020 cb40 e13f 0000 00a0 ca54 e63f
000005e0: 0000 00c0 7e3a 90bf 0000 0020 9c4f e13f
000005f0: 0000 00c0 6600 e63f 0000 00e0 d717 88bf
00000600: 0000 0080 2e85 e13f 0000 00a0 39bf e53f
00000610: 0000 0000 4ab7 80bf 0000 0040 05c8 e23f
00000620: 0000 00c0 9ccc e43f 0000 0000 91ca 7f3e
00000630: 0000 00c0 230b e23f 0000 0060 e80b e43f
00000640: 0000 0000 d212 66bf 0000 00e0 4a2f e13f
00000650: 0000 00c0 9a0e e43f 0000 00c0 d384 73bf
00000660: 0000 00e0 5893 e03f 0000 0040 db7d e43f
00000670: 0000 00e0 1fc2 7bbf 0000 0000 8c32 e03f
00000680: 0000 00a0 2b08 e53f 0000 0060 a432 82bf
00000690: 0000 0060 2829 e13f 0000 00a0 c73a e43f
000006a0: 0000 0080 d4c5 84bf 0000 0000 b364 e03f
000006b0: 0000 00c0 5094 e43f 0000 00c0 e646 90bf
000006c0: 0000 0020 d60c e03f 0000 00e0 b6e9 e43f
000006d0: 0000 0000 0359 93bf 0000 0080 149b df3f
000006e0: 0000 0060 ad44 e53f 0000 0080 9ead 94bf
000006f0: 0000 0040 a15c e13f 0000 00e0 d4e9 e43f
00000700: 0000 00c0 68d0 87bf 0000 0040 ae93 e03f
00000710: 0000 0000 103b e53f 0000 00a0 b375 91bf
00000720: 0000 00e0 9711 e03f 0000 0060 fa80 e53f
00000730: 0000 00e0 9908 94bf 0000 0040 7d5e df3f
00000740: 0000 00c0 bdd5 e53f 0000 00a0 4fed 95bf
00000750: 0000 00a0 7f9c e13f 0000 0020 b39e e53f
00000760: 0000 0080 df38 8abf 0000 0040 9602 e13f
00000770: 0000 0040 f4dd e53f 0000 0000 2447 92bf
00000780: 0000 0080 ff1b e13f 0000 0040 d188 e53f
00000790: 0000 00e0 cd2e 90bf 0000 0060 4455 e13f
000007a0: 0000 0080 004a e53f 0000 00e0 3105 8bbf
000007b0: 0000 0060 43d9 e13f 0000 00e0 4444 e63f
000007c0: 0000 0040 3eea 8cbf 0000 0020 cb40 e13f
000007d0: 0000 00a0 ca54 e63f 0000 00c0 7e3a 90bf
000007e0: 0000 0020 9c4f e13f 0000 00c0 6600 e63f
000007f0: 0000 00e0 d717 88bf 0000 0080 2e85 e13f
