files/processed_files/weight/7/weight_7_42.npy (npy, 2192 bytes, 1 tensors)

array f8 [258]
0	0x3fe0422dc0000000	0.5080784559249878
1	0x3fd2adb1c0000000	0.2918514609336853
2	0xbfdc0dc020000000	-0.4383392632007599
3	0x3fefff9360000000	0.9999482035636902
4	0x3fe0ab5620000000	0.5209150910377502
5	0x3fd05176c0000000	0.2549721598625183
6	0xbfda18c420000000	-0.4077616035938263
7	0x3fefff1d20000000	0.9998918175697327
8	0x3fe0f35600000000	0.5297040939331055
9	0x3fd05d0220000000	0.2556767761707306
10	0xbfda19e140000000	-0.4078295826911926
11	0x3fefff1f80000000	0.9998929500579834
12	0x3fe1264d60000000	0.535925567150116
13	0x3fd05dfb80000000	0.25573623180389404
14	0xbfda17a880000000	-0.4076939821243286
15	0x3fefff0800000000	0.9998817443847656
16	0x3fdfc98a40000000	0.4966760277748108
17	0x3fd055ec00000000	0.25524425506591797
18	0xbfd9b21080000000	-0.4014931917190552
19	0x3fefff2a20000000	0.9998980164527893
20	0x3fdf4d32a0000000	0.489086776971817
21	0x3fd0607140000000	0.25588637590408325
22	0xbfd9aede60000000	-0.4012981355190277
23	0x3fefff4760000000	0.9999119639396667
24	0x3fdeb8bca0000000	0.48002544045448303
25	0x3fd07c3260000000	0.25758036971092224
26	0xbfd9b104a0000000	-0.40142932534217834
27	0x3fefff45e0000000	0.9999112486839294
28	0x3fe18bd0a0000000	0.5483172535896301
29	0x3fd17c1c20000000	0.27320006489753723
30	0xbfc59d3b40000000	-0.16886082291603088
31	0x3feffea7e0000000	0.9998359084129333
32	0x3fde237380000000	0.47091376781463623
33	0x3fd1c1be20000000	0.2774501144886017
34	0xbfc60d4b20000000	-0.1722806841135025
35	0x3fefff3820000000	0.9999046921730042
36	0x3fe0d16480000000	0.5255606174468994
37	0x3fd51e6640000000	0.32998043298721313
38	0xbfd67b6420000000	-0.35128119587898254
39	0x3fefffb7a0000000	0.999965488910675
40	0x3fdf773600000000	0.4916510581970215
41	0x3fd5122980000000	0.3292335271835327
42	0xbfd61501c0000000	-0.3450321555137634
43	0x3fefffc1c0000000	0.9999703168869019
44	0x3fe3676340000000	0.6063705682754517
45	0x3fde3c49e0000000	0.47242972254753113
46	0xbfa37e9de0000000	-0.03807538375258446
47	0x3fefff0600000000	0.9998807907104492
48	0x3fdad367a0000000	0.4191531240940094
49	0x3fddeeeae0000000	0.4677073657512665
50	0xbfb13a3d80000000	-0.06729492545127869
51	0x3fefff3700000000	0.9999041557312012
52	0x3fe4a395a0000000	0.6449688076972961
53	0x3fe91732c0000000	0.7840818166732788
54	0xbfd3123f00000000	-0.2979886531829834
55	0x3fefba8440000000	0.9915181398391724
56	0x3fd60dd9c0000000	0.34459537267684937
57	0x3fe79fb140000000	0.7382436990737915
58	0xbfd8ade080000000	-0.3856126070022583
59	0x3fefc60a00000000	0.992924690246582
60	0x3fe28cbb80000000	0.5796792507171631
61	0x3fe35b06c0000000	0.6048616170883179
62	0xbfe9e15b60000000	-0.8087593913078308
63	0x3fee129620000000	0.9397688508033752
64	0x3fdca991a0000000	0.44784966111183167
65	0x3fe3069a20000000	0.5945559144020081
66	0xbfebf1c860000000	-0.873264491558075
67	0x3fee536520000000	0.9476800560951233
68	0x3fe1e506c0000000	0.5592073202133179
69	0x3fe297d020000000	0.581031858921051
70	0xbfed0d3d60000000	-0.9078661799430847
71	0x3fed292520000000	0.9112725853919983
72	0x3fdeb59c20000000	0.47983458638191223
73	0x3fe2b54d00000000	0.5846314430236816
74	0xbfeedc6240000000	-0.9644023180007935
75	0x3fed5f8300000000	0.9179091453552246
76	0x3fe1eab700000000	0.5599017143249512
77	0x3fe1a3e0c0000000	0.5512546300888062
78	0xbfec763880000000	-0.8894312381744385
79	0x3fed757740000000	0.9205890893936157
80	0x3fdf228b60000000	0.4864834249019623
81	0x3fe1c82f20000000	0.5556865334510803
82	0xbfee269a00000000	-0.9422121047973633
83	0x3fed951fa0000000	0.9244535565376282
84	0x3fe1ec2b40000000	0.5600792169570923
85	0x3fe1c79d00000000	0.5556168556213379
86	0xbfe9fd18e0000000	-0.8121456503868103
87	0x3fed6b7240000000	0.9193660020828247
88	0x3fded894c0000000	0.48196905851364136
89	0x3fe1cc9560000000	0.5562235713005066
90	0xbfebea9ee0000000	-0.8723902106285095
91	0x3fedb1cf80000000	0.9279553890228271
92	0x3fe21848a0000000	0.5654643177986145
93	0x3ff01a70c0000000	1.0064551830291748
94	0x3f7310d9c0000000	0.00465474184602499
95	0x3fec189220000000	0.8779993653297424
96	0x3fdc59e7e0000000	0.4429874122142792
97	0x3ff010d560000000	1.0041097402572632
98	0xbf6bc07b00000000	-0.0033876802772283554
99	0x3fec3c85e0000000	0.8823880553245544
100	0x3fe2150d20000000	0.5650697350502014
101	0x3ff6661500000000	1.3999223709106445
102	0x3fb1dcd0e0000000	0.06977563351392746
103	0x3f9351b940000000	0.018866438418626785
104	0x3fdb78a060000000	0.4292374551296234
105	0x3ff6544520000000	1.3955737352371216
106	0x3fb813cfe0000000	0.09405230730772018
107	0x3f918c85e0000000	0.017137615010142326
108	0x3fe1af3120000000	0.5526357293128967
109	0x3ffc1a5680000000	1.7564301490783691
110	0x3fd98a51c0000000	0.39906734228134155
111	0x3f72213680000000	0.004426205530762672
112	0x3fdb2d2420000000	0.42463019490242004
113	0x3ffc28ade0000000	1.7599314451217651
114	0x3fd7bb4240000000	0.3708043694496155
115	0x3f78982e40000000	0.006004505790770054
116	0x3fe1c3d700000000	0.5551562309265137
117	0x3ffcc4f700000000	1.7980871200561523
118	0x3fda89d220000000	0.4146619141101837
119	0x3f63c161c0000000	0.0024115475825965405
120	0x3fdac4f1a0000000	0.4182704985141754
121	0x3ffce14d20000000	1.8050051927566528
122	0x3fd8e326c0000000	0.3888642191886902
123	0x3f7b88ffa0000000	0.006722448859363794
124	0x3fe1044200000000	0.5317697525024414
125	0x3ffe00d900000000	1.8752069473266602
126	0x3fbc8b7f20000000	0.11150354892015457
127	0x3f60686360000000	0.00200290116481483
128	0x3fdc40fc40000000	0.44146639108657837
129	0x3ffe0aaec0000000	1.877608060836792
130	0x3fb09b2160000000	0.06486710160970688
131	0x3f736ee2a0000000	0.004744420293718576
132	0x3fe29eeb00000000	0.5818991661071777
133	0x3fe2c15ce0000000	0.5861038565635681
134	0x3e6b544f40000000	5.090485188929961e-08
135	0x3fe245a4c0000000	0.571001410484314
136	0x3fe1b036c0000000	0.5527604818344116
137	0xbf5926a840000000	-0.0015350955072790384
138	0x3fe1a2f000000000	0.5511398315429688
139	0x3fe14df040000000	0.5407639741897583
140	0xbf784f9400000000	-0.005935266613960266
141	0x3fe11bda20000000	0.5346499085426331
142	0x3fe1869720000000	0.5476794838905334
143	0xbf84a14200000000	-0.01007319986820221
144	0x3fe0c376c0000000	0.5238603353500366
145	0x3fe1ed9780000000	0.5602529048919678
146	0xbf8e5f2500000000	-0.014829911291599274
147	0x3fe196e4e0000000	0.5496696829795837
148	0x3fe1096860000000	0.5323984026908875
149	0xbf8f8459c0000000	-0.015389157459139824
150	0x3fe0c1c740000000	0.523654580116272
151	0x3fe14f29c0000000	0.540913462638855
152	0xbf969f5900000000	-0.022092238068580627
153	0x3fe04b19e0000000	0.5091676115989685
154	0x3fe18208e0000000	0.547123372554779
155	0xbf9a544c60000000	-0.02571219764649868
156	0x3fdfdfeb80000000	0.4980419874191284
157	0x3fe1ab7500000000	0.5521798133850098
158	0xbf9c63af80000000	-0.027724020183086395
159	0x3fe1a6efa0000000	0.5516279339790344
160	0x3fe1d964a0000000	0.5577872395515442
161	0xbf92d217e0000000	-0.018379567191004753
162	0x3fe0bd56c0000000	0.5231126546859741
163	0x3fe2132a20000000	0.5648394227027893
164	0xbf9916e840000000	-0.02450144663453102
165	0x3fe037f100000000	0.506828784942627
166	0x3fe2276100000000	0.5673069953918457
167	0xbf9b1a3e00000000	-0.02646729350090027
168	0x3fdfa9dd60000000	0.4947427213191986
169	0x3fe23cdac0000000	0.5699285268783569
170	0xbf9cbd8aa0000000	-0.028066793456673622
171	0x3fe1b8aa20000000	0.5537920594215393
172	0x3fe2b1c640000000	0.5842009782791138
173	0xbf94ed5ca0000000	-0.020436713472008705
174	0x3fe0d5b4e0000000	0.52608722448349
175	0x3fe2ee92e0000000	0.5916227698326111
176	0xbf9b1a8000000000	-0.026468276977539062
177	0x3fe0fe5d80000000	0.531050443649292
178	0x3fe2d038a0000000	0.5879176259040833
179	0xbf985730e0000000	-0.023770106956362724
180	0x3fe1439c20000000	0.5395031571388245
181	0x3fe2bbaf60000000	0.5854107737541199
182	0xbf95592ec0000000	-0.020848017185926437
183	0x3fe1cadd40000000	0.5560137033462524
184	0x3fe37a0da0000000	0.6086490750312805
185	0xbf96da05e0000000	-0.022316066548228264
186	0x3fe11ae640000000	0.5345336198806763
187	0x3fe3752500000000	0.6080498695373535
188	0xbf9b691440000000	-0.0267680324614048
189	0x3fe13e2360000000	0.5388352274894714
190	0x3fe34bc280000000	0.6029980182647705
191	0xbf97e70d00000000	-0.023342326283454895
192	0x3fe17e1280000000	0.5466396808624268
193	0x3fe3320c40000000	0.599859356880188
194	0xbf94584e20000000	-0.01986810751259327
195	0x3fe29eeb00000000	0.5818991661071777
196	0x3fe2c15ce0000000	0.5861038565635681
197	0x3e6b544f40000000	5.090485188929961e-08
198	0x3fe245a4c0000000	0.571001410484314
199	0x3fe1b036c0000000	0.5527604818344116
200	0xbf5926a840000000	-0.0015350955072790384
201	0x3fe1a2f000000000	0.5511398315429688
202	0x3fe14df040000000	0.5407639741897583
203	0xbf784f9400000000	-0.005935266613960266
204	0x3fe11bda20000000	0.5346499085426331
205	0x3fe1869720000000	0.5476794838905334
206	0xbf84a14200000000	-0.01007319986820221
207	0x3fe0c376c0000000	0.5238603353500366
208	0x3fe1ed9780000000	0.5602529048919678
209	0xbf8e5f2500000000	-0.014829911291599274
210	0x3fe196e4e0000000	0.5496696829795837
211	0x3fe1096860000000	0.5323984026908875
212	0xbf8f8459c0000000	-0.015389157459139824
213	0x3fe0c1c740000000	0.523654580116272
214	0x3fe14f29c0000000	0.540913462638855
215	0xbf969f5900000000	-0.022092238068580627
216	0x3fe04b19e0000000	0.5091676115989685
217	0x3fe18208e0000000	0.547123372554779
218	0xbf9a544c60000000	-0.02571219764649868
219	0x3fdfdfeb80000000	0.4980419874191284
220	0x3fe1ab7500000000	0.5521798133850098
221	0xbf9c63af80000000	-0.027724020183086395
222	0x3fe1a6efa0000000	0.5516279339790344
223	0x3fe1d964a0000000	0.5577872395515442
224	0xbf92d217e0000000	-0.018379567191004753
225	0x3fe0bd56c0000000	0.5231126546859741
226	0x3fe2132a20000000	0.5648394227027893
227	0xbf9916e840000000	-0.02450144663453102
228	0x3fe037f100000000	0.506828784942627
229	0x3fe2276100000000	0.5673069953918457
230	0xbf9b1a3e00000000	-0.02646729350090027
231	0x3fdfa9dd60000000	0.4947427213191986
232	0x3fe23cdac0000000	0.5699285268783569
233	0xbf9cbd8aa0000000	-0.028066793456673622
234	0x3fe1b8aa20000000	0.5537920594215393
235	0x3fe2b1c640000000	0.5842009782791138
236	0xbf94ed5ca0000000	-0.020436713472008705
237	0x3fe0d5b4e0000000	0.52608722448349
238	0x3fe2ee92e0000000	0.5916227698326111
239	0xbf9b1a8000000000	-0.026468276977539062
240	0x3fe0fe5d80000000	0.531050443649292
241	0x3fe2d038a0000000	0.5879176259040833
242	0xbf985730e0000000	-0.023770106956362724
243	0x3fe1439c20000000	0.5395031571388245
244	0x3fe2bbaf60000000	0.5854107737541199
245	0xbf95592ec0000000	-0.020848017185926437
246	0x3fe1cadd40000000	0.5560137033462524
247	0x3fe37a0da0000000	0.6086490750312805
248	0xbf96da05e0000000	-0.022316066548228264
249	0x3fe11ae640000000	0.5345336198806763
250	0x3fe3752500000000	0.6080498695373535
251	0xbf9b691440000000	-0.0267680324614048
252	0x3fe13e2360000000	0.5388352274894714
253	0x3fe34bc280000000	0.6029980182647705
254	0xbf97e70d00000000	-0.023342326283454895
255	0x3fe17e1280000000	0.5466396808624268
