files/processed_files/weight/7/weight_7_58.npy (npy, 2192 bytes, 1 tensors)

array f8 [258]
0	0x3fe03b1e60000000	0.5072166323661804
1	0x3fd2eac2c0000000	0.29557865858078003
2	0xbfda53e5c0000000	-0.4113706946372986
3	0x3fefffd840000000	0.9999810457229614
4	0x3fe0a8c880000000	0.5206034183502197
5	0x3fd07ff980000000	0.25781095027923584
6	0xbfd849be00000000	-0.3795008659362793
7	0x3fefffbc40000000	0.9999676942825317
8	0x3fe0f0ed40000000	0.5294100046157837
9	0x3fd0882d80000000	0.2583116292953491
10	0xbfd84ab0c0000000	-0.3795587420463562
11	0x3fefffbd60000000	0.9999682307243347
12	0x3fe1253500000000	0.5357918739318848
13	0x3fd087ac80000000	0.258280873298645
14	0xbfd849a4a0000000	-0.3794948160648346
15	0x3fefffb660000000	0.9999648928642273
16	0x3fdfbcd720000000	0.4959008991718292
17	0x3fd0976f80000000	0.2592428922653198
18	0xbfd85f56a0000000	-0.3808189928531647
19	0x3fefffb9e0000000	0.999966561794281
20	0x3fdf3b3aa0000000	0.48799005150794983
21	0x3fd0a62160000000	0.2601397931575775
22	0xbfd85a2080000000	-0.3805009126663208
23	0x3fefffbf20000000	0.9999690651893616
24	0x3fdea783e0000000	0.478974312543869
25	0x3fd0be3ec0000000	0.2616116404533386
26	0xbfd85d9a20000000	-0.38071301579475403
27	0x3fefffbb00000000	0.999967098236084
28	0x3fe18b6a00000000	0.5482683181762695
29	0x3fd195b600000000	0.2747626304626465
30	0xbfc493af40000000	-0.16075697541236877
31	0x3fefffa4c0000000	0.999956488609314
32	0x3fde1ae640000000	0.47039180994033813
33	0x3fd1dcfc20000000	0.279112845659256
34	0xbfc151d6c0000000	-0.13531002402305603
35	0x3fefffc0e0000000	0.9999698996543884
36	0x3fe0cf0ec0000000	0.5252755880355835
37	0x3fd54ca8a0000000	0.332803875207901
38	0xbfd4dd57e0000000	-0.32600972056388855
39	0x3fefffe9c0000000	0.99998939037323
40	0x3fdf69eec0000000	0.4908406138420105
41	0x3fd5523ca0000000	0.33314433693885803
42	0xbfd47339a0000000	-0.3195327818393707
43	0x3fefffe840000000	0.9999886751174927
44	0x3fe35c6640000000	0.6050292253494263
45	0x3fde3adee0000000	0.47234317660331726
46	0xbfa347d900000000	-0.03765752911567688
47	0x3fefffb620000000	0.9999647736549377
48	0x3fdaca9d00000000	0.41861653327941895
49	0x3fdde4a5e0000000	0.46708056330680847
50	0xbf9ac6c8e0000000	-0.026148928329348564
51	0x3fefff9e40000000	0.9999533891677856
52	0x3fe49659a0000000	0.643353283405304
53	0x3fe91f2f40000000	0.7850567102432251
54	0xbfd3591aa0000000	-0.3023134768009186
55	0x3fefe81680000000	0.9970810413360596
56	0x3fd69de7c0000000	0.3533877730369568
57	0x3fe7e1fda0000000	0.7463367581367493
58	0xbfd57e07e0000000	-0.3358173072338104
59	0x3fefece060000000	0.9976655840873718
60	0x3fe2b89480000000	0.5850317478179932
61	0x3fe3644d40000000	0.6059938669204712
62	0xbfe9700720000000	-0.7949252724647522
63	0x3fefa151e0000000	0.9884423613548279
64	0x3fdd17c4c0000000	0.45457571744918823
65	0x3fe3aee580000000	0.6150996685028076
66	0xbfea555aa0000000	-0.8229191899299622
67	0x3fefa7fee0000000	0.989257276058197
68	0x3fe21b25e0000000	0.5658139586448669
69	0x3fe2a986c0000000	0.5831941366195679
70	0xbfec487420000000	-0.8838444352149963
71	0x3fef6baac0000000	0.9818929433822632
72	0x3fdefb3cc0000000	0.4840843081474304
73	0x3fe2fd5060000000	0.5934221148490906
74	0xbfed190300000000	-0.9093031883239746
75	0x3fef5dff60000000	0.9802243113517761
76	0x3fe2041880000000	0.562999963760376
77	0x3fe19b1ba0000000	0.5501840710639954
78	0xbfeb41c440000000	-0.8517781496047974
79	0x3fef788800000000	0.9834632873535156
80	0x3fdf3ffcc0000000	0.4882804751396179
81	0x3fe217c920000000	0.5654035210609436
82	0xbfec490e60000000	-0.8839179873466492
83	0x3fef606820000000	0.9805184006690979
84	0x3fe2068f20000000	0.5633006691932678
85	0x3fe1bc4180000000	0.5542304515838623
86	0xbfe9542200000000	-0.7915201187133789
87	0x3fef71a660000000	0.982623279094696
88	0x3fdef4db60000000	0.4836948812007904
89	0x3fe239eee0000000	0.5695719122886658
90	0xbfea4a4c20000000	-0.8215695023536682
91	0x3fef625a20000000	0.9807558655738831
92	0x3fe20c0680000000	0.5639679431915283
93	0x3feff08760000000	0.9981114268302917
94	0xbf68832580000000	-0.0029922230169177055
95	0x3fed413220000000	0.9142084717750549
96	0x3fdc4384a0000000	0.44162097573280334
97	0x3feff11b40000000	0.998181939125061
98	0x3f71d44780000000	0.004352835938334465
99	0x3fed5271e0000000	0.9163140654563904
100	0x3fe1f8fc00000000	0.5616436004638672
101	0x3ff64c7c80000000	1.3936734199523926
102	0x3fa2d549c0000000	0.03678350895643234
103	0x3f7b758920000000	0.006703887600451708
104	0x3fdb2392a0000000	0.42404618859291077
105	0x3ff6404d00000000	1.3906984329223633
106	0x3fb42acae0000000	0.07877796143293381
107	0x3f80ac2e60000000	0.008140909485518932
108	0x3fe19308e0000000	0.549198567867279
109	0x3ffc001940000000	1.7500240802764893
110	0x3fd55cce20000000	0.3337893784046173
111	0x3f52d3b760000000	0.0011491099139675498
112	0x3fdad97160000000	0.41952165961265564
113	0x3ffc1bc900000000	1.7567834854125977
114	0x3fd46b0fc0000000	0.31903451681137085
115	0x3f583bdaa0000000	0.0014791140565648675
116	0x3fe1a6e0c0000000	0.5516208410263062
117	0x3ffca786e0000000	1.7909001111984253
118	0x3fd6293e40000000	0.3462672829627991
119	0x3f488c4b60000000	0.0007491462747566402
120	0x3fda78bca0000000	0.41361919045448303
121	0x3ffcd605e0000000	1.8022516965866089
122	0x3fd55a07c0000000	0.33362001180648804
123	0x3f5dcbd3a0000000	0.0018186155939474702
124	0x3fe0ed7ba0000000	0.5289896130561829
125	0x3ffdeaf500000000	1.8698625564575195
126	0x3faacb61a0000000	0.05233292654156685
127	0x3f4501ce00000000	0.0006410842761397362
128	0x3fdbe9eea0000000	0.4361530840396881
129	0x3ffdfbbe40000000	1.8739607334136963
130	0x3f84fec2e0000000	0.0102515434846282
131	0x3f5ba6c280000000	0.001687707845121622
132	0x3fe298bf80000000	0.5811460018157959
133	0x3fe2e27220000000	0.5901423096656799
134	0x3e6fda6fa0000000	5.9331330959366824e-08
135	0x3fe2386140000000	0.5693823099136353
136	0x3fe1dd9360000000	0.5582978129386902
137	0xbf552ab340000000	-0.0012919188011437654
138	0x3fe1926ee0000000	0.5491251349449158
139	0x3fe185d840000000	0.5475884675979614
140	0xbf779f7980000000	-0.005767321214079857
141	0x3fe10be020000000	0.5326996445655823
142	0x3fe1c27520000000	0.5549874901771545
143	0xbf84b32b00000000	-0.010107360780239105
144	0x3fe0b39c60000000	0.521925151348114
145	0x3fe22765a0000000	0.5673092007637024
146	0xbf8ed4c7a0000000	-0.015054282732307911
147	0x3fe1813e80000000	0.5470268726348877
148	0x3fe1391ac0000000	0.5382207632064819
149	0xbf8fdc4600000000	-0.015556856989860535
150	0x3fe0a54640000000	0.5201750993728638
151	0x3fe1882260000000	0.5478679537773132
152	0xbf9712eb60000000	-0.022533109411597252
153	0x3fe02c3e80000000	0.5054008960723877
154	0x3fe1c3bfa0000000	0.5551450848579407
155	0xbf9af0d6a0000000	-0.02630935050547123
156	0x3fdf9bc360000000	0.49388203024864197
157	0x3fe1f6dd20000000	0.5613847374916077
158	0xbf9d1af7e0000000	-0.028423188254237175
159	0x3fe1974480000000	0.5497152805328369
160	0x3fe20557a0000000	0.5631521344184875
161	0xbf93630aa0000000	-0.01893250085413456
162	0x3fe0a79600000000	0.5204572677612305
163	0x3fe23d0ac0000000	0.5699514150619507
164	0xbf9a30c880000000	-0.025576718151569366
165	0x3fe01da8a0000000	0.503620445728302
166	0x3fe25b2100000000	0.5736241340637207
167	0xbf9c847560000000	-0.027849039062857628
168	0x3fdf6a0c60000000	0.4908476769924164
169	0x3fe27a92a0000000	0.5774624943733215
170	0xbf9e39d060000000	-0.029517417773604393
171	0x3fe1b07a00000000	0.5527925491333008
172	0x3fe2db8c00000000	0.5893001556396484
173	0xbf95d53760000000	-0.021321168169379234
174	0x3fe0c911c0000000	0.5245445966720581
175	0x3fe32bac80000000	0.59908127784729
176	0xbf9c77acc0000000	-0.027800273150205612
177	0x3fe0f1cec0000000	0.5295175313949585
178	0x3fe3136900000000	0.5961194038391113
179	0xbf998d6fe0000000	-0.024953601881861687
180	0x3fe13621e0000000	0.5378579497337341
181	0x3fe2fa6fe0000000	0.593070924282074
182	0xbf96464100000000	-0.02175237238407135
183	0x3fe1c989a0000000	0.5558517575263977
184	0x3fe3a2d6a0000000	0.6136277318000793
185	0xbf9812be80000000	-0.023509003221988678
186	0x3fe115df40000000	0.5339199304580688
187	0x3fe3b17be0000000	0.6154155135154724
188	0xbf9cd5dca0000000	-0.028159568086266518
189	0x3fe13838e0000000	0.5381130576133728
190	0x3fe38e0aa0000000	0.6110890507698059
191	0xbf9909f000000000	-0.02445197105407715
192	0x3fe17791a0000000	0.5458458065986633
193	0x3fe370e420000000	0.6075306534767151
194	0xbf95289e60000000	-0.020662760362029076
195	0x3fe298bf80000000	0.5811460018157959
196	0x3fe2e27220000000	0.5901423096656799
197	0x3e6fda6fa0000000	5.9331330959366824e-08
198	0x3fe2386140000000	0.5693823099136353
199	0x3fe1dd9360000000	0.5582978129386902
200	0xbf552ab340000000	-0.0012919188011437654
201	0x3fe1926ee0000000	0.5491251349449158
202	0x3fe185d840000000	0.5475884675979614
203	0xbf779f7980000000	-0.005767321214079857
204	0x3fe10be020000000	0.5326996445655823
205	0x3fe1c27520000000	0.5549874901771545
206	0xbf84b32b00000000	-0.010107360780239105
207	0x3fe0b39c60000000	0.521925151348114
208	0x3fe22765a0000000	0.5673092007637024
209	0xbf8ed4c7a0000000	-0.015054282732307911
210	0x3fe1813e80000000	0.5470268726348877
211	0x3fe1391ac0000000	0.5382207632064819
212	0xbf8fdc4600000000	-0.015556856989860535
213	0x3fe0a54640000000	0.5201750993728638
214	0x3fe1882260000000	0.5478679537773132
215	0xbf9712eb60000000	-0.022533109411597252
216	0x3fe02c3e80000000	0.5054008960723877
217	0x3fe1c3bfa0000000	0.5551450848579407
218	0xbf9af0d6a0000000	-0.02630935050547123
219	0x3fdf9bc360000000	0.49388203024864197
220	0x3fe1f6dd20000000	0.5613847374916077
221	0xbf9d1af7e0000000	-0.028423188254237175
222	0x3fe1974480000000	0.5497152805328369
223	0x3fe20557a0000000	0.5631521344184875
224	0xbf93630aa0000000	-0.01893250085413456
225	0x3fe0a79600000000	0.5204572677612305
226	0x3fe23d0ac0000000	0.5699514150619507
227	0xbf9a30c880000000	-0.025576718151569366
228	0x3fe01da8a0000000	0.503620445728302
229	0x3fe25b2100000000	0.5736241340637207
230	0xbf9c847560000000	-0.027849039062857628
231	0x3fdf6a0c60000000	0.4908476769924164
232	0x3fe27a92a0000000	0.5774624943733215
233	0xbf9e39d060000000	-0.029517417773604393
234	0x3fe1b07a00000000	0.5527925491333008
235	0x3fe2db8c00000000	0.5893001556396484
236	0xbf95d53760000000	-0.021321168169379234
237	0x3fe0c911c0000000	0.5245445966720581
238	0x3fe32bac80000000	0.59908127784729
239	0xbf9c77acc0000000	-0.027800273150205612
240	0x3fe0f1cec0000000	0.5295175313949585
241	0x3fe3136900000000	0.5961194038391113
242	0xbf998d6fe0000000	-0.024953601881861687
243	0x3fe13621e0000000	0.5378579497337341
244	0x3fe2fa6fe0000000	0.593070924282074
245	0xbf96464100000000	-0.02175237238407135
246	0x3fe1c989a0000000	0.5558517575263977
247	0x3fe3a2d6a0000000	0.6136277318000793
248	0xbf9812be80000000	-0.023509003221988678
249	0x3fe115df40000000	0.5339199304580688
250	0x3fe3b17be0000000	0.6154155135154724
251	0xbf9cd5dca0000000	-0.028159568086266518
252	0x3fe13838e0000000	0.5381130576133728
253	0x3fe38e0aa0000000	0.6110890507698059
254	0xbf9909f000000000	-0.02445197105407715
255	0x3fe17791a0000000	0.5458458065986633
