files/processed_files/weight/4/weight_4_31.npy (npy, 2192 bytes, 1 tensors)

array f8 [258]
000000 00 00 00 20 09 0a e0 3f 00 00 00 00 fc a2 cd 3f
       0.5012250542640686 0.2315363883972168
000010 00 00 00 e0 f2 bb f3 bf 00 00 00 e0 df ff ef 3f
       -1.2333859205245972 0.9999846816062927
000020 00 00 00 40 af c4 e0 3f 00 00 00 40 d4 61 c8 3f
       0.5240093469619751 0.19048550724983215
000030 00 00 00 40 c9 cc f2 bf 00 00 00 00 d1 ff ef 3f
       -1.1749966144561768 0.9999775886535645
000040 00 00 00 00 ce 37 e1 3f 00 00 00 e0 e7 7d c8 3f
       0.5380620956420898 0.1913423389196396
000050 00 00 00 40 2d cd f2 bf 00 00 00 60 cf ff ef 3f
       -1.1750919818878174 0.9999768137931824
000060 00 00 00 40 b8 a2 e1 3f 00 00 00 e0 71 a9 c8 3f
       0.5511132478713989 0.1926710456609726
000070 00 00 00 a0 b8 cb f2 bf 00 00 00 c0 bd ff ef 3f
       -1.1747366189956665 0.999968409538269
000080 00 00 00 60 4b 8a de 3f 00 00 00 40 24 35 c8 3f
       0.4771908223628998 0.18912175297737122
000090 00 00 00 60 79 fe f2 bf 00 00 00 20 d1 ff ef 3f
       -1.1871274709701538 0.9999776482582092
0000a0 00 00 00 a0 59 5f dd 3f 00 00 00 e0 a9 5b c8 3f
       0.458944708108902 0.19029735028743744
0000b0 00 00 00 20 91 ff f2 bf 00 00 00 c0 d4 ff ef 3f
       -1.1873942613601685 0.9999793767929077
0000c0 00 00 00 00 cc 67 dc 3f 00 00 00 20 f4 8c c8 3f
       0.4438352584838867 0.19180156290531158
0000d0 00 00 00 40 3f 01 f3 bf 00 00 00 00 cd ff ef 3f
       -1.1878044605255127 0.9999756813049316
0000e0 00 00 00 c0 bb 5c e2 3f 00 00 00 20 3b 4f cc 3f
       0.5738199949264526 0.2211679369211197
0000f0 00 00 00 e0 73 cd e7 bf 00 00 00 e0 b7 ff ef 3f
       -0.7438296675682068 0.9999656081199646
000100 00 00 00 a0 d7 52 db 3f 00 00 00 e0 61 c9 cc 3f
       0.4269312918186188 0.22489570081233978
000110 00 00 00 a0 6d 14 e9 bf 00 00 00 c0 d3 ff ef 3f
       -0.783743679523468 0.9999788999557495
000120 00 00 00 c0 da cb e0 3f 00 00 00 80 f7 5a d2 3f
       0.5248845815658569 0.28680217266082764
000130 00 00 00 80 a0 1c f1 bf 00 00 00 60 ea ff ef 3f
       -1.0694890022277832 0.9999896883964539
000140 00 00 00 60 a7 33 de 3f 00 00 00 c0 53 46 d2 3f
       0.4719026982784271 0.28554242849349976
000150 00 00 00 a0 88 5b f1 bf 00 00 00 a0 ec ff ef 3f
       -1.084847092628479 0.9999907612800598
000160 00 00 00 c0 3f db e4 3f 00 00 00 60 c6 6b df 3f
       0.6517637968063354 0.4909530580043793
000170 00 00 00 00 90 7f da bf 00 00 00 a0 10 ff ef 3f
       -0.4140357971191406 0.9998858571052551
000180 00 00 00 20 a8 71 d5 3f 00 00 00 60 1c d5 df 3f
       0.33506205677986145 0.497382253408432
000190 00 00 00 c0 94 79 de bf 00 00 00 e0 7f fd ef 3f
       -0.47617071866989136 0.9996947646141052
0001a0 00 00 00 c0 d1 24 e7 3f 00 00 00 80 3f 74 ec 3f
       0.7232445478439331 0.8891904354095459
0001b0 00 00 00 c0 c3 7f e5 bf 00 00 00 c0 85 ab ef 3f
       -0.6718462705612183 0.9896878004074097
0001c0 00 00 00 40 dd ee ca 3f 00 00 00 a0 a9 1a ed 3f
       0.2104145586490631 0.9095047116279602
0001d0 00 00 00 20 e5 95 e7 bf 00 00 00 20 e9 cf ef 3f
       -0.7370477318763733 0.9941297173500061
0001e0 00 00 00 c0 ae 10 e4 3f 00 00 00 c0 b7 e6 e7 3f
       0.627036452293396 0.7469137907028198
0001f0 00 00 00 20 5a 63 f7 bf 00 00 00 00 3e d2 ef 3f
       -1.4617558717727661 0.9944143295288086
000200 00 00 00 00 3b d4 d7 3f 00 00 00 40 24 ca e9 3f
       0.372328519821167 0.8059254884719849
000210 00 00 00 a0 6c 4b f8 bf 00 00 00 e0 18 b0 ef 3f
       -1.5184141397476196 0.9902462363243103
000220 00 00 00 e0 13 30 e3 3f 00 00 00 40 5f f8 e7 3f
       0.5996188521385193 0.7490688562393188
000230 00 00 00 60 59 ed f9 bf 00 00 00 00 f8 9c ef 3f
       -1.6204465627670288 0.9879112243652344
000240 00 00 00 a0 24 e8 db 3f 00 00 00 c0 41 a0 e9 3f
       0.4360438883304596 0.8008126020431519
000250 00 00 00 a0 82 89 fa bf 00 00 00 80 05 19 ef 3f
       -1.6585718393325806 0.9718043804168701
000260 00 00 00 c0 3c 67 e2 3f 00 00 00 80 d0 b1 e6 3f
       0.5751022100448608 0.7092058658599854
000270 00 00 00 20 09 96 f9 bf 00 00 00 60 be a1 ef 3f
       -1.5991297960281372 0.9884940981864929
000280 00 00 00 40 bb 51 dd 3f 00 00 00 a0 3b 1c e8 3f
       0.45811349153518677 0.7534464001655579
000290 00 00 00 40 88 65 fa bf 00 00 00 60 62 1b ef 3f
       -1.6497881412506104 0.9720928072929382
0002a0 00 00 00 80 d5 60 e2 3f 00 00 00 c0 6f 68 e6 3f
       0.5743205547332764 0.7002485990524292
0002b0 00 00 00 40 65 78 f7 bf 00 00 00 00 c4 8b ef 3f
       -1.4668934345245361 0.9858112335205078
0002c0 00 00 00 40 b8 46 dc 3f 00 00 00 a0 51 df e7 3f
       0.44181638956069946 0.7460106015205383
0002d0 00 00 00 c0 a0 60 f8 bf 00 00 00 40 3e fb ee 3f
       -1.5235908031463623 0.9681693315505981
0002e0 00 00 00 c0 4a 2b e3 3f 00 00 00 20 a2 c0 f0 3f
       0.5990346670150757 1.0470296144485474
0002f0 00 00 00 c0 d8 4d 88 bf 00 00 00 c0 bd 68 db 3f
       -0.011867230758070946 0.4282678961753845
000300 00 00 00 40 02 50 d9 3f 00 00 00 40 c5 d0 f0 3f
       0.395508348941803 1.0509693622589111
000310 00 00 00 60 58 b2 8d 3f 00 00 00 a0 fa c5 dc 3f
       0.014500322751700878 0.44958367943763733
000320 00 00 00 60 4f b6 e3 3f 00 00 00 e0 02 87 f8 3f
       0.6160046458244324 1.5329617261886597
000330 00 00 00 60 f5 9e bb 3f 00 00 00 e0 af 22 7b 3f
       0.10789426416158676 0.0066248769871890545
000340 00 00 00 20 39 27 d9 3f 00 00 00 60 33 a7 f8 3f
       0.3930189907550812 1.5408204793930054
000350 00 00 00 40 7e b0 ce 3f 00 00 00 40 0d fb 73 3f
       0.2397611439228058 0.004878093488514423
000360 00 00 00 c0 a7 ab e3 3f 00 00 00 60 be e8 fe 3f
       0.6147040128707886 1.9318221807479858
000370 00 00 00 c0 5f e4 e5 3f 00 00 00 e0 5f 21 44 3f
       0.684127688407898 0.0006143301143310964
000380 00 00 00 40 73 f3 d9 3f 00 00 00 c0 16 07 ff 3f
       0.40548402070999146 1.9392306804656982
000390 00 00 00 40 ef 0e e9 3f 00 00 00 a0 dc 32 3a 3f
       0.7830730676651001 0.00039976011612452567
0003a0 00 00 00 00 6f d0 e3 3f 00 00 00 a0 77 e5 ff 3f
       0.6191935539245605 1.9935222864151
0003b0 00 00 00 60 13 bc e6 3f 00 00 00 00 f3 03 40 3f
       0.7104584574699402 0.0004887520335614681
0003c0 00 00 00 00 76 6f d9 3f 00 00 00 c0 ed 0c 00 40
       0.397428035736084 2.006312847137451
0003d0 00 00 00 00 52 65 ea 3f 00 00 00 60 6f 74 48 3f
       0.8248682022094727 0.0007463020156137645
0003e0 00 00 00 e0 7f f4 e2 3f 00 00 00 40 9f 9c 00 40
       0.5923461318016052 2.0764756202697754
0003f0 00 00 00 a0 5a 58 cd 3f 00 00 00 e0 c6 1e 41 3f
       0.22925885021686554 0.0005224677152000368
000400 00 00 00 00 4a 9b dc 3f 00 00 00 80 85 92 00 40
       0.4469780921936035 2.0715436935424805
000410 00 00 00 e0 65 f3 d4 3f 00 00 00 e0 51 0c 60 3f
       0.32735583186149597 0.001958999549970031
000420 00 00 00 20 b0 72 e4 3f 00 00 00 60 95 2a e8 3f
       0.6389999985694885 0.7551981806755066
000430 00 00 00 60 86 2d 82 3e 00 00 00 20 13 c9 e3 3f
       1.3543539978400077e-07 0.6182952523231506
000440 00 00 00 a0 dd b4 e6 3f 00 00 00 20 a3 44 85 bf
       0.7095783352851868 -0.010384821332991123
000450 00 00 00 e0 4e 91 e2 3f 00 00 00 00 f9 3a e6 3f
       0.5802378058433533 0.6946988105773926
000460 00 00 00 00 09 93 93 bf 00 00 00 20 61 a7 e1 3f
       -0.01911558210849762 0.5516820549964905
000470 00 00 00 c0 bb c5 e6 3f 00 00 00 e0 8a e0 99 bf
       0.7116373777389526 -0.025270624086260796
000480 00 00 00 a0 ca 2b e1 3f 00 00 00 20 99 a0 e7 3f
       0.5365956425666809 0.7383542656898499
000490 00 00 00 60 5d 33 a0 bf 00 00 00 80 c6 ab e2 3f
       -0.0316418819129467 0.5834686756134033
0004a0 00 00 00 60 f8 93 e6 3f 00 00 00 40 26 71 a0 bf
       0.7055627703666687 -0.03211326152086258
0004b0 00 00 00 20 14 8b e1 3f 00 00 00 a0 45 25 e7 3f
       0.5482273697853088 0.7232998013496399
0004c0 00 00 00 e0 98 fb a6 bf 00 00 00 60 73 df e0 3f
       -0.04488828405737877 0.5272766947746277
0004d0 00 00 00 60 10 b5 e7 3f 00 00 00 e0 68 c1 aa bf
       0.7408525347709656 -0.05225684866309166
0004e0 00 00 00 80 d5 70 e0 3f 00 00 00 20 94 48 e8 3f
       0.5137736797332764 0.7588596940040588
0004f0 00 00 00 80 44 b6 ac bf 00 00 00 a0 d9 bc e2 3f
       -0.05607809126377106 0.585552990436554
000500 00 00 00 40 ed d5 e7 3f 00 00 00 00 ec 01 a0 bf
       0.7448641061782837 -0.031264662742614746
000510 00 00 00 40 21 75 e1 3f 00 00 00 c0 8e 47 e8 3f
       0.5455480813980103 0.7587350606918335
000520 00 00 00 40 61 0c a6 bf 00 00 00 e0 11 af e0 3f
       -0.0430632010102272 0.5213708281517029
000530 00 00 00 a0 30 8c e8 3f 00 00 00 e0 13 d3 a7 bf
       0.7671130299568176 -0.046532269567251205
000540 00 00 00 a0 37 42 e0 3f 00 00 00 20 7f eb e8 3f
       0.508083164691925 0.7787471413612366
000550 00 00 00 00 e9 0f a9 bf 00 00 00 e0 9f cd e2 3f
       -0.04894950985908508 0.5876006484031677
000560 00 00 00 e0 2b e3 e8 3f 00 00 00 c0 3c 67 9e bf
       0.7777308821678162 -0.0296906940639019
000570 00 00 00 40 d8 69 e1 3f 00 00 00 c0 69 ea e8 3f
       0.5441704988479614 0.77861487865448
000580 00 00 00 80 83 81 a3 bf 00 00 00 60 e7 76 e1 3f
       -0.03809748589992523 0.5457646250724792
000590 00 00 00 00 01 5d e8 3f 00 00 00 40 4e d7 a1 bf
       0.7613530158996582 -0.03484577685594559
0005a0 00 00 00 e0 38 de e1 3f 00 00 00 a0 d0 1c e8 3f
       0.5583767294883728 0.7535174489021301
0005b0 00 00 00 20 77 10 a0 bf 00 00 00 80 76 d1 e2 3f
       -0.031375620514154434 0.5880692005157471
0005c0 00 00 00 60 ff a1 e9 3f 00 00 00 a0 f6 76 9d bf
       0.8010250926017761 -0.028774121776223183
0005d0 00 00 00 c0 62 af e1 3f 00 00 00 80 88 58 e9 3f
       0.5526593923568726 0.7920572757720947
0005e0 00 00 00 20 9a 41 a1 bf 00 00 00 e0 f4 aa e1 3f
       -0.033703628927469254 0.552118718624115
0005f0 00 00 00 c0 2c d1 e8 3f 00 00 00 20 2a 3d 9f bf
       0.7755340337753296 -0.030506761744618416
000600 00 00 00 e0 e7 ec e1 3f 00 00 00 c0 ab 8d e8 3f
       0.5601691603660583 0.7672938108444214
000610 00 00 00 60 48 2c 9c bf 00 00 00 20 b0 72 e4 3f
       -0.027512675151228905 0.6389999985694885
000620 00 00 00 60 95 2a e8 3f 00 00 00 60 86 2d 82 3e
       0.7551981806755066 1.3543539978400077e-07
000630 00 00 00 20 13 c9 e3 3f 00 00 00 a0 dd b4 e6 3f
       0.6182952523231506 0.7095783352851868
000640 00 00 00 20 a3 44 85 bf 00 00 00 e0 4e 91 e2 3f
       -0.010384821332991123 0.5802378058433533
000650 00 00 00 00 f9 3a e6 3f 00 00 00 00 09 93 93 bf
       0.6946988105773926 -0.01911558210849762
000660 00 00 00 20 61 a7 e1 3f 00 00 00 c0 bb c5 e6 3f
       0.5516820549964905 0.7116373777389526
000670 00 00 00 e0 8a e0 99 bf 00 00 00 a0 ca 2b e1 3f
       -0.025270624086260796 0.5365956425666809
000680 00 00 00 20 99 a0 e7 3f 00 00 00 60 5d 33 a0 bf
       0.7383542656898499 -0.0316418819129467
000690 00 00 00 80 c6 ab e2 3f 00 00 00 60 f8 93 e6 3f
       0.5834686756134033 0.7055627703666687
0006a0 00 00 00 40 26 71 a0 bf 00 00 00 20 14 8b e1 3f
       -0.03211326152086258 0.5482273697853088
0006b0 00 00 00 a0 45 25 e7 3f 00 00 00 e0 98 fb a6 bf
       0.7232998013496399 -0.04488828405737877
0006c0 00 00 00 60 73 df e0 3f 00 00 00 60 10 b5 e7 3f
       0.5272766947746277 0.7408525347709656
0006d0 00 00 00 e0 68 c1 aa bf 00 00 00 80 d5 70 e0 3f
       -0.05225684866309166 0.5137736797332764
0006e0 00 00 00 20 94 48 e8 3f 00 00 00 80 44 b6 ac bf
       0.7588596940040588 -0.05607809126377106
0006f0 00 00 00 a0 d9 bc e2 3f 00 00 00 40 ed d5 e7 3f
       0.585552990436554 0.7448641061782837
000700 00 00 00 00 ec 01 a0 bf 00 00 00 40 21 75 e1 3f
       -0.031264662742614746 0.5455480813980103
000710 00 00 00 c0 8e 47 e8 3f 00 00 00 40 61 0c a6 bf
       0.7587350606918335 -0.0430632010102272
000720 00 00 00 e0 11 af e0 3f 00 00 00 a0 30 8c e8 3f
       0.5213708281517029 0.7671130299568176
000730 00 00 00 e0 13 d3 a7 bf 00 00 00 a0 37 42 e0 3f
       -0.046532269567251205 0.508083164691925
000740 00 00 00 20 7f eb e8 3f 00 00 00 00 e9 0f a9 bf
       0.7787471413612366 -0.04894950985908508
000750 00 00 00 e0 9f cd e2 3f 00 00 00 e0 2b e3 e8 3f
       0.5876006484031677 0.7777308821678162
000760 00 00 00 c0 3c 67 9e bf 00 00 00 40 d8 69 e1 3f
       -0.0296906940639019 0.5441704988479614
000770 00 00 00 c0 69 ea e8 3f 00 00 00 80 83 81 a3 bf
       0.77861487865448 -0.03809748589992523
000780 00 00 00 60 e7 76 e1 3f 00 00 00 00 01 5d e8 3f
       0.5457646250724792 0.7613530158996582
000790 00 00 00 40 4e d7 a1 bf 00 00 00 e0 38 de e1 3f
       -0.03484577685594559 0.5583767294883728
0007a0 00 00 00 a0 d0 1c e8 3f 00 00 00 20 77 10 a0 bf
       0.7535174489021301 -0.031375620514154434
0007b0 00 00 00 80 76 d1 e2 3f 00 00 00 60 ff a1 e9 3f
       0.5880692005157471 0.8010250926017761
0007c0 00 00 00 a0 f6 76 9d bf 00 00 00 c0 62 af e1 3f
       -0.028774121776223183 0.5526593923568726
0007d0 00 00 00 80 88 58 e9 3f 00 00 00 20 9a 41 a1 bf
       0.7920572757720947 -0.033703628927469254
0007e0 00 00 00 e0 f4 aa e1 3f 00 00 00 c0 2c d1 e8 3f
       0.552118718624115 0.7755340337753296
0007f0 00 00 00 20 2a 3d 9f bf 00 00 00 e0 e7 ec e1 3f
       -0.030506761744618416 0.5601691603660583
