files/processed_files/weight/4/weight_4_8.npy (npy, 2192 bytes, 1 tensors)

array f8 [258]
0.5056275129318237 0.22888663411140442 -1.1689200401306152 0.9999809861183167 0.5263756513595581 0.18677417933940887 -1.1097713708877563 0.9999710321426392
0.5412606000900269 0.18769203126430511 -1.1099565029144287 0.999964714050293 0.5527902841567993 0.18889836966991425 -1.1095337867736816 0.9999597668647766
0.48113447427749634 0.1848260462284088 -1.119800329208374 0.9999734163284302 0.46232151985168457 0.18562768399715424 -1.1200004816055298 0.9999738931655884
0.44754499197006226 0.18789751827716827 -1.1203877925872803 0.9999739527702332 0.5737133026123047 0.21681798994541168 -0.6783745288848877 0.9999539256095886
0.4270341396331787 0.2217923104763031 -0.7173987627029419 0.9999769330024719 0.5282709002494812 0.28420355916023254 -1.004036784172058 0.9999886155128479
0.47322970628738403 0.2834642827510834 -1.0167698860168457 0.9999909996986389 0.6515915989875793 0.49046561121940613 -0.371371328830719 0.9997823238372803
0.3338242173194885 0.5017489194869995 -0.3892137408256531 0.9997251033782959 0.7204252481460571 0.890150785446167 -0.6696450114250183 0.981395423412323
0.19966022670269012 0.9105328917503357 -0.7414901256561279 0.9850513935089111 0.6424025297164917 0.7598230242729187 -1.5024025440216064 0.9536586403846741
0.3227795660495758 0.7017160058021545 -1.589580774307251 0.9467427730560303 0.6004499197006226 0.7543134093284607 -1.6599041223526 0.9408950209617615
0.38437122106552124 0.6860018372535706 -1.7322428226470947 0.9241085052490234 0.5777903199195862 0.7009761929512024 -1.6398019790649414 0.9479665160179138
0.39610224962234497 0.641071081161499 -1.7078039646148682 0.9325927495956421 0.5834410190582275 0.6926347017288208 -1.5074946880340576 0.9420850872993469
0.3866021931171417 0.6421317458152771 -1.5909680128097534 0.925759494304657 0.5976276993751526 1.0371057987213135 -0.014468786306679249 0.40804317593574524
0.3972797691822052 1.0472044944763184 0.016867363825440407 0.41849029064178467 0.613516628742218 1.5251078605651855 0.15094700455665588 0.02700483612716198
0.39435726404190063 1.532513976097107 0.2481909990310669 0.01791885308921337 0.6097759008407593 1.9157047271728516 0.7760801315307617 0.003794178832322359
0.40549030900001526 1.9217621088027954 0.826708972454071 0.0017839744687080383 0.6121586561203003 1.975253701210022 0.8099809885025024 0.0024586007930338383
0.3983008861541748 1.9854224920272827 0.871401309967041 0.0026323942001909018 0.5924540758132935 2.0552725791931152 0.3473280072212219 0.003228437853977084
0.44358187913894653 2.049994468688965 0.37809258699417114 0.003878360614180565 0.6416589617729187 0.7621362805366516 2.27556654408545e-07 0.6204550266265869
0.7075810432434082 -0.016366463154554367 0.5797417163848877 0.6897501945495605 -0.02685587666928768 0.5464103817939758 0.700395941734314 -0.0327829085290432
0.5287483930587769 0.7233071327209473 -0.037846438586711884 0.5918854475021362 0.7083945870399475 -0.04658595100045204 0.5491554737091064 0.7177065014839172
-0.06034782901406288 0.5239134430885315 0.727541446685791 -0.06602641195058823 0.502824604511261 0.7385860681533813 -0.06934909522533417 0.5895869731903076
0.7518081665039062 -0.04275549203157425 0.5400049686431885 0.7626898884773254 -0.05776004120707512 0.507673442363739 0.7711406946182251 -0.062081292271614075
0.4855988323688507 0.7830197811126709 -0.06561294198036194 0.5862002372741699 0.7865049242973328 -0.037549737840890884 0.5355344414710999 0.7770922183990479
-0.048649370670318604 0.5402684807777405 0.7537487149238586 -0.04543115943670273 0.5542520880699158 0.7425442934036255 -0.041756510734558105 0.5812172293663025
0.8094473481178284 -0.03340836986899376 0.5426229238510132 0.7904582619667053 -0.041272442787885666 0.5455617904663086 0.7707747220993042 -0.040037624537944794
0.5557829141616821 0.7610306143760681 -0.038314227014780045 0.6416589617729187 0.7621362805366516 2.27556654408545e-07 0.6204550266265869 0.7075810432434082
-0.016366463154554367 0.5797417163848877 0.6897501945495605 -0.02685587666928768 0.5464103817939758 0.700395941734314 -0.0327829085290432 0.5287483930587769
0.7233071327209473 -0.037846438586711884 0.5918854475021362 0.7083945870399475 -0.04658595100045204 0.5491554737091064 0.7177065014839172 -0.06034782901406288
0.5239134430885315 0.727541446685791 -0.06602641195058823 0.502824604511261 0.7385860681533813 -0.06934909522533417 0.5895869731903076 0.7518081665039062
-0.04275549203157425 0.5400049686431885 0.7626898884773254 -0.05776004120707512 0.507673442363739 0.7711406946182251 -0.062081292271614075 0.4855988323688507
0.7830197811126709 -0.06561294198036194 0.5862002372741699 0.7865049242973328 -0.037549737840890884 0.5355344414710999 0.7770922183990479 -0.048649370670318604
0.5402684807777405 0.7537487149238586 -0.04543115943670273 0.5542520880699158 0.7425442934036255 -0.041756510734558105 0.5812172293663025 0.8094473481178284
-0.03340836986899376 0.5426229238510132 0.7904582619667053 -0.041272442787885666 0.5455617904663086 0.7707747220993042 -0.040037624537944794 0.5557829141616821
00000000: 0000 00c0 192e e03f 0000 0040 284c cd3f
00000010: 0000 0080 e5b3 f2bf 0000 0020 d8ff ef3f
00000020: 0000 00c0 11d8 e03f 0000 0060 37e8 c73f
00000030: 0000 00a0 9fc1 f1bf 0000 0040 c3ff ef3f
00000040: 0000 00c0 0152 e13f 0000 00e0 4a06 c83f
00000050: 0000 00c0 61c2 f1bf 0000 0000 b6ff ef3f
00000060: 0000 0040 75b0 e13f 0000 0060 d22d c83f
00000070: 0000 0080 a6c0 f1bf 0000 00a0 abff ef3f
00000080: 0000 0040 e8ca de3f 0000 0040 61a8 c73f
00000090: 0000 00c0 b3ea f1bf 0000 0040 c8ff ef3f
000000a0: 0000 0000 ad96 dd3f 0000 00e0 a5c2 c73f
000000b0: 0000 00a0 85eb f1bf 0000 0040 c9ff ef3f
000000c0: 0000 00c0 93a4 dc3f 0000 00a0 060d c83f
000000d0: 0000 00c0 1bed f1bf 0000 0060 c9ff ef3f
000000e0: 0000 0000 dc5b e23f 0000 0020 b1c0 cb3f
000000f0: 0000 0080 3eb5 e5bf 0000 0060 9fff ef3f
00000100: 0000 0000 8754 db3f 0000 00c0 b063 cc3f
00000110: 0000 0040 eef4 e6bf 0000 00a0 cfff ef3f
00000120: 0000 0060 98e7 e03f 0000 0020 6430 d23f
00000130: 0000 00e0 8810 f0bf 0000 0020 e8ff ef3f
00000140: 0000 0040 6549 de3f 0000 0060 4724 d23f
00000150: 0000 0080 b044 f0bf 0000 0020 edff ef3f
00000160: 0000 00a0 d6d9 e43f 0000 00e0 c963 df3f
00000170: 0000 0040 8cc4 d7bf 0000 0080 37fe ef3f
00000180: 0000 0040 605d d53f 0000 00c0 530e e03f
00000190: 0000 00c0 e0e8 d8bf 0000 0080 bffd ef3f
000001a0: 0000 0040 b90d e73f 0000 0080 1d7c ec3f
000001b0: 0000 0060 bb6d e5bf 0000 0060 9767 ef3f
000001c0: 0000 0060 778e c93f 0000 00e0 1523 ed3f
000001d0: 0000 0080 49ba e7bf 0000 0080 8a85 ef3f
000001e0: 0000 00c0 8f8e e43f 0000 0060 7850 e83f
000001f0: 0000 0040 d709 f8bf 0000 0020 5f84 ee3f
00000200: 0000 00a0 6ba8 d43f 0000 0020 7574 e63f
00000210: 0000 0040 ec6e f9bf 0000 0080 b74b ee3f
00000220: 0000 00c0 e236 e33f 0000 00e0 5523 e83f
00000230: 0000 00a0 f78e fabf 0000 00e0 cf1b ee3f
00000240: 0000 00c0 8999 d83f 0000 0020 baf3 e53f
00000250: 0000 0040 44b7 fbbf 0000 0000 4c92 ed3f
00000260: 0000 0020 427d e23f 0000 00a0 656e e63f
00000270: 0000 0000 a13c fabf 0000 00e0 bd55 ee3f
00000280: 0000 0040 bd59 d93f 0000 0080 a783 e43f
00000290: 0000 0040 2a53 fbbf 0000 00c0 ccd7 ed3f
000002a0: 0000 0080 8cab e23f 0000 0040 102a e63f
000002b0: 0000 00c0 b21e f8bf 0000 00a0 8f25 ee3f
000002c0: 0000 0020 17be d83f 0000 00e0 578c e43f
000002d0: 0000 00e0 9a74 f9bf 0000 0060 d29f ed3f
000002e0: 0000 0020 c41f e33f 0000 0040 fc97 f03f
000002f0: 0000 00a0 cfa1 8dbf 0000 0020 611d da3f
00000300: 0000 0020 086d d93f 0000 0080 59c1 f03f
00000310: 0000 00a0 ad45 913f 0000 0080 8bc8 da3f
00000320: 0000 00a0 eda1 e33f 0000 0080 d766 f83f
00000330: 0000 0040 3b52 c33f 0000 00e0 27a7 9b3f
00000340: 0000 0040 263d d93f 0000 0060 2d85 f83f
00000350: 0000 0000 b9c4 cf3f 0000 00e0 5159 923f
00000360: 0000 00c0 4883 e33f 0000 0000 baa6 fe3f
00000370: 0000 0000 a6d5 e83f 0000 0040 f814 6f3f
00000380: 0000 00a0 8df3 d93f 0000 00a0 89bf fe3f
00000390: 0000 0060 6674 ea3f 0000 0000 883a 5d3f
000003a0: 0000 00c0 cd96 e33f 0000 00a0 a39a ff3f
000003b0: 0000 0040 5deb e93f 0000 0040 0f24 643f
000003c0: 0000 0000 c37d d93f 0000 0060 4ac4 ff3f
000003d0: 0000 0000 85e2 eb3f 0000 00e0 8790 653f
000003e0: 0000 0040 62f5 e23f 0000 00c0 3271 0040
000003f0: 0000 0040 9f3a d63f 0000 0060 8672 6a3f
00000400: 0000 0040 a563 dc3f 0000 0080 6366 0040
00000410: 0000 0040 ab32 d83f 0000 0000 83c5 6f3f
00000420: 0000 0060 7888 e43f 0000 00a0 6b63 e83f
00000430: 0000 0080 c98a 8e3e 0000 0080 c4da e33f
00000440: 0000 0000 81a4 e63f 0000 00c0 5ec2 90bf
00000450: 0000 0080 3e8d e23f 0000 0000 6f12 e63f
00000460: 0000 0060 1b80 9bbf 0000 00a0 317c e13f
00000470: 0000 00c0 a469 e63f 0000 00e0 ebc8 a0bf
00000480: 0000 00c0 81eb e03f 0000 0000 5525 e73f
00000490: 0000 00c0 9b60 a3bf 0000 00c0 b9f0 e23f
000004a0: 0000 0020 2bab e63f 0000 0020 1dda a7bf
000004b0: 0000 0080 ae92 e13f 0000 00a0 73f7 e63f
000004c0: 0000 0020 e9e5 aebf 0000 0020 e6c3 e03f
000004d0: 0000 0000 0548 e73f 0000 0060 1be7 b0bf
000004e0: 0000 00a0 2317 e03f 0000 0040 7fa2 e73f
000004f0: 0000 00c0 dcc0 b1bf 0000 0080 e5dd e23f
00000500: 0000 0000 d00e e83f 0000 0040 0ce4 a5bf
00000510: 0000 0080 b847 e13f 0000 00a0 f467 e83f
00000520: 0000 0060 b992 adbf 0000 0060 dc3e e03f
00000530: 0000 0040 2fad e83f 0000 0080 1ec9 afbf
00000540: 0000 0020 0d14 df3f 0000 0080 7f0e e93f
00000550: 0000 0080 02cc b0bf 0000 0000 27c2 e23f
00000560: 0000 0060 0c2b e93f 0000 0020 b839 a3bf
00000570: 0000 0020 1923 e13f 0000 0080 f0dd e83f
00000580: 0000 0000 92e8 a8bf 0000 0020 e149 e13f
00000590: 0000 00a0 b51e e83f 0000 00c0 c042 a7bf
000005a0: 0000 00e0 6ebc e13f 0000 0040 ecc2 e73f
000005b0: 0000 0000 1c61 a5bf 0000 00e0 5499 e23f
000005c0: 0000 0020 fee6 e93f 0000 00e0 e61a a1bf
000005d0: 0000 00c0 2a5d e13f 0000 0020 6f4b e93f
000005e0: 0000 0060 a921 a5bf 0000 0000 3e75 e13f
000005f0: 0000 00c0 2faa e83f 0000 00c0 cf7f a4bf
00000600: 0000 0040 f9c8 e13f 0000 00e0 5c5a e83f
00000610: 0000 0020 ec9d a3bf 0000 0060 7888 e43f
00000620: 0000 00a0 6b63 e83f 0000 0080 c98a 8e3e
00000630: 0000 0080 c4da e33f 0000 0000 81a4 e63f
00000640: 0000 00c0 5ec2 90bf 0000 0080 3e8d e23f
00000650: 0000 0000 6f12 e63f 0000 0060 1b80 9bbf
00000660: 0000 00a0 317c e13f 0000 00c0 a469 e63f
00000670: 0000 00e0 ebc8 a0bf 0000 00c0 81eb e03f
00000680: 0000 0000 5525 e73f 0000 00c0 9b60 a3bf
00000690: 0000 00c0 b9f0 e23f 0000 0020 2bab e63f
000006a0: 0000 0020 1dda a7bf 0000 0080 ae92 e13f
000006b0: 0000 00a0 73f7 e63f 0000 0020 e9e5 aebf
000006c0: 0000 0020 e6c3 e03f 0000 0000 0548 e73f
000006d0: 0000 0060 1be7 b0bf 0000 00a0 2317 e03f
000006e0: 0000 0040 7fa2 e73f 0000 00c0 dcc0 b1bf
000006f0: 0000 0080 e5dd e23f 0000 0000 d00e e83f
00000700: 0000 0040 0ce4 a5bf 0000 0080 b847 e13f
00000710: 0000 00a0 f467 e83f 0000 0060 b992 adbf
00000720: 0000 0060 dc3e e03f 0000 0040 2fad e83f
00000730: 0000 0080 1ec9 afbf 0000 0020 0d14 df3f
00000740: 0000 0080 7f0e e93f 0000 0080 02cc b0bf
00000750: 0000 0000 27c2 e23f 0000 0060 0c2b e93f
00000760: 0000 0020 b839 a3bf 0000 0020 1923 e13f
00000770: 0000 0080 f0dd e83f 0000 0000 92e8 a8bf
00000780: 0000 0020 e149 e13f 0000 00a0 b51e e83f
00000790: 0000 00c0 c042 a7bf 0000 00e0 6ebc e13f
000007a0: 0000 0040 ecc2 e73f 0000 0000 1c61 a5bf
000007b0: 0000 00e0 5499 e23f 0000 0020 fee6 e93f
000007c0: 0000 00e0 e61a a1bf 0000 00c0 2a5d e13f
000007d0: 0000 0020 6f4b e93f 0000 0060 a921 a5bf
000007e0: 0000 0000 3e75 e13f 0000 00c0 2faa e83f
000007f0: 0000 00c0 cf7f a4bf 0000 0040 f9c8 e13f
