files/processed_files/weight/4/weight_4_39.npy (npy, 2192 bytes, 1 tensors)

array f8 [258]
00000000: 0000 00c0 10c8 df3f 0000 00c0 b1f1 ce3f
00000010: 0000 00e0 a45a f4bf 0000 00e0 e6ff ef3f
00000020: 0000 0040 a9a8 e03f 0000 00a0 d773 c93f
00000030: 0000 00c0 2064 f3bf 0000 0020 dcff ef3f
00000040: 0000 00c0 6b12 e13f 0000 00e0 8aa9 c93f
00000050: 0000 0040 0565 f3bf 0000 0040 dbff ef3f
00000060: 0000 0000 6389 e13f 0000 0060 b2ec c93f
00000070: 0000 0060 b862 f3bf 0000 00c0 ceff ef3f
00000080: 0000 0000 b64b de3f 0000 00e0 d143 c93f
00000090: 0000 0020 b583 f3bf 0000 0060 dbff ef3f
000000a0: 0000 0040 5939 dd3f 0000 00c0 8c5e c93f
000000b0: 0000 0060 5984 f3bf 0000 00c0 ddff ef3f
000000c0: 0000 0060 e344 dc3f 0000 00e0 1aa9 c93f
000000d0: 0000 0080 c285 f3bf 0000 0060 d7ff ef3f
000000e0: 0000 00a0 4c45 e23f 0000 0020 b07a cd3f
000000f0: 0000 00c0 ec87 e8bf 0000 0060 caff ef3f
00000100: 0000 0040 0746 db3f 0000 0040 1a9c cd3f
00000110: 0000 00c0 89eb e9bf 0000 00e0 dbff ef3f
00000120: 0000 0080 99b5 e03f 0000 00a0 ca11 d33f
00000130: 0000 0040 26b2 f1bf 0000 0040 efff ef3f
00000140: 0000 00a0 0bfc dd3f 0000 0020 fcdd d23f
00000150: 0000 0060 b3e3 f1bf 0000 0080 f0ff ef3f
00000160: 0000 0080 dcd0 e43f 0000 0040 a090 df3f
00000170: 0000 0040 4a48 dcbf 0000 0020 47ff ef3f
00000180: 0000 0020 9660 d53f 0000 0060 8a18 e03f
00000190: 0000 0060 480b debf 0000 0000 5dfd ef3f
000001a0: 0000 0040 3524 e73f 0000 00c0 1073 ec3f
000001b0: 0000 0040 e27e e7bf 0000 00a0 77b3 ef3f
000001c0: 0000 0040 292b c83f 0000 0040 6403 ed3f
000001d0: 0000 00c0 fa72 eabf 0000 0020 3dd1 ef3f
000001e0: 0000 0080 9332 e43f 0000 0040 f938 e83f
000001f0: 0000 00a0 dbc6 f8bf 0000 0040 cbe4 ef3f
00000200: 0000 00c0 7c9a d63f 0000 00a0 e29e e73f
00000210: 0000 0040 18f9 f9bf 0000 0020 79b5 ef3f
00000220: 0000 0020 4a30 e33f 0000 00c0 691b e83f
00000230: 0000 00c0 5b52 fbbf 0000 00c0 75b1 ef3f
00000240: 0000 00c0 2f1f db3f 0000 00c0 77ca e73f
00000250: 0000 0040 0a43 fcbf 0000 0040 9df2 ee3f
00000260: 0000 00c0 fd84 e23f 0000 0080 50d7 e63f
00000270: 0000 00a0 0500 fbbf 0000 0040 8fb3 ef3f
00000280: 0000 00a0 a790 dc3f 0000 0020 004c e63f
00000290: 0000 00a0 8ee1 fbbf 0000 0080 70f1 ee3f
000002a0: 0000 00c0 3295 e23f 0000 00a0 6392 e63f
000002b0: 0000 00e0 d6dc f8bf 0000 00c0 569e ef3f
000002c0: 0000 00a0 5fac db3f 0000 0060 fa1f e63f
000002d0: 0000 0000 e4f6 f9bf 0000 0060 39ca ee3f
000002e0: 0000 0040 e214 e33f 0000 0040 1dbe f03f
000002f0: 0000 00c0 6254 98bf 0000 0060 8753 dd3f
00000300: 0000 0040 811e d93f 0000 00c0 f1ea f03f
00000310: 0000 0040 6af4 9a3f 0000 0060 8d6d dd3f
00000320: 0000 00a0 7481 e33f 0000 0060 bfa4 f83f
00000330: 0000 00a0 8f16 c03f 0000 00e0 1ebb 763f
00000340: 0000 0040 989d d83f 0000 00e0 e3bb f83f
00000350: 0000 0080 3f8a d23f 0000 0000 a037 703f
00000360: 0000 0040 857c e33f 0000 0020 5407 ff3f
00000370: 0000 00e0 8b65 e73f 0000 0060 fe1b 3f3f
00000380: 0000 0080 4263 d93f 0000 00c0 f80d ff3f
00000390: 0000 0000 d074 eb3f 0000 0060 d286 343f
000003a0: 0000 0000 84a0 e33f 0000 0000 f301 0040
000003b0: 0000 0000 e963 e83f 0000 0060 1c9d 3a3f
000003c0: 0000 00c0 4fea d83f 0000 0020 7f0c 0040
000003d0: 0000 0040 d8e4 ec3f 0000 00a0 48ce 443f
000003e0: 0000 0060 00b9 e23f 0000 0040 77ab 0040
000003f0: 0000 00e0 5f4f d23f 0000 00e0 8c5e 383f
00000400: 0000 0040 d413 dc3f 0000 0060 129c 0040
00000410: 0000 0000 39c2 d93f 0000 0080 4f57 5e3f
00000420: 0000 0020 f053 e43f 0000 0080 3700 e83f
00000430: 0000 0000 5caa 843e 0000 0020 bf9b e33f
00000440: 0000 0020 9b6a e63f 0000 0080 88f6 83bf
00000450: 0000 0060 1054 e23f 0000 00c0 8702 e63f
00000460: 0000 00a0 fb37 92bf 0000 0040 305a e13f
00000470: 0000 00e0 0198 e63f 0000 0000 9ce3 97bf
00000480: 0000 0040 5dd0 e03f 0000 00a0 8865 e73f
00000490: 0000 00a0 2d20 9dbf 0000 00c0 36bb e23f
000004a0: 0000 0040 3144 e63f 0000 00a0 a438 9fbf
000004b0: 0000 00c0 fab3 e13f 0000 0040 c298 e63f
000004c0: 0000 0080 4578 a5bf 0000 0060 c0fd e03f
000004d0: 0000 0020 67dc e63f 0000 0020 3e5a a8bf
000004e0: 0000 00c0 9e88 e03f 0000 00a0 2228 e73f
000004f0: 0000 0080 c4c9 a9bf 0000 00e0 5ab4 e23f
00000500: 0000 0020 2587 e73f 0000 00a0 56c9 9ebf
00000510: 0000 0040 1d4f e13f 0000 00c0 d0fe e73f
00000520: 0000 0040 be5c a5bf 0000 0080 c26f e03f
00000530: 0000 0080 d44a e83f 0000 0080 f5e7 a6bf
00000540: 0000 0080 73ff df3f 0000 00a0 bfb7 e83f
00000550: 0000 0080 33f8 a7bf 0000 00c0 98ac e23f
00000560: 0000 0080 5d9d e83f 0000 00c0 7966 9dbf
00000570: 0000 0060 9c2a e13f 0000 0040 b38f e83f
00000580: 0000 0040 bc41 a3bf 0000 0000 614f e13f
00000590: 0000 0040 ebef e73f 0000 0060 b937 a1bf
000005a0: 0000 0040 2dce e13f 0000 00a0 bdb3 e73f
000005b0: 0000 0000 14f9 9dbf 0000 00a0 7f9b e23f
000005c0: 0000 0060 dc69 e93f 0000 0040 948a 9cbf
000005d0: 0000 0060 aa5f e13f 0000 00c0 e709 e93f
000005e0: 0000 0080 0d09 a1bf 0000 0060 2b75 e13f
000005f0: 0000 0020 3380 e83f 0000 0060 bf70 9ebf
00000600: 0000 0040 56d6 e13f 0000 00e0 bf4e e83f
00000610: 0000 00a0 09e8 9abf 0000 0020 f053 e43f
00000620: 0000 0080 3700 e83f 0000 0000 5caa 843e
00000630: 0000 0020 bf9b e33f 0000 0020 9b6a e63f
00000640: 0000 0080 88f6 83bf 0000 0060 1054 e23f
00000650: 0000 00c0 8702 e63f 0000 00a0 fb37 92bf
00000660: 0000 0040 305a e13f 0000 00e0 0198 e63f
00000670: 0000 0000 9ce3 97bf 0000 0040 5dd0 e03f
00000680: 0000 00a0 8865 e73f 0000 00a0 2d20 9dbf
00000690: 0000 00c0 36bb e23f 0000 0040 3144 e63f
000006a0: 0000 00a0 a438 9fbf 0000 00c0 fab3 e13f
000006b0: 0000 0040 c298 e63f 0000 0080 4578 a5bf
000006c0: 0000 0060 c0fd e03f 0000 0020 67dc e63f
000006d0: 0000 0020 3e5a a8bf 0000 00c0 9e88 e03f
000006e0: 0000 00a0 2228 e73f 0000 0080 c4c9 a9bf
000006f0: 0000 00e0 5ab4 e23f 0000 0020 2587 e73f
00000700: 0000 00a0 56c9 9ebf 0000 0040 1d4f e13f
00000710: 0000 00c0 d0fe e73f 0000 0040 be5c a5bf
00000720: 0000 0080 c26f e03f 0000 0080 d44a e83f
00000730: 0000 0080 f5e7 a6bf 0000 0080 73ff df3f
00000740: 0000 00a0 bfb7 e83f 0000 0080 33f8 a7bf
00000750: 0000 00c0 98ac e23f 0000 0080 5d9d e83f
00000760: 0000 00c0 7966 9dbf 0000 0060 9c2a e13f
00000770: 0000 0040 b38f e83f 0000 0040 bc41 a3bf
00000780: 0000 0000 614f e13f 0000 0040 ebef e73f
00000790: 0000 0060 b937 a1bf 0000 0040 2dce e13f
000007a0: 0000 00a0 bdb3 e73f 0000 0000 14f9 9dbf
000007b0: 0000 00a0 7f9b e23f 0000 0060 dc69 e93f
000007c0: 0000 0040 948a 9cbf 0000 0060 aa5f e13f
000007d0: 0000 00c0 e709 e93f 0000 0080 0d09 a1bf
000007e0: 0000 0060 2b75 e13f 0000 0020 3380 e83f
000007f0: 0000 0060 bf70 9ebf 0000 0040 56d6 e13f
0.49658602476119995 0.24175092577934265 -1.2721298933029175 0.9999880194664001 0.5205885171890259 0.1988477259874344 -1.2119452953338623 0.9999828934669495
0.5334986448287964 0.20048652589321136 -1.2121632099151611 0.999982476234436 0.5480208396911621 0.20253591239452362 -1.2116016149520874 0.9999765157699585
0.4733710289001465 0.19738219678401947 -1.219655156135559 0.9999825358390808 0.4566252827644348 0.19819793105125427 -1.2198117971420288 0.9999836683273315
0.4417046010494232 0.20047317445278168 -1.220156192779541 0.999980628490448 0.5709593892097473 0.23030664026737213 -0.7665923833847046 0.9999744296073914
0.4261491894721985 0.2313263714313507 -0.8100022077560425 0.9999827742576599 0.5221679210662842 0.29796090722084045 -1.1059935092926025 0.9999920129776001
0.46850863099098206 0.294798880815506 -1.1180909872055054 0.9999926090240479 0.6504957675933838 0.493202269077301 -0.4419122338294983 0.9999118447303772
0.3340201675891876 0.5029956698417664 -0.4694386422634125 0.9996781349182129 0.7231699228286743 0.8890460729598999 -0.7342387437820435 0.99065762758255
0.18881717324256897 0.9066640138626099 -0.8265355825424194 0.9942918419837952 0.631173849105835 0.7569547891616821 -1.5485492944717407 0.9966789484024048
0.3531791567802429 0.7381451725959778 -1.6233141422271729 0.9909024834632874 0.5996447205543518 0.75334632396698 -1.7076070308685303 0.9904125928878784
0.4237784743309021 0.7434653043746948 -1.7663671970367432 0.9671159982681274 0.578734278678894 0.7137835025787354 -1.6875053644180298 0.9906688928604126
0.4463290274143219 0.6967774033546448 -1.7425676584243774 0.9669725894927979 0.5807126760482788 0.705369770526886 -1.5539158582687378 0.9880784749984741
0.4323958456516266 0.6914035677909851 -1.6227760314941406 0.9621855616569519 0.5962992906570435 1.0464146137237549 -0.023759406059980392 0.4582231938838959
0.3924868702888489 1.0573594570159912 0.026322994381189346 0.4598115384578705 0.6095526814460754 1.5402215719223022 0.12568850815296173 0.005549545865505934
0.3846188187599182 1.545871615409851 0.28968799114227295 0.003959298133850098 0.6089502573013306 1.9392892122268677 0.7311457991600037 0.000474691012641415
0.39668333530426025 1.940911054611206 0.8580093383789062 0.000313211785396561 0.6133441925048828 2.0009517669677734 0.7621960639953613 0.00040609305142425
0.38930124044418335 2.0061018466949463 0.9029351472854614 0.0006349424947984517 0.5850831866264343 2.083723545074463 0.28609463572502136 0.00037184657412581146
0.4387102723121643 2.076206922531128 0.4024794101715088 0.0018518711440265179 0.6352463364601135 0.7500264644622803 1.5396972230519168e-07 0.6127620339393616
0.7005134224891663 -0.009747568517923355 0.5727617144584656 0.6878088712692261 -0.017791682854294777 0.5422593355178833 0.7060555815696716 -0.023329198360443115
0.5254350900650024 0.7311442494392395 -0.02844306267797947 0.5853532552719116 0.6958242654800415 -0.030489513650536537 0.5532201528549194 0.706147313117981
-0.041933223605155945 0.5309755206108093 0.7144046425819397 -0.047563496977090836 0.5166772603988647 0.7236493229866028 -0.05036748945713043 0.5845159888267517
0.7352471947669983 -0.030064919963479042 0.5409075021743774 0.7498553991317749 -0.04172319918870926 0.5136425495147705 0.7591345310211182 -0.04473845660686493
0.49996650218963623 0.7724302411079407 -0.046815499663352966 0.5835689306259155 0.769209623336792 -0.0287112258374691 0.536451518535614 0.7675415277481079
-0.037610895931720734 0.5409398078918457 0.7480369806289673 -0.03362826630473137 0.5564180612564087 0.7406910061836243 -0.029270470142364502 0.5814817547798157
0.794172465801239 -0.027872387319803238 0.5429279208183289 0.7824591398239136 -0.033272191882133484 0.5455529093742371 0.7656493782997131 -0.029726972803473473
0.557414174079895 0.7596129775047302 -0.02627577818930149 0.6352463364601135 0.7500264644622803 1.5396972230519168e-07 0.6127620339393616 0.7005134224891663
-0.009747568517923355 0.5727617144584656 0.6878088712692261 -0.017791682854294777 0.5422593355178833 0.7060555815696716 -0.023329198360443115 0.5254350900650024
0.7311442494392395 -0.02844306267797947 0.5853532552719116 0.6958242654800415 -0.030489513650536537 0.5532201528549194 0.706147313117981 -0.041933223605155945
0.5309755206108093 0.7144046425819397 -0.047563496977090836 0.5166772603988647 0.7236493229866028 -0.05036748945713043 0.5845159888267517 0.7352471947669983
-0.030064919963479042 0.5409075021743774 0.7498553991317749 -0.04172319918870926 0.5136425495147705 0.7591345310211182 -0.04473845660686493 0.49996650218963623
0.7724302411079407 -0.046815499663352966 0.5835689306259155 0.769209623336792 -0.0287112258374691 0.536451518535614 0.7675415277481079 -0.037610895931720734
0.5409398078918457 0.7480369806289673 -0.03362826630473137 0.5564180612564087 0.7406910061836243 -0.029270470142364502 0.5814817547798157 0.794172465801239
-0.027872387319803238 0.5429279208183289 0.7824591398239136 -0.033272191882133484 0.5455529093742371 0.7656493782997131 -0.029726972803473473 0.557414174079895
