files/processed_files/weight/3/weight_3_46.npy (npy, 2192 bytes, 1 tensors)

array f8 [258]
0.5072319507598877 0.2848251461982727 -0.9046821594238281 0.9999908804893494 0.5326751470565796 0.23437073826789856 -0.8591850996017456 0.999980092048645
0.5480315685272217 0.23167572915554047 -0.8593006134033203 0.9999826550483704 0.5581193566322327 0.23008722066879272 -0.8587354421615601 0.9999767541885376
0.48479828238487244 0.23806604743003845 -0.8555256724357605 0.9999768733978271 0.46886199712753296 0.2378568798303604 -0.8554943799972534 0.999981701374054
0.4580899775028229 0.2384352684020996 -0.8557997941970825 0.9999765753746033 0.5857523679733276 0.24462153017520905 -0.485903799533844 0.9999808669090271
0.44195571541786194 0.25760993361473083 -0.45899614691734314 0.9999856352806091 0.5388048887252808 0.3287694752216339 -0.7601708173751831 0.9999940991401672
0.47744908928871155 0.33850643038749695 -0.7549835443496704 0.9999929666519165 0.6815617084503174 0.4796130061149597 -0.224635049700737 0.9999711513519287
0.3753202557563782 0.4951470196247101 -0.2100841999053955 0.9999446272850037 0.8023093938827515 0.8511399626731873 -0.6606358885765076 0.9970065951347351
0.2590023875236511 0.8921222686767578 -0.620895266532898 0.9962654709815979 0.6712592840194702 0.5970016717910767 -1.4515901803970337 0.9963249564170837
0.4011308550834656 0.6643356084823608 -1.4058586359024048 0.9949707984924316 0.6122618913650513 0.5731419324874878 -1.5901179313659668 0.9949631690979004
0.46059972047805786 0.6161604523658752 -1.5330426692962646 0.9918169379234314 0.6025056838989258 0.5362517833709717 -1.5250592231750488 0.9954372644424438
0.4676415026187897 0.5735810399055481 -1.4888803958892822 0.991953432559967 0.6102520823478699 0.5401989221572876 -1.439522385597229 0.9947892427444458
0.4602065682411194 0.582179605960846 -1.402118444442749 0.9911060333251953 0.634914219379425 1.038224697113037 -0.03400706499814987 0.3821302056312561
0.4448390007019043 1.0329781770706177 0.03655833378434181 0.395054429769516 0.6532670259475708 1.5299949645996094 0.04624374955892563 0.004223963711410761
0.4345989227294922 1.532891035079956 0.2064189612865448 0.0041579450480639935 0.6547144651412964 1.9274232387542725 0.5491262674331665 0.00048220716416835785
0.453892320394516 1.9378714561462402 0.6332484483718872 0.0005139475106261671 0.6591261625289917 1.9811514616012573 0.5696240067481995 0.0004028487019240856
0.44818297028541565 1.9985673427581787 0.6635733842849731 0.0009541071485728025 0.635832667350769 2.069005250930786 0.08640075474977493 0.000328827794874087
0.4878910481929779 2.0689854621887207 0.1577632576227188 0.0014135717647150159 0.6693694591522217 0.5957289934158325 1.0746909140380012e-07 0.6400797963142395
0.5446497201919556 0.0031600510701537132 0.5997193455696106 0.5274922251701355 0.00030870133196003735 0.5688632726669312 0.5380376577377319 -0.004195782821625471
0.5475347638130188 0.5538337826728821 -0.009789413772523403 0.5843616127967834 0.5144262313842773 -0.01041196845471859 0.5385199785232544 0.5218155384063721
-0.01936110481619835 0.510470449924469 0.5303813219070435 -0.025751477107405663 0.4890473186969757 0.5399086475372314 -0.02961883321404457 0.5820915102958679
0.5493502616882324 -0.017954541370272636 0.5321115851402283 0.5546002984046936 -0.025260500609874725 0.5028563737869263 0.5572338700294495 -0.029580149799585342
0.47886568307876587 0.5606720447540283 -0.032868850976228714 0.5848378539085388 0.5861406922340393 -0.024274978786706924 0.5357509255409241 0.5902900695800781
-0.030020182952284813 0.5353907942771912 0.5837399959564209 -0.026838863268494606 0.5416584014892578 0.5778884291648865 -0.02364601194858551 0.5903316736221313
0.6211948990821838 -0.030380073934793472 0.5512254238128662 0.6180820465087891 -0.033217910677194595 0.5445293188095093 0.6119022369384766 -0.027703678235411644
0.545336902141571 0.6074129343032837 -0.022523265331983566 0.6693694591522217 0.5957289934158325 1.0746909140380012e-07 0.6400797963142395 0.5446497201919556
0.0031600510701537132 0.5997193455696106 0.5274922251701355 0.00030870133196003735 0.5688632726669312 0.5380376577377319 -0.004195782821625471 0.5475347638130188
0.5538337826728821 -0.009789413772523403 0.5843616127967834 0.5144262313842773 -0.01041196845471859 0.5385199785232544 0.5218155384063721 -0.01936110481619835
0.510470449924469 0.5303813219070435 -0.025751477107405663 0.4890473186969757 0.5399086475372314 -0.02961883321404457 0.5820915102958679 0.5493502616882324
-0.017954541370272636 0.5321115851402283 0.5546002984046936 -0.025260500609874725 0.5028563737869263 0.5572338700294495 -0.029580149799585342 0.47886568307876587
0.5606720447540283 -0.032868850976228714 0.5848378539085388 0.5861406922340393 -0.024274978786706924 0.5357509255409241 0.5902900695800781 -0.030020182952284813
0.5353907942771912 0.5837399959564209 -0.026838863268494606 0.5416584014892578 0.5778884291648865 -0.02364601194858551 0.5903316736221313 0.6211948990821838
-0.030380073934793472 0.5512254238128662 0.6180820465087891 -0.033217910677194595 0.5445293188095093 0.6119022369384766 -0.027703678235411644 0.545336902141571
00000000: 0000 0080 3e3b e03f 0000 0040 933a d23f
00000010: 0000 0000 28f3 ecbf 0000 00e0 ecff ef3f
00000020: 0000 00c0 ac0b e13f 0000 0040 dcff cd3f
00000030: 0000 00c0 717e ebbf 0000 0040 d6ff ef3f
00000040: 0000 0080 7989 e13f 0000 00e0 8ca7 cd3f
00000050: 0000 0000 647f ebbf 0000 00a0 dbff ef3f
00000060: 0000 0020 1ddc e13f 0000 0080 7f73 cd3f
00000070: 0000 00c0 c27a ebbf 0000 0040 cfff ef3f
00000080: 0000 0060 ef06 df3f 0000 00c0 f278 ce3f
00000090: 0000 0060 7760 ebbf 0000 0080 cfff ef3f
000000a0: 0000 00c0 d501 de3f 0000 0020 1872 ce3f
000000b0: 0000 00c0 3560 ebbf 0000 00a0 d9ff ef3f
000000c0: 0000 00a0 5851 dd3f 0000 0000 0c85 ce3f
000000d0: 0000 0040 b662 ebbf 0000 00e0 ceff ef3f
000000e0: 0000 00c0 7bbe e23f 0000 0020 c24f cf3f
000000f0: 0000 0040 0c19 dfbf 0000 00e0 d7ff ef3f
00000100: 0000 00a0 0049 dc3f 0000 0060 ae7c d03f
00000110: 0000 0060 3160 ddbf 0000 00e0 e1ff ef3f
00000120: 0000 00c0 e33d e13f 0000 0020 8f0a d53f
00000130: 0000 00c0 5153 e8bf 0000 00a0 f3ff ef3f
00000140: 0000 00a0 868e de3f 0000 00e0 16aa d53f
00000150: 0000 0040 d328 e8bf 0000 0040 f1ff ef3f
00000160: 0000 0080 5acf e53f 0000 00c0 fab1 de3f
00000170: 0000 0060 d7c0 ccbf 0000 0080 c3ff ef3f
00000180: 0000 0040 3f05 d83f 0000 0020 7db0 df3f
00000190: 0000 0000 0ae4 cabf 0000 00e0 8bff ef3f
000001a0: 0000 00c0 84ac e93f 0000 00e0 893c eb3f
000001b0: 0000 00e0 ed23 e5bf 0000 0060 7ae7 ef3f
000001c0: 0000 00c0 7e93 d03f 0000 0000 448c ec3f
000001d0: 0000 00c0 5fde e3bf 0000 0020 68e1 ef3f
000001e0: 0000 00c0 f47a e53f 0000 0040 a31a e33f
000001f0: 0000 00a0 b639 f7bf 0000 00e0 e4e1 ef3f
00000200: 0000 00c0 20ac d93f 0000 00c0 3c42 e53f
00000210: 0000 00a0 657e f6bf 0000 0000 cdd6 ef3f
00000220: 0000 0040 a697 e33f 0000 00c0 2d57 e23f
00000230: 0000 0080 1f71 f9bf 0000 0000 bdd6 ef3f
00000240: 0000 0040 777a dd3f 0000 0020 96b7 e33f
00000250: 0000 00c0 5787 f8bf 0000 00e0 f6bc ef3f
00000260: 0000 0000 ba47 e33f 0000 0080 f928 e13f
00000270: 0000 0080 a466 f8bf 0000 0040 9fda ef3f
00000280: 0000 00a0 d6ed dd3f 0000 00a0 c65a e23f
00000290: 0000 0040 74d2 f7bf 0000 0020 15be ef3f
000002a0: 0000 0060 2f87 e33f 0000 0040 4f49 e13f
000002b0: 0000 00a0 4808 f7bf 0000 0040 50d5 ef3f
000002c0: 0000 0040 0674 dd3f 0000 0020 37a1 e23f
000002d0: 0000 00c0 136f f6bf 0000 0000 24b7 ef3f
000002e0: 0000 00a0 3751 e43f 0000 0080 919c f03f
000002f0: 0000 00c0 5f69 a1bf 0000 0040 d274 d83f
00000300: 0000 0000 3e78 dc3f 0000 0020 1487 f03f
00000310: 0000 0020 c6b7 a23f 0000 0060 9248 d93f
00000320: 0000 0040 90e7 e43f 0000 0000 dc7a f83f
00000330: 0000 00c0 42ad a73f 0000 00a0 254d 713f
00000340: 0000 0000 78d0 db3f 0000 00c0 b886 f83f
00000350: 0000 00c0 ef6b ca3f 0000 00e0 eb07 713f
00000360: 0000 00c0 6bf3 e43f 0000 00c0 b9d6 fe3f
00000370: 0000 0040 7192 e13f 0000 0000 189a 3f3f
00000380: 0000 0060 920c dd3f 0000 0080 8501 ff3f
00000390: 0000 0040 9243 e43f 0000 00e0 4dd7 403f
000003a0: 0000 00c0 8f17 e53f 0000 00e0 cbb2 ff3f
000003b0: 0000 0020 5c3a e23f 0000 0000 ae66 3a3f
000003c0: 0000 00a0 07af dc3f 0000 00c0 21fa ff3f
000003d0: 0000 0040 fe3b e53f 0000 0080 a143 4f3f
000003e0: 0000 00c0 bd58 e43f 0000 00a0 528d 0040
000003f0: 0000 0020 5c1e b63f 0000 00a0 d08c 353f
00000400: 0000 0060 9b39 df3f 0000 0040 488d 0040
00000410: 0000 0020 9631 c43f 0000 0020 f328 573f
00000420: 0000 0080 796b e53f 0000 0040 3610 e33f
00000430: 0000 0040 38d9 7c3e 0000 00a0 887b e43f
00000440: 0000 0040 c56d e13f 0000 0080 1be3 693f
00000450: 0000 00a0 e630 e33f 0000 0060 37e1 e03f
00000460: 0000 0020 263b 343f 0000 00c0 2034 e23f
00000470: 0000 00c0 9a37 e13f 0000 00e0 982f 71bf
00000480: 0000 00a0 6785 e13f 0000 00a0 01b9 e13f
00000490: 0000 00e0 780c 84bf 0000 0020 17b3 e23f
000004a0: 0000 0000 2e76 e03f 0000 00c0 de52 85bf
000004b0: 0000 0040 8e3b e13f 0000 0080 b6b2 e03f
000004c0: 0000 00c0 65d3 93bf 0000 0020 c655 e03f
000004d0: 0000 0040 e2f8 e03f 0000 0060 985e 9abf
000004e0: 0000 0020 8d4c df3f 0000 0080 ee46 e13f
000004f0: 0000 0040 6654 9ebf 0000 0060 7ea0 e23f
00000500: 0000 0000 4794 e13f 0000 00e0 ac62 92bf
00000510: 0000 00e0 0e07 e13f 0000 0020 49bf e13f
00000520: 0000 0080 e3dd 99bf 0000 0040 6617 e03f
00000530: 0000 0020 dcd4 e13f 0000 0040 424a 9ebf
00000540: 0000 0040 bca5 de3f 0000 0080 06f1 e13f
00000550: 0000 00a0 2fd4 a0bf 0000 00e0 fdb6 e23f
00000560: 0000 0020 aac1 e23f 0000 0040 8adb 98bf
00000570: 0000 0020 df24 e13f 0000 0000 a8e3 e23f
00000580: 0000 0060 9cbd 9ebf 0000 00e0 eb21 e13f
00000590: 0000 0080 ffad e23f 0000 00a0 a57b 9bbf
000005a0: 0000 0000 4455 e13f 0000 00e0 0f7e e23f
000005b0: 0000 0000 a936 98bf 0000 0040 ffe3 e23f
000005c0: 0000 0020 d4e0 e33f 0000 0040 f41b 9fbf
000005d0: 0000 0080 a3a3 e13f 0000 0000 54c7 e33f
000005e0: 0000 0020 f001 a1bf 0000 00c0 c86c e13f
000005f0: 0000 0000 b494 e33f 0000 0060 5a5e 9cbf
00000600: 0000 0060 6673 e13f 0000 0040 ed6f e33f
00000610: 0000 00c0 5610 97bf 0000 0080 796b e53f
00000620: 0000 0040 3610 e33f 0000 0040 38d9 7c3e
00000630: 0000 00a0 887b e43f 0000 0040 c56d e13f
00000640: 0000 0080 1be3 693f 0000 00a0 e630 e33f
00000650: 0000 0060 37e1 e03f 0000 0020 263b 343f
00000660: 0000 00c0 2034 e23f 0000 00c0 9a37 e13f
00000670: 0000 00e0 982f 71bf 0000 00a0 6785 e13f
00000680: 0000 00a0 01b9 e13f 0000 00e0 780c 84bf
00000690: 0000 0020 17b3 e23f 0000 0000 2e76 e03f
000006a0: 0000 00c0 de52 85bf 0000 0040 8e3b e13f
000006b0: 0000 0080 b6b2 e03f 0000 00c0 65d3 93bf
000006c0: 0000 0020 c655 e03f 0000 0040 e2f8 e03f
000006d0: 0000 0060 985e 9abf 0000 0020 8d4c df3f
000006e0: 0000 0080 ee46 e13f 0000 0040 6654 9ebf
000006f0: 0000 0060 7ea0 e23f 0000 0000 4794 e13f
00000700: 0000 00e0 ac62 92bf 0000 00e0 0e07 e13f
00000710: 0000 0020 49bf e13f 0000 0080 e3dd 99bf
00000720: 0000 0040 6617 e03f 0000 0020 dcd4 e13f
00000730: 0000 0040 424a 9ebf 0000 0040 bca5 de3f
00000740: 0000 0080 06f1 e13f 0000 00a0 2fd4 a0bf
00000750: 0000 00e0 fdb6 e23f 0000 0020 aac1 e23f
00000760: 0000 0040 8adb 98bf 0000 0020 df24 e13f
00000770: 0000 0000 a8e3 e23f 0000 0060 9cbd 9ebf
00000780: 0000 00e0 eb21 e13f 0000 0080 ffad e23f
00000790: 0000 00a0 a57b 9bbf 0000 0000 4455 e13f
000007a0: 0000 00e0 0f7e e23f 0000 0000 a936 98bf
000007b0: 0000 0040 ffe3 e23f 0000 0020 d4e0 e33f
000007c0: 0000 0040 f41b 9fbf 0000 0080 a3a3 e13f
000007d0: 0000 0000 54c7 e33f 0000 0020 f001 a1bf
000007e0: 0000 00c0 c86c e13f 0000 0000 b494 e33f
000007f0: 0000 0060 5a5e 9cbf 0000 0060 6673 e13f
