files/processed_files/weight/3/weight_3_15.npy (npy, 2192 bytes, 1 tensors)

array f8 [258]
0.5082921385765076 0.26545217633247375 -0.859325110912323 0.9999134540557861 0.53355872631073 0.21966798603534698 -0.8000133633613586 0.9998594522476196
0.547898530960083 0.21801632642745972 -0.8004451990127563 0.9998397827148438 0.5582382082939148 0.2167608141899109 -0.8002190589904785 0.9998378157615662
0.48705101013183594 0.22374342381954193 -0.801257312297821 0.9998605251312256 0.4727897644042969 0.22426535189151764 -0.8011445999145508 0.9998622536659241
0.45973023772239685 0.22501422464847565 -0.8016284704208374 0.9998791217803955 0.5857338309288025 0.2374100536108017 -0.3985975384712219 0.9997780323028564
0.4448663592338562 0.25115489959716797 -0.3969026207923889 0.9998591542243958 0.5432323217391968 0.3093487024307251 -0.7085789442062378 0.9999549388885498
0.48267316818237305 0.3172832131385803 -0.7110146284103394 0.9999616742134094 0.6820698976516724 0.48872700333595276 -0.20852550864219666 0.9996451735496521
0.3782358467578888 0.5027440786361694 -0.1725916564464569 0.999661922454834 0.7943001985549927 0.8807960152626038 -0.6620516777038574 0.9664981365203857
0.22609634697437286 0.8360709547996521 -0.6464786529541016 0.9657520651817322 0.6399374008178711 0.6410795450210571 -1.4461150169372559 0.9068251848220825
0.36864739656448364 0.5441765189170837 -1.3968449831008911 0.8856949806213379 0.5785373449325562 0.6208258271217346 -1.5965473651885986 0.8850468397140503
0.4292287230491638 0.5015549659729004 -1.5337883234024048 0.8596847653388977 0.5687293410301208 0.5822359323501587 -1.5344880819320679 0.8995044231414795
0.4384005069732666 0.45610636472702026 -1.4606382846832275 0.8756116628646851 0.5765334367752075 0.5842358469963074 -1.4359437227249146 0.890553891658783
0.4334631860256195 0.47221076488494873 -1.3874706029891968 0.8691048622131348 0.631218671798706 1.0387694835662842 -0.02595105767250061 0.4190235435962677
0.4291440546512604 1.0306767225265503 0.028427045792341232 0.4030322730541229 0.6419668793678284 1.5365723371505737 0.04877572879195213 0.0627894178032875
0.41129598021507263 1.5383247137069702 0.14318597316741943 0.042149268090724945 0.6380444765090942 1.9409657716751099 0.5839371681213379 0.008220089599490166
0.42843717336654663 1.9477349519729614 0.5590544939041138 0.008701775223016739 0.6438435912132263 1.9949719905853271 0.6072981953620911 0.004792592488229275
0.42298221588134766 2.0064921379089355 0.5877642035484314 0.010819142684340477 0.6166419386863708 2.0813231468200684 0.115921750664711 0.004017835948616266
0.4636530876159668 2.081284761428833 0.06122560426592827 0.008027256466448307 0.6546196937561035 0.6353450417518616 -1.4171845919008774e-07 0.6299169063568115
0.5914385914802551 -0.004511372186243534 0.5794286131858826 0.5740458369255066 -0.012607289478182793 0.5376319289207458 0.5845270752906799 -0.020412666723132133
0.5113672018051147 0.6070758700370789 -0.02878439985215664 0.5788725018501282 0.5540038347244263 -0.027501214295625687 0.5230180621147156 0.5697779655456543
-0.04382842034101486 0.5227227210998535 0.5891973376274109 -0.05330842360854149 0.5334618091583252 0.5991984605789185 -0.05758467689156532 0.5814539194107056
0.5857671499252319 -0.03293133154511452 0.5212766528129578 0.5939292311668396 -0.04395584017038345 0.5055262446403503 0.6065405011177063 -0.047732967883348465
0.5018110871315002 0.6190354824066162 -0.051232561469078064 0.5871795415878296 0.62364262342453 -0.03754088282585144 0.5363634824752808 0.6393238306045532
-0.048446234315633774 0.5479207634925842 0.6405867338180542 -0.044488575309515 0.5682307481765747 0.6400212645530701 -0.040966469794511795 0.5923049449920654
0.664121150970459 -0.04190142825245857 0.5469970107078552 0.6716361045837402 -0.050366222858428955 0.5557923316955566 0.6714926958084106 -0.044232238084077835
0.5733842849731445 0.6706622838973999 -0.03879523649811745 0.6546196937561035 0.6353450417518616 -1.4171845919008774e-07 0.6299169063568115 0.5914385914802551
-0.004511372186243534 0.5794286131858826 0.5740458369255066 -0.012607289478182793 0.5376319289207458 0.5845270752906799 -0.020412666723132133 0.5113672018051147
0.6070758700370789 -0.02878439985215664 0.5788725018501282 0.5540038347244263 -0.027501214295625687 0.5230180621147156 0.5697779655456543 -0.04382842034101486
0.5227227210998535 0.5891973376274109 -0.05330842360854149 0.5334618091583252 0.5991984605789185 -0.05758467689156532 0.5814539194107056 0.5857671499252319
-0.03293133154511452 0.5212766528129578 0.5939292311668396 -0.04395584017038345 0.5055262446403503 0.6065405011177063 -0.047732967883348465 0.5018110871315002
0.6190354824066162 -0.051232561469078064 0.5871795415878296 0.62364262342453 -0.03754088282585144 0.5363634824752808 0.6393238306045532 -0.048446234315633774
0.5479207634925842 0.6405867338180542 -0.044488575309515 0.5682307481765747 0.6400212645530701 -0.040966469794511795 0.5923049449920654 0.664121150970459
-0.04190142825245857 0.5469970107078552 0.6716361045837402 -0.050366222858428955 0.5557923316955566 0.6714926958084106 -0.044232238084077835 0.5733842849731445
00000000: 0000 00e0 ed43 e03f 0000 0020 2bfd d03f
00000010: 0000 0060 977f ebbf 0000 0080 4aff ef3f
00000020: 0000 00c0 e912 e13f 0000 00a0 141e cc3f
00000030: 0000 00a0 b599 e9bf 0000 0040 d9fe ef3f
00000040: 0000 0080 6288 e13f 0000 0080 f5e7 cb3f
00000050: 0000 0040 3f9d e9bf 0000 0000 b0fe ef3f
00000060: 0000 0060 16dd e13f 0000 0080 d1be cb3f
00000070: 0000 0000 659b e9bf 0000 00e0 abfe ef3f
00000080: 0000 0000 d82b df3f 0000 00e0 9fa3 cc3f
00000090: 0000 0060 e6a3 e9bf 0000 0080 dbfe ef3f
000000a0: 0000 0000 3042 de3f 0000 0020 bab4 cc3f
000000b0: 0000 0000 faa2 e9bf 0000 0020 dffe ef3f
000000c0: 0000 0060 386c dd3f 0000 0020 44cd cc3f
000000d0: 0000 00c0 f0a6 e9bf 0000 0080 02ff ef3f
000000e0: 0000 00e0 54be e23f 0000 00e0 7363 ce3f
000000f0: 0000 0040 9f82 d9bf 0000 0080 2efe ef3f
00000100: 0000 00c0 b078 dc3f 0000 0000 ec12 d03f
00000110: 0000 0040 da66 d9bf 0000 00a0 d8fe ef3f
00000120: 0000 00c0 2862 e13f 0000 0080 5ecc d33f
00000130: 0000 00c0 adac e6bf 0000 0080 a1ff ef3f
00000140: 0000 0000 1ee4 de3f 0000 0040 5e4e d43f
00000150: 0000 00c0 a1c0 e6bf 0000 00a0 afff ef3f
00000160: 0000 0040 84d3 e53f 0000 00a0 4d47 df3f
00000170: 0000 00c0 f6b0 cabf 0000 00e0 17fd ef3f
00000180: 0000 0020 0435 d83f 0000 00c0 7a16 e03f
00000190: 0000 00c0 7b17 c6bf 0000 0000 3bfd ef3f
000001a0: 0000 0040 e86a e93f 0000 0020 7b2f ec3f
000001b0: 0000 0000 872f e5bf 0000 0080 8ded ee3f
000001c0: 0000 00a0 b9f0 cc3f 0000 00e0 17c1 ea3f
000001d0: 0000 0000 f4af e4bf 0000 00e0 70e7 ee3f
000001e0: 0000 0000 5e7a e43f 0000 0040 b983 e43f
000001f0: 0000 0080 4923 f7bf 0000 0040 b604 ed3f
00000200: 0000 0040 eb97 d73f 0000 00e0 e469 e13f
00000210: 0000 0020 7a59 f6bf 0000 0000 9d57 ec3f
00000220: 0000 00c0 6083 e23f 0000 0020 cedd e33f
00000230: 0000 0040 758b f9bf 0000 00c0 4d52 ec3f
00000240: 0000 00c0 7b78 db3f 0000 0000 bd0c e03f
00000250: 0000 00a0 658a f8bf 0000 00a0 8982 eb3f
00000260: 0000 00e0 0733 e23f 0000 0040 ada1 e23f
00000270: 0000 0060 438d f8bf 0000 0080 bdc8 ec3f
00000280: 0000 0000 c10e dc3f 0000 00c0 d830 dd3f
00000290: 0000 0040 c65e f7bf 0000 00c0 0205 ec3f
000002a0: 0000 0040 f672 e23f 0000 0060 0fb2 e23f
000002b0: 0000 0020 a0f9 f6bf 0000 00e0 6a7f ec3f
000002c0: 0000 0060 dcbd db3f 0000 0080 b338 de3f
000002d0: 0000 0060 1433 f6bf 0000 0000 b5cf eb3f
000002e0: 0000 0080 f132 e43f 0000 00c0 cc9e f03f
000002f0: 0000 0000 ea92 9abf 0000 0020 48d1 da3f
00000300: 0000 00a0 1877 db3f 0000 00e0 a67d f03f
00000310: 0000 00c0 fa1b 9d3f 0000 00e0 47cb d93f
00000320: 0000 0020 fe8a e43f 0000 00e0 cc95 f83f
00000330: 0000 00e0 21f9 a83f 0000 00a0 f712 b03f
00000340: 0000 0060 ac52 da3f 0000 0060 fa9c f83f
00000350: 0000 0000 eb53 c23f 0000 00c0 9694 a53f
00000360: 0000 0040 dc6a e43f 0000 0020 320e ff3f
00000370: 0000 0000 9daf e23f 0000 00c0 b1d5 803f
00000380: 0000 00c0 836b db3f 0000 0020 ec29 ff3f
00000390: 0000 0040 c6e3 e13f 0000 0080 3cd2 813f
000003a0: 0000 00e0 5d9a e43f 0000 00c0 67eb ff3f
000003b0: 0000 00a0 fc6e e33f 0000 00c0 65a1 733f
000003c0: 0000 0000 2412 db3f 0000 00c0 4b0d 0040
000003d0: 0000 00e0 f6ce e23f 0000 00c0 5828 863f
000003e0: 0000 00e0 87bb e33f 0000 00c0 8ca6 0040
000003f0: 0000 0040 0cad bd3f 0000 00a0 0175 703f
00000400: 0000 0000 7eac dd3f 0000 00a0 78a6 0040
00000410: 0000 0060 f658 af3f 0000 0020 9870 803f
00000420: 0000 0000 a5f2 e43f 0000 0020 bf54 e43f
00000430: 0000 00c0 6805 83be 0000 0080 4728 e43f
00000440: 0000 00a0 10ed e23f 0000 0040 847a 72bf
00000450: 0000 00e0 ad8a e23f 0000 0060 955e e23f
00000460: 0000 00c0 d9d1 89bf 0000 00e0 4734 e13f
00000470: 0000 0020 72b4 e23f 0000 00e0 0ee7 94bf
00000480: 0000 00c0 1e5d e03f 0000 0060 2a6d e33f
00000490: 0000 0060 a879 9dbf 0000 00a0 1f86 e23f
000004a0: 0000 0040 66ba e13f 0000 0040 4729 9cbf
000004b0: 0000 0060 90bc e03f 0000 0000 9f3b e23f
000004c0: 0000 00c0 ad70 a6bf 0000 0000 25ba e03f
000004d0: 0000 0060 b4da e23f 0000 00e0 3d4b abbf
000004e0: 0000 0080 1e12 e13f 0000 0040 a22c e33f
000004f0: 0000 0020 bd7b adbf 0000 0040 459b e23f
00000500: 0000 00c0 9abe e23f 0000 0020 60dc a0bf
00000510: 0000 0060 4cae e03f 0000 00e0 7701 e33f
00000520: 0000 0040 6181 a6bf 0000 0060 452d e03f
00000530: 0000 00a0 c768 e33f 0000 00a0 7470 a8bf
00000540: 0000 0020 d60e e03f 0000 0080 23cf e33f
00000550: 0000 0080 273b aabf 0000 00c0 2cca e23f
00000560: 0000 0060 e1f4 e33f 0000 0000 8f38 a3bf
00000570: 0000 00c0 e329 e13f 0000 0040 5775 e43f
00000580: 0000 00e0 f1cd a8bf 0000 0020 9188 e13f
00000590: 0000 00c0 af7f e43f 0000 00e0 34c7 a6bf
000005a0: 0000 0040 f22e e23f 0000 00e0 0d7b e43f
000005b0: 0000 00a0 8ef9 a4bf 0000 0080 29f4 e23f
000005c0: 0000 0000 7b40 e53f 0000 00a0 1a74 a5bf
000005d0: 0000 00e0 ff80 e13f 0000 0000 0b7e e53f
000005e0: 0000 0000 9ac9 a9bf 0000 0000 0dc9 e13f
000005f0: 0000 0040 de7c e53f 0000 00a0 9ba5 a6bf
00000600: 0000 0000 2a59 e23f 0000 00c0 1076 e53f
00000610: 0000 0020 f8dc a3bf 0000 0000 a5f2 e43f
00000620: 0000 0020 bf54 e43f 0000 00c0 6805 83be
00000630: 0000 0080 4728 e43f 0000 00a0 10ed e23f
00000640: 0000 0040 847a 72bf 0000 00e0 ad8a e23f
00000650: 0000 0060 955e e23f 0000 00c0 d9d1 89bf
00000660: 0000 00e0 4734 e13f 0000 0020 72b4 e23f
00000670: 0000 00e0 0ee7 94bf 0000 00c0 1e5d e03f
00000680: 0000 0060 2a6d e33f 0000 0060 a879 9dbf
00000690: 0000 00a0 1f86 e23f 0000 0040 66ba e13f
000006a0: 0000 0040 4729 9cbf 0000 0060 90bc e03f
000006b0: 0000 0000 9f3b e23f 0000 00c0 ad70 a6bf
000006c0: 0000 0000 25ba e03f 0000 0060 b4da e23f
000006d0: 0000 00e0 3d4b abbf 0000 0080 1e12 e13f
000006e0: 0000 0040 a22c e33f 0000 0020 bd7b adbf
000006f0: 0000 0040 459b e23f 0000 00c0 9abe e23f
00000700: 0000 0020 60dc a0bf 0000 0060 4cae e03f
00000710: 0000 00e0 7701 e33f 0000 0040 6181 a6bf
00000720: 0000 0060 452d e03f 0000 00a0 c768 e33f
00000730: 0000 00a0 7470 a8bf 0000 0020 d60e e03f
00000740: 0000 0080 23cf e33f 0000 0080 273b aabf
00000750: 0000 00c0 2cca e23f 0000 0060 e1f4 e33f
00000760: 0000 0000 8f38 a3bf 0000 00c0 e329 e13f
00000770: 0000 0040 5775 e43f 0000 00e0 f1cd a8bf
00000780: 0000 0020 9188 e13f 0000 00c0 af7f e43f
00000790: 0000 00e0 34c7 a6bf 0000 0040 f22e e23f
000007a0: 0000 00e0 0d7b e43f 0000 00a0 8ef9 a4bf
000007b0: 0000 0080 29f4 e23f 0000 0000 7b40 e53f
000007c0: 0000 00a0 1a74 a5bf 0000 00e0 ff80 e13f
000007d0: 0000 0000 0b7e e53f 0000 0000 9ac9 a9bf
000007e0: 0000 0000 0dc9 e13f 0000 0040 de7c e53f
000007f0: 0000 00a0 9ba5 a6bf 0000 0000 2a59 e23f
