files/processed_files/weight/3/weight_3_29.npy (npy, 2192 bytes, 1 tensors)

array f8 [258]
000000 00 00 00 00 b5 4e e0 3f 00 00 00 c0 a3 5f d1 3f
       0.5096077919006348 0.2714623808860779
000010 00 00 00 40 9b d1 f0 bf 00 00 00 20 ca ff ef 3f
       -1.051173448562622 0.9999743103981018
000020 00 00 00 a0 36 1f e1 3f 00 00 00 c0 c7 e9 cc 3f
       0.5350602269172668 0.22588440775871277
000030 00 00 00 a0 2e 21 f0 bf 00 00 00 40 9e ff ef 3f
       -1.0081011056900024 0.9999533891677856
000040 00 00 00 60 8a 98 e1 3f 00 00 00 80 e8 a6 cc 3f
       0.5498706698417664 0.22384363412857056
000050 00 00 00 20 42 21 f0 bf 00 00 00 20 9b ff ef 3f
       -1.0081197023391724 0.9999518990516663
000060 00 00 00 40 37 ec e1 3f 00 00 00 20 50 8c cc 3f
       0.5600849390029907 0.22303201258182526
000070 00 00 00 20 2a 1f f0 bf 00 00 00 40 8f ff ef 3f
       -1.0076085329055786 0.9999462366104126
000080 00 00 00 60 d4 39 df 3f 00 00 00 a0 c4 1e cd 3f
       0.4879046380519867 0.22750146687030792
000090 00 00 00 a0 81 e4 ef bf 00 00 00 c0 98 ff ef 3f
       -0.9966438412666321 0.9999507665634155
0000a0 00 00 00 60 75 38 de 3f 00 00 00 40 24 0b cd 3f
       0.47219595313072205 0.22690251469612122
0000b0 00 00 00 a0 48 e4 ef bf 00 00 00 40 a3 ff ef 3f
       -0.9966166615486145 0.9999557733535767
0000c0 00 00 00 60 77 7c dd 3f 00 00 00 60 45 14 cd 3f
       0.46072182059288025 0.22718112170696259
0000d0 00 00 00 00 c9 e5 ef bf 00 00 00 c0 a1 ff ef 3f
       -0.9967999458312988 0.9999550580978394
0000e0 00 00 00 00 02 ca e2 3f 00 00 00 a0 d1 ad ce 3f
       0.5871591567993164 0.23967953026294708
0000f0 00 00 00 c0 59 f9 e3 bf 00 00 00 20 7d ff ef 3f
       -0.6241883039474487 0.9999375939369202
000100 00 00 00 c0 d9 89 dc 3f 00 00 00 40 46 e8 cf 3f
       0.44591373205184937 0.24927595257759094
000110 00 00 00 a0 a1 0a e2 bf 00 00 00 e0 aa ff ef 3f
       -0.5637977719306946 0.999959409236908
000120 00 00 00 20 51 51 e1 3f 00 00 00 e0 f5 46 d4 3f
       0.5411763787269592 0.3168310821056366
000130 00 00 00 40 32 e5 ec bf 00 00 00 00 e1 ff ef 3f
       -0.9029780626296997 0.9999852180480957
000140 00 00 00 40 c6 bf de 3f 00 00 00 60 4d a9 d4 3f
       0.4804549813270569 0.322833389043808
000150 00 00 00 60 ac 63 ec bf 00 00 00 60 e1 ff ef 3f
       -0.8871671557426453 0.99998539686203
000160 00 00 00 20 f6 db e5 3f 00 00 00 e0 cf b9 de 3f
       0.6831007599830627 0.48009106516838074
000170 00 00 00 60 45 0f d8 bf 00 00 00 c0 33 ff ef 3f
       -0.37593206763267517 0.999902606010437
000180 00 00 00 a0 64 3f d8 3f 00 00 00 e0 7f ab df 3f
       0.3788692057132721 0.4948424994945526
000190 00 00 00 40 0f 88 cf bf 00 00 00 40 0b ff ef 3f
       -0.24633970856666565 0.9998832941055298
0001a0 00 00 00 40 fe 80 e9 3f 00 00 00 40 4a 5c eb 3f
       0.7969962358474731 0.8550158739089966
0001b0 00 00 00 60 e8 b7 ea bf 00 00 00 40 93 b7 ef 3f
       -0.8349496722221375 0.9911590814590454
0001c0 00 00 00 00 ae 65 d0 3f 00 00 00 a0 f4 a4 ec 3f
       0.25620603561401367 0.8951361775398254
0001d0 00 00 00 40 f7 c4 e4 bf 00 00 00 40 43 b3 ef 3f
       -0.6490436792373657 0.9906326532363892
0001e0 00 00 00 a0 98 0b e5 3f 00 00 00 60 93 4a e3 3f
       0.6576655507087708 0.6028534770011902
0001f0 00 00 00 40 32 df fa bf 00 00 00 e0 91 50 ef 3f
       -1.6794912815093994 0.9785851836204529
000200 00 00 00 c0 40 17 d8 3f 00 00 00 80 23 ff e4 3f
       0.3764192461967468 0.6561448574066162
000210 00 00 00 40 19 e5 f7 bf 00 00 00 20 0d 26 ef 3f
       -1.4934322834014893 0.9733949303627014
000220 00 00 00 40 3a 40 e3 3f 00 00 00 20 dd a2 e2 3f
       0.6015902757644653 0.5823808312416077
000230 00 00 00 00 1b 5e fd bf 00 00 00 a0 4a 24 ef 3f
       -1.835474967956543 0.9731801152229309
000240 00 00 00 a0 36 19 dc 3f 00 00 00 a0 0f d5 e3 3f
       0.4390389025211334 0.6197584271430969
000250 00 00 00 40 a3 0d fa bf 00 00 00 80 b5 e8 ee 3f
       -1.6283295154571533 0.9659068584442139
000260 00 00 00 40 62 ed e2 3f 00 00 00 c0 21 63 e1 3f
       0.5914775133132935 0.5433510541915894
000270 00 00 00 40 fb 6d fc bf 00 00 00 e0 e6 3e ef 3f
       -1.776850938796997 0.9764284491539001
000280 00 00 00 c0 b7 88 dc 3f 00 00 00 a0 07 3e e2 3f
       0.4458445906639099 0.5700719952583313
000290 00 00 00 20 6d 73 f9 bf 00 00 00 60 e5 03 ef 3f
       -1.5906802415847778 0.9692255854606628
0002a0 00 00 00 60 c9 1f e3 3f 00 00 00 60 d1 73 e1 3f
       0.5976302027702332 0.5453879237174988
0002b0 00 00 00 60 26 b5 fa bf 00 00 00 40 2d 2c ef 3f
       -1.669226050376892 0.9741426706314087
0002c0 00 00 00 00 ca 3f dc 3f 00 00 00 e0 44 71 e2 3f
       0.4413933753967285 0.5763267874717712
0002d0 00 00 00 40 0b e3 f7 bf 00 00 00 a0 8b f4 ee 3f
       -1.4929306507110596 0.9673517346382141
0002e0 00 00 00 c0 ad 30 e4 3f 00 00 00 20 35 a0 f0 3f
       0.6309422254562378 1.039113163948059
0002f0 00 00 00 00 c7 48 ad bf 00 00 00 80 24 10 da 3f
       -0.05719587206840515 0.4072352647781372
000300 00 00 00 00 56 1a dc 3f 00 00 00 e0 95 69 f0 3f
       0.43910741806030273 1.0257776975631714
000310 00 00 00 00 2d 98 ae 3f 00 00 00 40 bf ab da 3f
       0.059754759073257446 0.4167326092720032
000320 00 00 00 40 83 97 e4 3f 00 00 00 60 8c 70 f8 3f
       0.6434952020645142 1.5274776220321655
000330 00 00 00 80 bc c4 b0 3f 00 00 00 60 f3 45 90 3f
       0.06550195813179016 0.015891840681433678
000340 00 00 00 00 04 76 db 3f 00 00 00 80 cb 69 f8 3f
       0.4290781021118164 1.5258288383483887
000350 00 00 00 e0 92 70 d0 3f 00 00 00 20 38 a8 87 3f
       0.25687095522880554 0.011551321484148502
000360 00 00 00 a0 06 81 e4 3f 00 00 00 00 62 d0 fe 3f
       0.6407502293586731 1.9258747100830078
000370 00 00 00 20 ba 01 e4 3f 00 00 00 a0 6b 9e 60 3f
       0.6252108216285706 0.0020286657381802797
000380 00 00 00 40 82 1a dc 3f 00 00 00 c0 34 eb fe 3f
       0.439117968082428 1.9324233531951904
000390 00 00 00 40 11 2e e7 3f 00 00 00 20 b5 73 61 3f
       0.724373459815979 0.002130368957296014
0003a0 00 00 00 20 63 a4 e4 3f 00 00 00 a0 62 ae ff 3f
       0.6450667977333069 1.9800745248794556
0003b0 00 00 00 20 d5 e1 e4 3f 00 00 00 a0 a8 1f 55 3f
       0.652567446231842 0.001289286301471293
0003c0 00 00 00 a0 9f a1 db 3f 00 00 00 c0 82 e9 ff 3f
       0.4317397177219391 1.9945094585418701
0003d0 00 00 00 00 45 4a e8 3f 00 00 00 a0 0b 9b 67 3f
       0.759066104888916 0.002881548600271344
0003e0 00 00 00 00 f6 d1 e3 3f 00 00 00 40 e9 88 00 40
       0.619379997253418 2.0668511390686035
0003f0 00 00 00 c0 5f d5 c5 3f 00 00 00 c0 54 3e 51 3f
       0.1705741584300995 0.0010524585377424955
000400 00 00 00 00 30 00 de 3f 00 00 00 60 12 84 00 40
       0.4687614440917969 2.064488172531128
000410 00 00 00 40 70 20 d0 3f 00 00 00 80 63 99 65 3f
       0.25197988748550415 0.0026366179808974266
000420 00 00 00 a0 a5 27 e5 3f 00 00 00 20 99 a0 e3 3f
       0.6610897183418274 0.6133542656898499
000430 00 00 00 40 f0 f6 72 3e 00 00 00 20 8b 47 e4 3f
       7.064865314987401e-08 0.633733332157135
000440 00 00 00 e0 c5 2c e2 3f 00 00 00 00 90 1b 3c 3f
       0.5679654479026794 0.0004288889467716217
000450 00 00 00 40 89 f3 e2 3f 00 00 00 e0 3b b9 e1 3f
       0.5922285318374634 0.5538615584373474
000460 00 00 00 20 22 08 6d bf 00 00 00 a0 40 f2 e1 3f
       -0.0035439173225313425 0.5608218312263489
000470 00 00 00 00 a1 1f e2 3f 00 00 00 c0 0d 56 80 bf
       0.5663609504699707 -0.007976634427905083
000480 00 00 00 c0 0b 4d e1 3f 00 00 00 e0 ce c0 e2 3f
       0.5406550168991089 0.5860361456871033
000490 00 00 00 e0 43 72 8b bf 00 00 00 40 90 c0 e2 3f
       -0.013401537202298641 0.5860062837600708
0004a0 00 00 00 40 bc 73 e1 3f 00 00 00 80 a2 83 8e bf
       0.5453778505325317 -0.014899510890245438
0004b0 00 00 00 00 aa 7b e1 3f 00 00 00 60 e5 d6 e1 3f
       0.5463457107543945 0.5574824213981628
0004c0 00 00 00 20 5a 13 99 bf 00 00 00 e0 86 bb e0 3f
       -0.02448788471519947 0.5228914618492126
0004d0 00 00 00 60 a4 37 e2 3f 00 00 00 40 de b6 9f bf
       0.5692922472953796 -0.030971024185419083
0004e0 00 00 00 00 03 2c e0 3f 00 00 00 a0 0c 97 e2 3f
       0.5053725242614746 0.5809386372566223
0004f0 00 00 00 80 d5 ae a1 bf 00 00 00 60 97 c0 e2 3f
       -0.03453700244426727 0.586009681224823
000500 00 00 00 c0 71 95 e2 3f 00 00 00 80 b8 1a 95 bf
       0.5807427167892456 -0.020609743893146515
000510 00 00 00 40 81 3e e1 3f 00 00 00 c0 72 0f e3 3f
       0.5388799905776978 0.5956357717514038
000520 00 00 00 a0 4b 89 9c bf 00 00 00 00 a5 50 e0 3f
       -0.02786749042570591 0.5098443031311035
000530 00 00 00 60 21 4f e3 3f 00 00 00 a0 a8 fa 9f bf
       0.603409469127655 -0.031229624524712563
000540 00 00 00 e0 07 44 df 3f 00 00 00 40 cd 90 e3 3f
       0.4885272681713104 0.6114259958267212
000550 00 00 00 e0 dd 9f a1 bf 00 00 00 c0 48 d7 e2 3f
       -0.03442281112074852 0.5887798070907593
000560 00 00 00 20 a4 c4 e3 3f 00 00 00 00 44 d4 99 bf
       0.6177540421485901 -0.02522379159927368
000570 00 00 00 a0 77 4e e1 3f 00 00 00 20 41 2c e4 3f
       0.54082852602005 0.630402147769928
000580 00 00 00 20 4c 48 a0 bf 00 00 00 00 b4 59 e1 3f
       -0.03180158510804176 0.5422000885009766
000590 00 00 00 c0 c2 f2 e3 3f 00 00 00 e0 7c 5b 9d bf
       0.6233838796615601 -0.028669310733675957
0005a0 00 00 00 80 44 b3 e1 3f 00 00 00 20 c6 c8 e3 3f
       0.5531332492828369 0.618258535861969
0005b0 00 00 00 60 00 0c 9a bf 00 00 00 c0 28 fa e2 3f
       -0.025436406955122948 0.5930370092391968
0005c0 00 00 00 00 6f e1 e4 3f 00 00 00 20 21 57 9e bf
       0.6525187492370605 -0.02962924726307392
0005d0 00 00 00 e0 d5 a0 e1 3f 00 00 00 20 14 11 e5 3f
       0.5508832335472107 0.6583347916603088
0005e0 00 00 00 20 d2 31 a1 bf 00 00 00 20 f0 9d e1 3f
       -0.033583227545022964 0.5505295395851135
0005f0 00 00 00 60 a3 cb e4 3f 00 00 00 00 5d f2 9c bf
       0.6498581767082214 -0.028268292546272278
000600 00 00 00 e0 b6 f7 e1 3f 00 00 00 80 27 91 e4 3f
       0.5614885687828064 0.642719030380249
000610 00 00 00 60 4d d1 97 bf 00 00 00 a0 a5 27 e5 3f
       -0.023259362205863 0.6610897183418274
000620 00 00 00 20 99 a0 e3 3f 00 00 00 40 f0 f6 72 3e
       0.6133542656898499 7.064865314987401e-08
000630 00 00 00 20 8b 47 e4 3f 00 00 00 e0 c5 2c e2 3f
       0.633733332157135 0.5679654479026794
000640 00 00 00 00 90 1b 3c 3f 00 00 00 40 89 f3 e2 3f
       0.0004288889467716217 0.5922285318374634
000650 00 00 00 e0 3b b9 e1 3f 00 00 00 20 22 08 6d bf
       0.5538615584373474 -0.0035439173225313425
000660 00 00 00 a0 40 f2 e1 3f 00 00 00 00 a1 1f e2 3f
       0.5608218312263489 0.5663609504699707
000670 00 00 00 c0 0d 56 80 bf 00 00 00 c0 0b 4d e1 3f
       -0.007976634427905083 0.5406550168991089
000680 00 00 00 e0 ce c0 e2 3f 00 00 00 e0 43 72 8b bf
       0.5860361456871033 -0.013401537202298641
000690 00 00 00 40 90 c0 e2 3f 00 00 00 40 bc 73 e1 3f
       0.5860062837600708 0.5453778505325317
0006a0 00 00 00 80 a2 83 8e bf 00 00 00 00 aa 7b e1 3f
       -0.014899510890245438 0.5463457107543945
0006b0 00 00 00 60 e5 d6 e1 3f 00 00 00 20 5a 13 99 bf
       0.5574824213981628 -0.02448788471519947
0006c0 00 00 00 e0 86 bb e0 3f 00 00 00 60 a4 37 e2 3f
       0.5228914618492126 0.5692922472953796
0006d0 00 00 00 40 de b6 9f bf 00 00 00 00 03 2c e0 3f
       -0.030971024185419083 0.5053725242614746
0006e0 00 00 00 a0 0c 97 e2 3f 00 00 00 80 d5 ae a1 bf
       0.5809386372566223 -0.03453700244426727
0006f0 00 00 00 60 97 c0 e2 3f 00 00 00 c0 71 95 e2 3f
       0.586009681224823 0.5807427167892456
000700 00 00 00 80 b8 1a 95 bf 00 00 00 40 81 3e e1 3f
       -0.020609743893146515 0.5388799905776978
000710 00 00 00 c0 72 0f e3 3f 00 00 00 a0 4b 89 9c bf
       0.5956357717514038 -0.02786749042570591
000720 00 00 00 00 a5 50 e0 3f 00 00 00 60 21 4f e3 3f
       0.5098443031311035 0.603409469127655
000730 00 00 00 a0 a8 fa 9f bf 00 00 00 e0 07 44 df 3f
       -0.031229624524712563 0.4885272681713104
000740 00 00 00 40 cd 90 e3 3f 00 00 00 e0 dd 9f a1 bf
       0.6114259958267212 -0.03442281112074852
000750 00 00 00 c0 48 d7 e2 3f 00 00 00 20 a4 c4 e3 3f
       0.5887798070907593 0.6177540421485901
000760 00 00 00 00 44 d4 99 bf 00 00 00 a0 77 4e e1 3f
       -0.02522379159927368 0.54082852602005
000770 00 00 00 20 41 2c e4 3f 00 00 00 20 4c 48 a0 bf
       0.630402147769928 -0.03180158510804176
000780 00 00 00 00 b4 59 e1 3f 00 00 00 c0 c2 f2 e3 3f
       0.5422000885009766 0.6233838796615601
000790 00 00 00 e0 7c 5b 9d bf 00 00 00 80 44 b3 e1 3f
       -0.028669310733675957 0.5531332492828369
0007a0 00 00 00 20 c6 c8 e3 3f 00 00 00 60 00 0c 9a bf
       0.618258535861969 -0.025436406955122948
0007b0 00 00 00 c0 28 fa e2 3f 00 00 00 00 6f e1 e4 3f
       0.5930370092391968 0.6525187492370605
0007c0 00 00 00 20 21 57 9e bf 00 00 00 e0 d5 a0 e1 3f
       -0.02962924726307392 0.5508832335472107
0007d0 00 00 00 20 14 11 e5 3f 00 00 00 20 d2 31 a1 bf
       0.6583347916603088 -0.033583227545022964
0007e0 00 00 00 20 f0 9d e1 3f 00 00 00 60 a3 cb e4 3f
       0.5505295395851135 0.6498581767082214
0007f0 00 00 00 00 5d f2 9c bf 00 00 00 e0 b6 f7 e1 3f
       -0.028268292546272278 0.5614885687828064
