files/processed_files/weight/3/weight_3_22.npy (npy, 2192 bytes, 1 tensors)

array f8 [258]
000000 00 00 00 40 2c 52 e0 3f 00 00 00 60 8a b0 d0 3f
       0.5100308656692505 0.2607751786708832
000010 00 00 00 a0 78 2d ea bf 00 00 00 e0 9b ff ef 3f
       -0.8180506825447083 0.9999522566795349
000020 00 00 00 60 4b 24 e1 3f 00 00 00 80 2c 3c cb 3f
       0.5356804728507996 0.212773859500885
000030 00 00 00 20 f0 4d e8 bf 00 00 00 a0 52 ff ef 3f
       -0.7595139145851135 0.9999173283576965
000040 00 00 00 c0 e3 98 e1 3f 00 00 00 a0 07 e6 ca 3f
       0.5499132871627808 0.21014495193958282
000050 00 00 00 c0 68 4e e8 bf 00 00 00 60 45 ff ef 3f
       -0.7595714330673218 0.9999110102653503
000060 00 00 00 00 c8 f0 e1 3f 00 00 00 c0 d3 9f ca 3f
       0.5606422424316406 0.20800253748893738
000070 00 00 00 c0 a9 49 e8 bf 00 00 00 40 38 ff ef 3f
       -0.758992075920105 0.9999047517776489
000080 00 00 00 60 c7 35 df 3f 00 00 00 a0 33 0e cc 3f
       0.4876573979854584 0.21918340027332306
000090 00 00 00 c0 e7 5b e8 bf 00 00 00 c0 4d ff ef 3f
       -0.7612189054489136 0.9999150037765503
0000a0 00 00 00 a0 dc 3e de 3f 00 00 00 c0 65 2f cc 3f
       0.4725867807865143 0.2201964557170868
0000b0 00 00 00 40 d0 5b e8 bf 00 00 00 e0 59 ff ef 3f
       -0.7612076997756958 0.9999207854270935
0000c0 00 00 00 00 08 7c dd 3f 00 00 00 40 a5 34 cc 3f
       0.4606952667236328 0.22035661339759827
0000d0 00 00 00 a0 e6 5e e8 bf 00 00 00 20 62 ff ef 3f
       -0.7615845799446106 0.9999247193336487
0000e0 00 00 00 e0 8a c9 e2 3f 00 00 00 c0 fc e3 cc 3f
       0.5871023535728455 0.22570762038230896
0000f0 00 00 00 40 99 6f d7 bf 00 00 00 40 06 ff ef 3f
       -0.3661864399909973 0.9998809099197388
000100 00 00 00 c0 14 97 dc 3f 00 00 00 80 aa f8 ce 3f
       0.44672125577926636 0.2419636845588684
000110 00 00 00 e0 a0 6c d7 bf 00 00 00 e0 62 ff ef 3f
       -0.36600515246391296 0.9999250769615173
000120 00 00 00 c0 7d 7b e1 3f 00 00 00 80 23 86 d3 3f
       0.546324610710144 0.3050621747970581
000130 00 00 00 c0 f1 94 e5 bf 00 00 00 c0 c8 ff ef 3f
       -0.6744316816329956 0.9999736547470093
000140 00 00 00 c0 4e 00 df 3f 00 00 00 80 c1 0e d4 3f
       0.48439377546310425 0.31340062618255615
000150 00 00 00 e0 cb a4 e5 bf 00 00 00 60 cd ff ef 3f
       -0.6763667464256287 0.999975860118866
000160 00 00 00 20 2d ec e5 3f 00 00 00 80 f6 d5 de 3f
       0.6850801110267639 0.48180925846099854
000170 00 00 00 80 78 02 c2 bf 00 00 00 e0 7b fe ef 3f
       -0.14070039987564087 0.9998149275779724
000180 00 00 00 40 b5 73 d8 3f 00 00 00 20 c7 2d df 3f
       0.38206225633621216 0.4871690571308136
000190 00 00 00 20 85 fa c6 bf 00 00 00 60 6d fe ef 3f
       -0.17952026426792145 0.9998080134391785
0001a0 00 00 00 60 5d 7d e9 3f 00 00 00 80 7e 5a eb 3f
       0.7965533137321472 0.8547966480255127
0001b0 00 00 00 40 07 ec e2 bf 00 00 00 a0 0b 77 ef 3f
       -0.591312050819397 0.9832819104194641
0001c0 00 00 00 a0 63 d9 cc 3f 00 00 00 a0 a1 5c e9 3f
       0.2253841906785965 0.7925575375556946
0001d0 00 00 00 00 94 94 e5 bf 00 00 00 20 61 76 ef 3f
       -0.6743869781494141 0.9832006096839905
0001e0 00 00 00 00 81 f8 e4 3f 00 00 00 40 bd 35 e3 3f
       0.6553349494934082 0.6003099679946899
0001f0 00 00 00 c0 6d 81 f5 bf 00 00 00 60 5c 92 ee 3f
       -1.3440988063812256 0.955366313457489
000200 00 00 00 c0 db 77 d7 3f 00 00 00 c0 78 69 e0 3f
       0.36669057607650757 0.512874960899353
000210 00 00 00 00 1d 4a f6 bf 00 00 00 c0 0f 3f ee 3f
       -1.3930940628051758 0.9451979398727417
000220 00 00 00 40 72 53 e3 3f 00 00 00 80 5f 25 e2 3f
       0.6039363145828247 0.5670621395111084
000230 00 00 00 40 a4 d2 f7 bf 00 00 00 00 db 3a ee 3f
       -1.4889261722564697 0.9446845054626465
000240 00 00 00 00 10 60 db 3f 00 00 00 a0 07 69 de 3f
       0.4277381896972656 0.47516050934791565
000250 00 00 00 c0 90 7f f8 bf 00 00 00 40 89 d4 ed 3f
       -1.5311439037322998 0.9321943521499634
000260 00 00 00 00 f6 f7 e2 3f 00 00 00 40 48 d7 e0 3f
       0.592768669128418 0.5262795686721802
000270 00 00 00 40 91 b3 f6 bf 00 00 00 e0 27 73 ee 3f
       -1.418839693069458 0.9515570998191833
000280 00 00 00 40 36 28 dc 3f 00 00 00 60 7d 85 db 3f
       0.43995434045791626 0.43002256751060486
000290 00 00 00 60 55 66 f7 bf 00 00 00 40 88 11 ee 3f
       -1.4624837636947632 0.9396401643753052
0002a0 00 00 00 00 9c 30 e3 3f 00 00 00 a0 15 0b e1 3f
       0.5996837615966797 0.5326030850410461
0002b0 00 00 00 00 e5 53 f5 bf 00 00 00 c0 0a 4f ee 3f
       -1.332982063293457 0.9471486806869507
0002c0 00 00 00 a0 47 ff db 3f 00 00 00 c0 17 b0 dc 3f
       0.43745604157447815 0.44824784994125366
0002d0 00 00 00 20 3a 1f f6 bf 00 00 00 a0 5f f7 ed 3f
       -1.3826237916946411 0.9364469647407532
0002e0 00 00 00 80 39 27 e4 3f 00 00 00 20 07 9a f0 3f
       0.6297881603240967 1.0376044511795044
0002f0 00 00 00 60 36 da 7e bf 00 00 00 c0 02 ba d8 3f
       -0.007532322313636541 0.38635319471359253
000300 00 00 00 60 3c 81 db 3f 00 00 00 80 ff 50 f0 3f
       0.42976292967796326 1.0197749137878418
000310 00 00 00 a0 57 97 84 3f 00 00 00 80 51 6f d8 3f
       0.010054287500679493 0.3817943334579468
000320 00 00 00 00 6a 25 e4 3f 00 00 00 40 d9 59 f8 3f
       0.6295671463012695 1.5219357013702393
000330 00 00 00 40 d9 00 b2 3f 00 00 00 40 18 71 9f 3f
       0.07032544910907745 0.030704859644174576
000340 00 00 00 00 b9 b7 d9 3f 00 00 00 40 79 4f f8 3f
       0.4018385410308838 1.5194027423858643
000350 00 00 00 a0 ab c6 c4 3f 00 00 00 40 96 68 95 3f
       0.16231293976306915 0.020906779915094376
000360 00 00 00 c0 0a f2 e3 3f 00 00 00 40 a3 c7 fe 3f
       0.6232961416244507 1.9237396717071533
000370 00 00 00 20 72 8c e2 3f 00 00 00 40 de 5d 70 3f
       0.5796442627906799 0.003995769657194614
000380 00 00 00 c0 58 88 da 3f 00 00 00 20 a0 ca fe 3f
       0.41457194089889526 1.9244691133499146
000390 00 00 00 a0 28 2f e2 3f 00 00 00 a0 67 40 71 3f
       0.568256676197052 0.004211811814457178
0003a0 00 00 00 c0 f7 31 e4 3f 00 00 00 e0 7d a6 ff 3f
       0.6310995817184448 1.9781473875045776
0003b0 00 00 00 40 ec 3a e3 3f 00 00 00 20 3b 6f 63 3f
       0.6009427309036255 0.002372374990954995
0003c0 00 00 00 c0 3b 19 da 3f 00 00 00 60 55 b7 ff 3f
       0.4077901244163513 1.9822591543197632
0003d0 00 00 00 80 c8 1d e3 3f 00 00 00 60 fe b5 75 3f
       0.5973856449127197 0.0053005157969892025
0003e0 00 00 00 a0 97 05 e3 3f 00 00 00 80 3a 7e 00 40
       0.5944326519966125 2.0616350173950195
0003f0 00 00 00 a0 51 72 be 3f 00 00 00 60 83 26 60 3f
       0.11893186718225479 0.001971489517018199
000400 00 00 00 00 39 d7 dc 3f 00 00 00 e0 de 7a 00 40
       0.4506361484527588 2.059995412826538
000410 00 00 00 00 94 0b b6 3f 00 00 00 a0 c7 c7 70 3f
       0.08611416816711426 0.004096774850040674
000420 00 00 00 00 d3 25 e5 3f 00 00 00 80 31 7a e2 3f
       0.6608672142028809 0.577416181564331
000430 00 00 00 e0 6f aa 74 3e 00 00 00 60 e2 53 e4 3f
       7.69859909155457e-08 0.6352397799491882
000440 00 00 00 60 24 fc e0 3f 00 00 00 60 0c 54 59 3f
       0.5307790637016296 0.0015459175920113921
000450 00 00 00 80 f4 fe e2 3f 00 00 00 00 36 4f e0 3f
       0.5936224460601807 0.509669303894043
000460 00 00 00 00 73 01 6b bf 00 00 00 40 ad e0 e1 3f
       -0.0032965894788503647 0.5586763620376587
000470 00 00 00 a0 da 6d e0 3f 00 00 00 e0 c5 bd 81 bf
       0.5134099125862122 -0.008662744425237179
000480 00 00 00 60 af 10 e1 3f 00 00 00 00 34 d3 e0 3f
       0.5332867503166199 0.5257816314697266
000490 00 00 00 00 e8 a3 8f bf 00 00 00 e0 31 e4 e2 3f
       -0.015449345111846924 0.5903558135032654
0004a0 00 00 00 60 cf a0 df 3f 00 00 00 a0 67 c7 94 bf
       0.4941900670528412 -0.020291918888688087
0004b0 00 00 00 c0 54 79 e1 3f 00 00 00 e0 e5 39 df 3f
       0.5460609197616577 0.48790881037712097
0004c0 00 00 00 20 ba 38 9f bf 00 00 00 00 52 9e e0 3f
       -0.030489834025502205 0.5193262100219727
0004d0 00 00 00 e0 b6 2b df 3f 00 00 00 a0 3e 42 a2 bf
       0.4870431125164032 -0.03566165640950203
0004e0 00 00 00 00 12 ea df 3f 00 00 00 a0 c9 43 df 3f
       0.49866151809692383 0.48851242661476135
0004f0 00 00 00 e0 01 a8 a3 bf 00 00 00 e0 6a e7 e2 3f
       -0.03839116916060448 0.590749204158783
000500 00 00 00 20 6b e5 e0 3f 00 00 00 40 fb ee 9b bf
       0.5280051827430725 -0.027278829365968704
000510 00 00 00 40 a9 4a e1 3f 00 00 00 a0 19 13 e1 3f
       0.5403639078140259 0.533581554889679
000520 00 00 00 80 c2 e4 a2 bf 00 00 00 60 b3 5a e0 3f
       -0.03690154850482941 0.5110718607902527
000530 00 00 00 60 fa 32 e1 3f 00 00 00 80 2a 59 a4 bf
       0.5374729037284851 -0.03974278271198273
000540 00 00 00 80 ee 49 df 3f 00 00 00 c0 b3 5b e1 3f
       0.4888874292373657 0.542444109916687
000550 00 00 00 c0 d7 8d a5 bf 00 00 00 40 a6 f8 e2 3f
       -0.042097799479961395 0.5928527116775513
000560 00 00 00 c0 7c 15 e2 3f 00 00 00 a0 44 b1 a0 bf
       0.5651229619979858 -0.032602448016405106
000570 00 00 00 20 c6 55 e1 3f 00 00 00 20 dd 3e e2 3f
       0.541720449924469 0.5701737999916077
000580 00 00 00 20 7f 54 a5 bf 00 00 00 40 82 45 e1 3f
       -0.041660282760858536 0.539734959602356
000590 00 00 00 60 d6 0d e2 3f 00 00 00 80 59 3f a3 bf
       0.5641891360282898 -0.03759269416332245
0005a0 00 00 00 40 41 84 e1 3f 00 00 00 40 70 f5 e1 3f
       0.5473943948745728 0.5612107515335083
0005b0 00 00 00 00 8c fc a0 bf 00 00 00 00 15 0e e3 3f
       -0.03317677974700928 0.5954689979553223
0005c0 00 00 00 80 6a 3b e3 3f 00 00 00 60 63 1e a3 bf
       0.6010029315948486 -0.03734121844172478
0005d0 00 00 00 80 2c 95 e1 3f 00 00 00 00 0f 39 e3 3f
       0.54945969581604 0.600715160369873
0005e0 00 00 00 60 2c 16 a6 bf 00 00 00 c0 59 7c e1 3f
       -0.043137919157743454 0.5464295148849487
0005f0 00 00 00 e0 2d f8 e2 3f 00 00 00 c0 67 36 a3 bf
       0.5927953124046326 -0.03752445429563522
000600 00 00 00 e0 bd c0 e1 3f 00 00 00 80 57 c9 e2 3f
       0.5547780394554138 0.5870778560638428
000610 00 00 00 c0 4a 49 a0 bf 00 00 00 00 d3 25 e5 3f
       -0.03180917352437973 0.6608672142028809
000620 00 00 00 80 31 7a e2 3f 00 00 00 e0 6f aa 74 3e
       0.577416181564331 7.69859909155457e-08
000630 00 00 00 60 e2 53 e4 3f 00 00 00 60 24 fc e0 3f
       0.6352397799491882 0.5307790637016296
000640 00 00 00 60 0c 54 59 3f 00 00 00 80 f4 fe e2 3f
       0.0015459175920113921 0.5936224460601807
000650 00 00 00 00 36 4f e0 3f 00 00 00 00 73 01 6b bf
       0.509669303894043 -0.0032965894788503647
000660 00 00 00 40 ad e0 e1 3f 00 00 00 a0 da 6d e0 3f
       0.5586763620376587 0.5134099125862122
000670 00 00 00 e0 c5 bd 81 bf 00 00 00 60 af 10 e1 3f
       -0.008662744425237179 0.5332867503166199
000680 00 00 00 00 34 d3 e0 3f 00 00 00 00 e8 a3 8f bf
       0.5257816314697266 -0.015449345111846924
000690 00 00 00 e0 31 e4 e2 3f 00 00 00 60 cf a0 df 3f
       0.5903558135032654 0.4941900670528412
0006a0 00 00 00 a0 67 c7 94 bf 00 00 00 c0 54 79 e1 3f
       -0.020291918888688087 0.5460609197616577
0006b0 00 00 00 e0 e5 39 df 3f 00 00 00 20 ba 38 9f bf
       0.48790881037712097 -0.030489834025502205
0006c0 00 00 00 00 52 9e e0 3f 00 00 00 e0 b6 2b df 3f
       0.5193262100219727 0.4870431125164032
0006d0 00 00 00 a0 3e 42 a2 bf 00 00 00 00 12 ea df 3f
       -0.03566165640950203 0.49866151809692383
0006e0 00 00 00 a0 c9 43 df 3f 00 00 00 e0 01 a8 a3 bf
       0.48851242661476135 -0.03839116916060448
0006f0 00 00 00 e0 6a e7 e2 3f 00 00 00 20 6b e5 e0 3f
       0.590749204158783 0.5280051827430725
000700 00 00 00 40 fb ee 9b bf 00 00 00 40 a9 4a e1 3f
       -0.027278829365968704 0.5403639078140259
000710 00 00 00 a0 19 13 e1 3f 00 00 00 80 c2 e4 a2 bf
       0.533581554889679 -0.03690154850482941
000720 00 00 00 60 b3 5a e0 3f 00 00 00 60 fa 32 e1 3f
       0.5110718607902527 0.5374729037284851
000730 00 00 00 80 2a 59 a4 bf 00 00 00 80 ee 49 df 3f
       -0.03974278271198273 0.4888874292373657
000740 00 00 00 c0 b3 5b e1 3f 00 00 00 c0 d7 8d a5 bf
       0.542444109916687 -0.042097799479961395
000750 00 00 00 40 a6 f8 e2 3f 00 00 00 c0 7c 15 e2 3f
       0.5928527116775513 0.5651229619979858
000760 00 00 00 a0 44 b1 a0 bf 00 00 00 20 c6 55 e1 3f
       -0.032602448016405106 0.541720449924469
000770 00 00 00 20 dd 3e e2 3f 00 00 00 20 7f 54 a5 bf
       0.5701737999916077 -0.041660282760858536
000780 00 00 00 40 82 45 e1 3f 00 00 00 60 d6 0d e2 3f
       0.539734959602356 0.5641891360282898
000790 00 00 00 80 59 3f a3 bf 00 00 00 40 41 84 e1 3f
       -0.03759269416332245 0.5473943948745728
0007a0 00 00 00 40 70 f5 e1 3f 00 00 00 00 8c fc a0 bf
       0.5612107515335083 -0.03317677974700928
0007b0 00 00 00 00 15 0e e3 3f 00 00 00 80 6a 3b e3 3f
       0.5954689979553223 0.6010029315948486
0007c0 00 00 00 60 63 1e a3 bf 00 00 00 80 2c 95 e1 3f
       -0.03734121844172478 0.54945969581604
0007d0 00 00 00 00 0f 39 e3 3f 00 00 00 60 2c 16 a6 bf
       0.600715160369873 -0.043137919157743454
0007e0 00 00 00 c0 59 7c e1 3f 00 00 00 e0 2d f8 e2 3f
       0.5464295148849487 0.5927953124046326
0007f0 00 00 00 c0 67 36 a3 bf 00 00 00 e0 bd c0 e1 3f
       -0.03752445429563522 0.5547780394554138
