files/processed_files/weight/3/weight_3_49.npy (npy, 2192 bytes, 1 tensors)

array f8 [258]
0	0x3fe03ec160000000	0.5076605677604675
1	0x3fd25e9580000000	0.2870229482650757
2	0xbfed3e2540000000	-0.9138361215591431
3	0x3fefffef80000000	0.9999921321868896
4	0x3fe10dc920000000	0.5329328179359436
5	0x3fce4e1d60000000	0.23675887286663055
6	0xbfebcadac0000000	-0.8685125112533569
7	0x3fefffdb40000000	0.999982476234436
8	0x3fe18affc0000000	0.5482176542282104
9	0x3fcdee9760000000	0.23384372889995575
10	0xbfebcb83a0000000	-0.8685930371284485
11	0x3fefffe0c0000000	0.9999850988388062
12	0x3fe1dcbb40000000	0.5581947565078735
13	0x3fcdabfae0000000	0.23181091248989105
14	0xbfebc6d500000000	-0.8680214881896973
15	0x3fefffd500000000	0.9999794960021973
16	0x3fdf0f5b40000000	0.485312283039093
17	0x3fcecde860000000	0.24065880477428436
18	0xbfebc272c0000000	-0.8674863576889038
19	0x3fefffd500000000	0.9999794960021973
20	0x3fde098a40000000	0.4693322777748108
21	0x3fcec20e80000000	0.2402971386909485
22	0xbfebc23840000000	-0.8674584627151489
23	0x3fefffdea0000000	0.999984085559845
24	0x3fdd521360000000	0.4581345021724701
25	0x3fcece3ec0000000	0.2406691014766693
26	0xbfebc46800000000	-0.8677253723144531
27	0x3fefffd3e0000000	0.9999789595603943
28	0x3fe2c070c0000000	0.5859912633895874
29	0x3fcf706a00000000	0.24561810493469238
30	0xbfdf34aa40000000	-0.48758941888809204
31	0x3fefffde80000000	0.9999840259552002
32	0x3fdc4e29a0000000	0.4422706663608551
33	0x3fd090b760000000	0.25883278250694275
34	0xbfde3af9c0000000	-0.4723495841026306
35	0x3fefffe600000000	0.9999876022338867
36	0x3fe14076e0000000	0.5391191840171814
37	0x3fd5359ea0000000	0.33139768242836
38	0xbfe8839d80000000	-0.766066312789917
39	0x3feffff500000000	0.9999947547912598
40	0x3fde996c60000000	0.47811421751976013
41	0x3fd5b239a0000000	0.3390029966831207
42	0xbfe872e0a0000000	-0.7640231251716614
43	0x3feffff2a0000000	0.999993622303009
44	0x3fe5ce9d80000000	0.681471586227417
45	0x3fdeaf7dc0000000	0.479461133480072
46	0xbfcbcea600000000	-0.21724390983581543
47	0x3fefffcbe0000000	0.9999751448631287
48	0x3fd803e4c0000000	0.3752376437187195
49	0x3fdfb01e40000000	0.4951243996620178
50	0xbfcc163dc0000000	-0.21942874789237976
51	0x3fefff94a0000000	0.9999487996101379
52	0x3fe9add2a0000000	0.8024685978889465
53	0x3feb32d8a0000000	0.8499568104743958
54	0xbfe4f72680000000	-0.6551697254180908
55	0x3fefe91900000000	0.9972043037414551
56	0x3fd0aaa040000000	0.260414183139801
57	0x3fec7e2a60000000	0.8904010653495789
58	0xbfe4248ea0000000	-0.6294625401496887
59	0x3fefe1f9e0000000	0.996334969997406
60	0x3fe588ee40000000	0.6729651689529419
61	0x3fe301fd80000000	0.5939929485321045
62	0xbff7138a40000000	-1.4422705173492432
63	0x3fefe9d5c0000000	0.9972943067550659
64	0x3fd9a412c0000000	0.40063923597335815
65	0x3fe5121fa0000000	0.6584623456001282
66	0xbff66bca40000000	-1.4013159275054932
67	0x3fefe05280000000	0.9961330890655518
68	0x3fe3b6e8c0000000	0.6160777807235718
69	0x3fe252fec0000000	0.5726312398910522
70	0xbff95f9020000000	-1.585830807685852
71	0x3fefe0b000000000	0.9961776733398438
72	0x3fdd817000000000	0.4610252380371094
73	0x3fe399c960000000	0.6125227808952332
74	0xbff8848960000000	-1.5323575735092163
75	0x3fefc89660000000	0.9932357668876648
76	0x3fe35d2980000000	0.6051223278045654
77	0x3fe119fc00000000	0.5344219207763672
78	0xbff84c2be0000000	-1.5185965299606323
79	0x3fefe357e0000000	0.9965018630027771
80	0x3fdde719c0000000	0.46723026037216187
81	0x3fe2399080000000	0.5695269107818604
82	0xbff7b81220000000	-1.4824391603469849
83	0x3fefc84980000000	0.9931991100311279
84	0x3fe39adf40000000	0.6126552820205688
85	0x3fe13578e0000000	0.5377773642539978
86	0xbff6e61280000000	-1.4311699867248535
87	0x3fefdeeb20000000	0.9959617257118225
88	0x3fdd703ba0000000	0.45997515320777893
89	0x3fe26fc7e0000000	0.5761451125144958
90	0xbff6573840000000	-1.3962938785552979
91	0x3fefc188e0000000	0.992374837398529
92	0x3fe445f9a0000000	0.6335418820381165
93	0x3ff099dfe0000000	1.0375670194625854
94	0xbf9c945300000000	-0.02790956199169159
95	0x3fd8730500000000	0.3820202350616455
96	0x3fdc7fa240000000	0.44529014825820923
97	0x3ff0876420000000	1.0330544710159302
98	0x3f9f3942a0000000	0.030491868034005165
99	0x3fd9192c40000000	0.39216142892837524
100	0x3fe4ee7680000000	0.6541092395782471
101	0x3ff87ae420000000	1.5300027132034302
102	0x3fa860d2a0000000	0.04761369898915291
103	0x3f6d40f5a0000000	0.00357101415283978
104	0x3fdbe2e940000000	0.43572455644607544
105	0x3ff883cac0000000	1.5321757793426514
106	0x3fc6a7cea0000000	0.17699606716632843
107	0x3f6f1bbae0000000	0.003797402372583747
108	0x3fe4f45bc0000000	0.6548289060592651
109	0x3ffed733a0000000	1.9275394678115845
110	0x3fe1ebe6a0000000	0.5600464940071106
111	0x3f398dcc80000000	0.0003899215953424573
112	0x3fdd0c9a40000000	0.4538941979408264
113	0x3fff02d980000000	1.9381957054138184
114	0x3fe35b0280000000	0.6048595905303955
115	0x3f3bf4b3e0000000	0.00042657271842472255
116	0x3fe5183740000000	0.6592060327529907
117	0x3fffb2bd60000000	1.9811376333236694
118	0x3fe29d4540000000	0.5816980600357056
119	0x3f37045e80000000	0.00035121256951242685
120	0x3fdcb2f940000000	0.44842368364334106
121	0x3ffffd5c60000000	1.999355673789978
122	0x3fe45495e0000000	0.6353253722190857
123	0x3f4c62bb60000000	0.0008662619511596859
124	0x3fe450bbc0000000	0.6348551511764526
125	0x40008de7e0000000	2.0692899227142334
126	0x3fb91126c0000000	0.09791795909404755
127	0x3f335dada0000000	0.00029550064937211573
128	0x3fdf441740000000	0.4885309338569641
129	0x40008c87e0000000	2.0686185359954834
130	0x3fbe7bd3a0000000	0.11907694488763809
131	0x3f56ed62e0000000	0.0013993707252666354
132	0x3fe5910780000000	0.6739537715911865
133	0x3fe2d83b00000000	0.588895320892334
134	0x3e7c4a4600000000	1.05388949123153e-07
135	0x3fe4a5bd80000000	0.6452319622039795
136	0x3fe12d8480000000	0.5368063449859619
137	0x3f6e71aba0000000	0.00371631165035069
138	0x3fe35d37a0000000	0.605129063129425
139	0x3fe0afd0c0000000	0.5214618444442749
140	0x3f534eca40000000	0.0011784529779106379
141	0x3fe2562c00000000	0.5730190277099609
142	0x3fe10059e0000000	0.5312928557395935
143	0xbf67469400000000	-0.002841271460056305
144	0x3fe19e4900000000	0.5505719184875488
145	0x3fe1767ea0000000	0.5457146763801575
146	0xbf8097c560000000	-0.008101980201900005
147	0x3fe2d57ea0000000	0.5885613560676575
148	0x3fe04322e0000000	0.5081953406333923
149	0xbf85b76260000000	-0.01060368400067091
150	0x3fe14f7e60000000	0.5409538149833679
151	0x3fe0860de0000000	0.5163640379905701
152	0xbf9369ffc0000000	-0.01895904168486595
153	0x3fe065fa60000000	0.5124484896659851
154	0x3fe0d3c7e0000000	0.5258521437644958
155	0xbf99967820000000	-0.02498805709183216
156	0x3fdf633fe0000000	0.4904327094554901
157	0x3fe124b880000000	0.5357325077056885
158	0xbf9d63fe80000000	-0.02870175987482071
159	0x3fe2c650a0000000	0.5867083668708801
160	0x3fe15db160000000	0.5426871180534363
161	0xbf92a502c0000000	-0.018207591027021408
162	0x3fe11dc2c0000000	0.5348829030990601
163	0x3fe18aa280000000	0.548173189163208
164	0xbf99a9a060000000	-0.02506113611161709
165	0x3fe0220680000000	0.5041534900665283
166	0x3fe1a12180000000	0.5509192943572998
167	0xbf9dcc0480000000	-0.029098577797412872
168	0x3fdea36600000000	0.47872304916381836
169	0x3fe1b78a40000000	0.5536547899246216
170	0xbfa0845800000000	-0.03225970268249512
171	0x3fe2dd96c0000000	0.5895494222640991
172	0x3fe289c520000000	0.5793176293373108
173	0xbf9900e5c0000000	-0.024417486041784286
174	0x3fe1476480000000	0.5399649143218994
175	0x3fe2af8940000000	0.5839277505874634
176	0xbf9e8e4500000000	-0.029839590191841125
177	0x3fe123f1c0000000	0.5356377363204956
178	0x3fe27f5c40000000	0.5780469179153442
179	0xbf9b7196e0000000	-0.026800496503710747
180	0x3fe136ac60000000	0.5379239916801453
181	0x3fe2504340000000	0.5722976922988892
182	0xbf987c1840000000	-0.02391088381409645
183	0x3fe30c1ce0000000	0.5952286124229431
184	0x3fe3ad8f00000000	0.614936351776123
185	0xbf9f0230e0000000	-0.0302817951887846
186	0x3fe1c3dca0000000	0.5551589131355286
187	0x3fe39ab600000000	0.612635612487793
188	0xbfa1132a00000000	-0.03334933519363403
189	0x3fe17f5300000000	0.5467925071716309
190	0x3fe36ca8a0000000	0.607014000415802
191	0xbf9c981f20000000	-0.02792404778301716
192	0x3fe1735260000000	0.545327365398407
193	0x3fe34665a0000000	0.6023433804512024
194	0xbf97631340000000	-0.022838879376649857
195	0x3fe5910780000000	0.6739537715911865
196	0x3fe2d83b00000000	0.588895320892334
197	0x3e7c4a4600000000	1.05388949123153e-07
198	0x3fe4a5bd80000000	0.6452319622039795
199	0x3fe12d8480000000	0.5368063449859619
200	0x3f6e71aba0000000	0.00371631165035069
201	0x3fe35d37a0000000	0.605129063129425
202	0x3fe0afd0c0000000	0.5214618444442749
203	0x3f534eca40000000	0.0011784529779106379
204	0x3fe2562c00000000	0.5730190277099609
205	0x3fe10059e0000000	0.5312928557395935
206	0xbf67469400000000	-0.002841271460056305
207	0x3fe19e4900000000	0.5505719184875488
208	0x3fe1767ea0000000	0.5457146763801575
209	0xbf8097c560000000	-0.008101980201900005
210	0x3fe2d57ea0000000	0.5885613560676575
211	0x3fe04322e0000000	0.5081953406333923
212	0xbf85b76260000000	-0.01060368400067091
213	0x3fe14f7e60000000	0.5409538149833679
214	0x3fe0860de0000000	0.5163640379905701
215	0xbf9369ffc0000000	-0.01895904168486595
216	0x3fe065fa60000000	0.5124484896659851
217	0x3fe0d3c7e0000000	0.5258521437644958
218	0xbf99967820000000	-0.02498805709183216
219	0x3fdf633fe0000000	0.4904327094554901
220	0x3fe124b880000000	0.5357325077056885
221	0xbf9d63fe80000000	-0.02870175987482071
222	0x3fe2c650a0000000	0.5867083668708801
223	0x3fe15db160000000	0.5426871180534363
224	0xbf92a502c0000000	-0.018207591027021408
225	0x3fe11dc2c0000000	0.5348829030990601
226	0x3fe18aa280000000	0.548173189163208
227	0xbf99a9a060000000	-0.02506113611161709
228	0x3fe0220680000000	0.5041534900665283
229	0x3fe1a12180000000	0.5509192943572998
230	0xbf9dcc0480000000	-0.029098577797412872
231	0x3fdea36600000000	0.47872304916381836
232	0x3fe1b78a40000000	0.5536547899246216
233	0xbfa0845800000000	-0.03225970268249512
234	0x3fe2dd96c0000000	0.5895494222640991
235	0x3fe289c520000000	0.5793176293373108
236	0xbf9900e5c0000000	-0.024417486041784286
237	0x3fe1476480000000	0.5399649143218994
238	0x3fe2af8940000000	0.5839277505874634
239	0xbf9e8e4500000000	-0.029839590191841125
240	0x3fe123f1c0000000	0.5356377363204956
241	0x3fe27f5c40000000	0.5780469179153442
242	0xbf9b7196e0000000	-0.026800496503710747
243	0x3fe136ac60000000	0.5379239916801453
244	0x3fe2504340000000	0.5722976922988892
245	0xbf987c1840000000	-0.02391088381409645
246	0x3fe30c1ce0000000	0.5952286124229431
247	0x3fe3ad8f00000000	0.614936351776123
248	0xbf9f0230e0000000	-0.0302817951887846
249	0x3fe1c3dca0000000	0.5551589131355286
250	0x3fe39ab600000000	0.612635612487793
251	0xbfa1132a00000000	-0.03334933519363403
252	0x3fe17f5300000000	0.5467925071716309
253	0x3fe36ca8a0000000	0.607014000415802
254	0xbf9c981f20000000	-0.02792404778301716
255	0x3fe1735260000000	0.545327365398407
