files/processed_files/weight/6/weight_6_8.npy (npy, 2192 bytes, 1 tensors)

array f8 [258]
0	0x3fe0cd8bc0000000	0.5250910520553589
1	0x3fd1ac1ce0000000	0.27612993121147156
2	0xbfe8d483a0000000	-0.7759416699409485
3	0x3fefff9340000000	0.9999481439590454
4	0x3fe13f21e0000000	0.5389565825462341
5	0x3fce57c200000000	0.23705315589904785
6	0xbfe77470c0000000	-0.7329639196395874
7	0x3fefff6b00000000	0.9999289512634277
8	0x3fe18bfa80000000	0.5483372211456299
9	0x3fce557780000000	0.23698323965072632
10	0xbfe77514e0000000	-0.7330421805381775
11	0x3fefff7560000000	0.9999338984489441
12	0x3fe1cc5820000000	0.5561943650245667
13	0x3fce50a860000000	0.2368364781141281
14	0xbfe7722c00000000	-0.7326869964599609
15	0x3fefff53c0000000	0.9999178647994995
16	0x3fe0522440000000	0.5100270509719849
17	0x3fcea30f00000000	0.23935115337371826
18	0xbfe7b37c80000000	-0.7406599521636963
19	0x3fefff7080000000	0.9999315738677979
20	0x3fdff91180000000	0.4995769262313843
21	0x3fcecb3720000000	0.2405766397714615
22	0xbfe7b35780000000	-0.7406423091888428
23	0x3fefff8a40000000	0.9999438524246216
24	0x3fdf6488e0000000	0.4905111491680145
25	0x3fcf0559e0000000	0.24235080182552338
26	0xbfe7b6aa20000000	-0.7410479187965393
27	0x3fefff7960000000	0.9999358057975769
28	0x3fe234af80000000	0.5689313411712646
29	0x3fd056e220000000	0.25530293583869934
30	0xbfda05efc0000000	-0.4066123366355896
31	0x3fefff50c0000000	0.9999164342880249
32	0x3fde8c5f60000000	0.4773176610469818
33	0x3fd0c8ac00000000	0.26224803924560547
34	0xbfdbdeac80000000	-0.435465931892395
35	0x3fefff8f00000000	0.999946117401123
36	0x3fe1633be0000000	0.5433635115623474
37	0x3fd411ce60000000	0.3135868012905121
38	0xbfe50c2ce0000000	-0.6577362418174744
39	0x3fefffd120000000	0.9999776482582092
40	0x3fe03764c0000000	0.506761908531189
41	0x3fd4256fa0000000	0.3147849142551422
42	0xbfe55c6f80000000	-0.6675336360931396
43	0x3fefffcf20000000	0.9999766945838928
44	0x3fe4ec2440000000	0.6538258790969849
45	0x3fdf0eaf80000000	0.4852713346481323
46	0xbfc8f30e60000000	-0.1949174851179123
47	0x3fefff7fc0000000	0.9999388456344604
48	0x3fd9c7c300000000	0.4028174877166748
49	0x3fde643de0000000	0.4748682677745819
50	0xbfcfe7bd80000000	-0.24925965070724487
51	0x3feffedb00000000	0.9998602867126465
52	0x3fe6834de0000000	0.7035283446311951
53	0x3fe9a79500000000	0.8017067909240723
54	0xbfdd8294a0000000	-0.46109500527381897
55	0x3fefdab320000000	0.9954467415809631
56	0x3fd3a6bcc0000000	0.3070518374443054
57	0x3fe8f28080000000	0.7796022891998291
58	0xbfe2eb5b80000000	-0.5912301540374756
59	0x3fefcb5780000000	0.9935719966888428
60	0x3fe368c060000000	0.6065370440483093
61	0x3fe57ca580000000	0.6714656352996826
62	0xbff1bd1640000000	-1.10866379737854
63	0x3fefd82740000000	0.9951359033584595
64	0x3fda75dc80000000	0.4134436845779419
65	0x3fe49998a0000000	0.6437495350837708
66	0xbff3bd6480000000	-1.2337384223937988
67	0x3fefc35920000000	0.9925962090492249
68	0x3fe24eb980000000	0.5721099376678467
69	0x3fe5cd3000000000	0.6812973022460938
70	0xbff3c48400000000	-1.2354774475097656
71	0x3fef848200000000	0.9849252700805664
72	0x3fdcbcb280000000	0.44901716709136963
73	0x3fe4851280000000	0.6412441730499268
74	0xbff5b6b1a0000000	-1.3571029901504517
75	0x3fef5bad20000000	0.9799409508705139
76	0x3fe1e88980000000	0.5596358776092529
77	0x3fe4737560000000	0.6390940546989441
78	0xbff3699ca0000000	-1.2132841348648071
79	0x3fef8a2b80000000	0.9856164455413818
80	0x3fdd538e80000000	0.458224892616272
81	0x3fe34652a0000000	0.6023343205451965
82	0xbff569f640000000	-1.338369607925415
83	0x3fef60de80000000	0.9805748462677002
84	0x3fe213e660000000	0.564929187297821
85	0x3fe4593180000000	0.635887861251831
86	0xbff1cbb680000000	-1.1122345924377441
87	0x3fef5c4900000000	0.9800152778625488
88	0x3fdd0ecca0000000	0.45402827858924866
89	0x3fe347d260000000	0.602517306804657
90	0xbff3c5c820000000	-1.2357865571975708
91	0x3fef477540000000	0.9774729013442993
92	0x3fe2f241a0000000	0.5920723080635071
93	0x3ff0548360000000	1.0206331014633179
94	0x3f86b0cac0000000	0.011079391464591026
95	0x3fe963d1c0000000	0.7934349775314331
96	0x3fdba2bde0000000	0.4318079650402069
97	0x3ff01f5100000000	1.007645606994629
98	0xbf8446df80000000	-0.009900804609060287
99	0x3fe9543fa0000000	0.7915342450141907
100	0x3fe303faa0000000	0.5942357182502747
101	0x3ff7175100000000	1.443192481994629
102	0x3fbf372200000000	0.12193500995635986
103	0x3fa09c5340000000	0.032442666590213776
104	0x3fdacff300000000	0.4189422130584717
105	0x3ff7002e80000000	1.437544345855713
106	0x3fbe8d4f80000000	0.11934372782707214
107	0x3f96bfc120000000	0.022215859964489937
108	0x3fe2e2c400000000	0.5901813507080078
109	0x3ffd1a7b00000000	1.818964958190918
110	0x3fe4ee72a0000000	0.654107391834259
111	0x3f6e970240000000	0.0037341159768402576
112	0x3fdb509bc0000000	0.42679494619369507
113	0x3ffd07e720000000	1.8144294023513794
114	0x3fe1b50480000000	0.5533468723297119
115	0x3f6bdf0c00000000	0.0034022554755210876
116	0x3fe2f92dc0000000	0.5929173231124878
117	0x3ffdeb6000000000	1.869964599609375
118	0x3fe5ed9d80000000	0.685255765914917
119	0x3f617dc300000000	0.0021351631730794907
120	0x3fdb045be0000000	0.42214104533195496
121	0x3ffdd58000000000	1.8646240234375
122	0x3fe2b64e40000000	0.5847541093826294
123	0x3f721c33e0000000	0.004421427380293608
124	0x3fe2615060000000	0.5743791460990906
125	0x3ffef14d00000000	1.9339113235473633
126	0x3fd2a83ba0000000	0.29151812195777893
127	0x3f606b2040000000	0.002004206646233797
128	0x3fdcf16fc0000000	0.4522361159324646
129	0x3ffef73060000000	1.9353488683700562
130	0x3fc2d15740000000	0.1470135748386383
131	0x3f76b20740000000	0.005540874786674976
132	0x3fe3f3a540000000	0.6234918832778931
133	0x3fe5b26ca0000000	0.6780303120613098
134	0x3e8ab1cee0000000	1.9888999247541506e-07
135	0x3fe36ab7e0000000	0.6067771315574646
136	0x3fe47216e0000000	0.6389269232749939
137	0xbf5d25fbc0000000	-0.0017790754791349173
138	0x3fe276bd60000000	0.5769945979118347
139	0x3fe4035980000000	0.6254088878631592
140	0xbf74db5300000000	-0.005091976374387741
141	0x3fe1c49c60000000	0.555250346660614
142	0x3fe46e8ce0000000	0.6384949088096619
143	0xbf82217f00000000	-0.008852951228618622
144	0x3fe171bea0000000	0.5451348423957825
145	0x3fe51d1440000000	0.6597996950149536
146	0xbf8aeb1560000000	-0.013143698684871197
147	0x3fe228f340000000	0.5674988031387329
148	0x3fe3f1aa20000000	0.6232500672340393
149	0xbf8b3626e0000000	-0.01328688021749258
150	0x3fe0f6f340000000	0.5301452875137329
151	0x3fe3fe9a20000000	0.6248293519020081
152	0xbf94791040000000	-0.019993070513010025
153	0x3fe04eae00000000	0.5096044540405273
154	0x3fe4040520000000	0.6254907250404358
155	0xbf976645c0000000	-0.02285107597708702
156	0x3fdf916cc0000000	0.4932510256767273
157	0x3fe40dfe60000000	0.6267082095146179
158	0xbf984819a0000000	-0.023712540045380592
159	0x3fe21db660000000	0.5661270022392273
160	0x3fe4e2ae40000000	0.6526709794998169
161	0xbf916ac6c0000000	-0.017008882015943527
162	0x3fe0c77c20000000	0.524351179599762
163	0x3fe4d04620000000	0.650424063205719
164	0xbf98227ec0000000	-0.02356908842921257
165	0x3fdfedcf40000000	0.4988897442817688
166	0x3fe4b3d720000000	0.6469531655311584
167	0xbf9ad966c0000000	-0.026219945400953293
168	0x3fdeacf200000000	0.4793057441711426
169	0x3fe4aec6a0000000	0.6463349461555481
170	0xbf9c27b560000000	-0.02749522589147091
171	0x3fe2283c40000000	0.5674115419387817
172	0x3fe5d9b480000000	0.6828253269195557
173	0xbf94443f60000000	-0.01979159377515316
174	0x3fe11614a0000000	0.5339453816413879
175	0x3fe5a48820000000	0.6763344407081604
176	0xbf9ba42ee0000000	-0.02699349634349346
177	0x3fe166c140000000	0.5437933206558228
178	0x3fe58467a0000000	0.6724126935005188
179	0xbf990104c0000000	-0.024417947977781296
180	0x3fe1cb35c0000000	0.5560559034347534
181	0x3fe5927160000000	0.6741263270378113
182	0xbf948879c0000000	-0.02005186304450035
183	0x3fe23dce20000000	0.5700445771217346
184	0x3fe6b73de0000000	0.7098683714866638
185	0xbf96f1d480000000	-0.022406883537769318
186	0x3fe153f3c0000000	0.541498064994812
187	0x3fe6632920000000	0.6996045708656311
188	0xbf998875e0000000	-0.024934617802500725
189	0x3fe18c48a0000000	0.5483744740486145
190	0x3fe6340540000000	0.6938501596450806
191	0xbf9344c600000000	-0.018817037343978882
192	0x3fe1e47e00000000	0.5591421127319336
193	0x3fe63a2e80000000	0.6946022510528564
194	0xbf8a960cc0000000	-0.012981509789824486
195	0x3fe3f3a540000000	0.6234918832778931
196	0x3fe5b26ca0000000	0.6780303120613098
197	0x3e8ab1cee0000000	1.9888999247541506e-07
198	0x3fe36ab7e0000000	0.6067771315574646
199	0x3fe47216e0000000	0.6389269232749939
200	0xbf5d25fbc0000000	-0.0017790754791349173
201	0x3fe276bd60000000	0.5769945979118347
202	0x3fe4035980000000	0.6254088878631592
203	0xbf74db5300000000	-0.005091976374387741
204	0x3fe1c49c60000000	0.555250346660614
205	0x3fe46e8ce0000000	0.6384949088096619
206	0xbf82217f00000000	-0.008852951228618622
207	0x3fe171bea0000000	0.5451348423957825
208	0x3fe51d1440000000	0.6597996950149536
209	0xbf8aeb1560000000	-0.013143698684871197
210	0x3fe228f340000000	0.5674988031387329
211	0x3fe3f1aa20000000	0.6232500672340393
212	0xbf8b3626e0000000	-0.01328688021749258
213	0x3fe0f6f340000000	0.5301452875137329
214	0x3fe3fe9a20000000	0.6248293519020081
215	0xbf94791040000000	-0.019993070513010025
216	0x3fe04eae00000000	0.5096044540405273
217	0x3fe4040520000000	0.6254907250404358
218	0xbf976645c0000000	-0.02285107597708702
219	0x3fdf916cc0000000	0.4932510256767273
220	0x3fe40dfe60000000	0.6267082095146179
221	0xbf984819a0000000	-0.023712540045380592
222	0x3fe21db660000000	0.5661270022392273
223	0x3fe4e2ae40000000	0.6526709794998169
224	0xbf916ac6c0000000	-0.017008882015943527
225	0x3fe0c77c20000000	0.524351179599762
226	0x3fe4d04620000000	0.650424063205719
227	0xbf98227ec0000000	-0.02356908842921257
228	0x3fdfedcf40000000	0.4988897442817688
229	0x3fe4b3d720000000	0.6469531655311584
230	0xbf9ad966c0000000	-0.026219945400953293
231	0x3fdeacf200000000	0.4793057441711426
232	0x3fe4aec6a0000000	0.6463349461555481
233	0xbf9c27b560000000	-0.02749522589147091
234	0x3fe2283c40000000	0.5674115419387817
235	0x3fe5d9b480000000	0.6828253269195557
236	0xbf94443f60000000	-0.01979159377515316
237	0x3fe11614a0000000	0.5339453816413879
238	0x3fe5a48820000000	0.6763344407081604
239	0xbf9ba42ee0000000	-0.02699349634349346
240	0x3fe166c140000000	0.5437933206558228
241	0x3fe58467a0000000	0.6724126935005188
242	0xbf990104c0000000	-0.024417947977781296
243	0x3fe1cb35c0000000	0.5560559034347534
244	0x3fe5927160000000	0.6741263270378113
245	0xbf948879c0000000	-0.02005186304450035
246	0x3fe23dce20000000	0.5700445771217346
247	0x3fe6b73de0000000	0.7098683714866638
248	0xbf96f1d480000000	-0.022406883537769318
249	0x3fe153f3c0000000	0.541498064994812
250	0x3fe6632920000000	0.6996045708656311
251	0xbf998875e0000000	-0.024934617802500725
252	0x3fe18c48a0000000	0.5483744740486145
253	0x3fe6340540000000	0.6938501596450806
254	0xbf9344c600000000	-0.018817037343978882
255	0x3fe1e47e00000000	0.5591421127319336
