files/processed_files/player/1/player_1_30.npy (npy, 2192 bytes, 1 tensors)

array f8 [258]
000000 00 00 00 20 6f 41 de 3f 00 00 00 a0 66 7a d0 3f
       0.47274377942085266 0.2574707567691803
000010 00 00 00 00 ae 46 eb bf 00 00 00 c0 8e ff ef 3f
       -0.8523778915405273 0.9999459981918335
000020 00 00 00 80 60 24 df 3f 00 00 00 20 a2 79 cc 3f
       0.4865952730178833 0.22246195375919342
000030 00 00 00 20 d7 e3 e9 bf 00 00 00 00 5a ff ef 3f
       -0.8090625405311584 0.9999208450317383
000040 00 00 00 e0 e2 a9 df 3f 00 00 00 80 82 7f cc 3f
       0.49474403262138367 0.22264128923416138
000050 00 00 00 80 40 e6 e9 bf 00 00 00 20 3d ff ef 3f
       -0.8093569278717041 0.9999070763587952
000060 00 00 00 00 7f 0d e0 3f 00 00 00 a0 20 8a cc 3f
       0.5016474723815918 0.2229653149843216
000070 00 00 00 c0 79 e6 e9 bf 00 00 00 80 3a ff ef 3f
       -0.8093842267990112 0.9999058246612549
000080 00 00 00 a0 aa 56 dd 3f 00 00 00 00 75 b6 cc 3f
       0.4584147036075592 0.22431814670562744
000090 00 00 00 60 67 b9 e9 bf 00 00 00 80 55 ff ef 3f
       -0.8038823008537292 0.9999186992645264
0000a0 00 00 00 60 d5 b8 dc 3f 00 00 00 e0 17 f2 cc 3f
       0.4487813413143158 0.22613810002803802
0000b0 00 00 00 60 02 ba e9 bf 00 00 00 a0 4c ff ef 3f
       -0.8039562106132507 0.9999144673347473
0000c0 00 00 00 c0 2c 2f dc 3f 00 00 00 a0 25 43 cd 3f
       0.4403793215751648 0.22861166298389435
0000d0 00 00 00 c0 9e bc e9 bf 00 00 00 c0 58 ff ef 3f
       -0.8042749166488647 0.9999202489852905
0000e0 00 00 00 00 be 6b e0 3f 00 00 00 60 12 7b ce 3f
       0.5131521224975586 0.2381308525800705
0000f0 00 00 00 c0 e3 d3 df bf 00 00 00 60 06 ff ef 3f
       -0.4973077178001404 0.9998809695243835
000100 00 00 00 c0 c1 4e db 3f 00 00 00 60 da 97 cf 3f
       0.4266819357872009 0.24682168662548065
000110 00 00 00 80 3c f1 dd bf 00 00 00 80 47 ff ef 3f
       -0.46784889698028564 0.9999120235443115
000120 00 00 00 80 2b 77 df 3f 00 00 00 a0 21 ec d2 3f
       0.4916485548019409 0.2956623136997223
000130 00 00 00 40 46 81 e7 bf 00 00 00 60 cc ff ef 3f
       -0.7345305681228638 0.9999753832817078
000140 00 00 00 40 e0 1b dd 3f 00 00 00 c0 61 03 d3 3f
       0.4548264145851135 0.2970814108848572
000150 00 00 00 a0 cf 3e e7 bf 00 00 00 40 d2 ff ef 3f
       -0.7264173626899719 0.9999781847000122
000160 00 00 00 60 cf 50 e3 3f 00 00 00 60 a3 50 dd 3f
       0.6036145091056824 0.4580467641353607
000170 00 00 00 00 2f d4 d4 bf 00 00 00 80 67 fe ef 3f
       -0.3254506587982178 0.999805212020874
000180 00 00 00 80 ff 72 d5 3f 00 00 00 60 d2 cd dd 3f
       0.33514392375946045 0.4656873643398285
000190 00 00 00 80 f3 99 c7 bf 00 00 00 60 07 fe ef 3f
       -0.18438571691513062 0.9997593760490417
0001a0 00 00 00 80 c3 05 e5 3f 00 00 00 a0 74 4c e7 3f
       0.6569535732269287 0.7280829548835754
0001b0 00 00 00 40 6e 05 d9 bf 00 00 00 e0 22 7c ef 3f
       -0.39095646142959595 0.9839033484458923
0001c0 00 00 00 00 e8 41 d1 3f 00 00 00 e0 34 0f e8 3f
       0.26964759826660156 0.75185626745224
0001d0 00 00 00 a0 e4 b2 cb bf 00 00 00 40 81 a5 ef 3f
       -0.21639688313007355 0.9889532327651978
0001e0 00 00 00 80 a3 66 e3 3f 00 00 00 80 1c a4 ea 3f
       0.6062791347503662 0.8325331211090088
0001f0 00 00 00 40 29 69 ec bf 00 00 00 e0 12 1b ef 3f
       -0.8878370523452759 0.9720548987388611
000200 00 00 00 00 1b 10 d4 3f 00 00 00 60 00 47 ea 3f
       0.31348299980163574 0.8211671710014343
000210 00 00 00 80 d3 04 e9 bf 00 00 00 40 bb f7 ee 3f
       -0.78183913230896 0.9677406549453735
000220 00 00 00 20 25 e3 e2 3f 00 00 00 20 8b d3 eb 3f
       0.5902276635169983 0.869573175907135
000230 00 00 00 00 7e 60 f0 bf 00 00 00 60 9a 9f ee 3f
       -1.0235576629638672 0.9569827914237976
000240 00 00 00 c0 a7 54 d5 3f 00 00 00 80 18 a7 eb 3f
       0.3332919478416443 0.864147424697876
000250 00 00 00 00 fe cc ec bf 00 00 00 c0 d2 2f ee 3f
       -0.9000234603881836 0.9433377981185913
000260 00 00 00 60 9b ae e2 3f 00 00 00 00 6a 9b ea 3f
       0.5838143229484558 0.8314714431762695
000270 00 00 00 80 c2 29 f1 bf 00 00 00 80 f1 bb ee 3f
       -1.072695255279541 0.960442304611206
000280 00 00 00 20 07 e9 d5 3f 00 00 00 00 a0 d3 ea 3f
       0.3423478901386261 0.8383331298828125
000290 00 00 00 80 53 79 ee bf 00 00 00 e0 a0 67 ee 3f
       -0.95231032371521 0.9501499533653259
0002a0 00 00 00 c0 58 b5 e2 3f 00 00 00 20 04 21 ea 3f
       0.5846370458602905 0.8165302872657776
0002b0 00 00 00 20 87 5c ed bf 00 00 00 00 fe 90 ee 3f
       -0.9175449013710022 0.9551992416381836
0002c0 00 00 00 00 c5 b7 d5 3f 00 00 00 00 3e 52 ea 3f
       0.339341402053833 0.8225393295288086
0002d0 00 00 00 a0 fc 11 ea bf 00 00 00 a0 ef 57 ee 3f
       -0.8146956562995911 0.9482343792915344
0002e0 00 00 00 20 a9 2a e1 3f 00 00 00 e0 da e5 ef 3f
       0.5364575982093811 0.9968084692955017
0002f0 00 00 00 60 b2 81 a7 bf 00 00 00 c0 00 e2 ed 3f
       -0.045911382883787155 0.9338382482528687
000300 00 00 00 c0 a2 95 d8 3f 00 00 00 e0 32 c3 ef 3f
       0.3841330409049988 0.9925779700279236
000310 00 00 00 00 34 4e a8 3f 00 00 00 00 7f b4 ed 3f
       0.04747164249420166 0.9282832145690918
000320 00 00 00 60 88 67 e1 3f 00 00 00 80 b1 1b f6 3f
       0.54388827085495 1.381761074066162
000330 00 00 00 20 fe d7 97 bf 00 00 00 40 7e b2 b0 3f
       -0.02328488416969776 0.0652235895395279
000340 00 00 00 00 a3 1e d8 3f 00 00 00 e0 ed 07 f6 3f
       0.37686991691589355 1.3769358396530151
000350 00 00 00 a0 92 18 c8 3f 00 00 00 60 50 40 9e 3f
       0.18824990093708038 0.029542213305830956
000360 00 00 00 40 2d 62 e1 3f 00 00 00 60 24 64 fb 3f
       0.5432344675064087 1.7119487524032593
000370 00 00 00 60 e0 59 e4 3f 00 00 00 e0 bb 05 67 3f
       0.6359712481498718 0.0028103513177484274
000380 00 00 00 a0 da dc d8 3f 00 00 00 a0 af 54 fb 3f
       0.3884798586368561 1.7081753015518188
000390 00 00 00 a0 2a e2 e7 3f 00 00 00 a0 5f 14 65 3f
       0.7463582158088684 0.0025731914211064577
0003a0 00 00 00 40 3e 78 e1 3f 00 00 00 e0 35 1f fc 3f
       0.5459281206130981 1.7576197385787964
0003b0 00 00 00 a0 cc d7 e5 3f 00 00 00 40 69 64 62 3f
       0.6825926899909973 0.002245145384222269
0003c0 00 00 00 a0 05 d0 d8 3f 00 00 00 20 ce 17 fc 3f
       0.38769665360450745 1.7558118104934692
0003d0 00 00 00 60 ab 54 e9 3f 00 00 00 a0 26 96 73 3f
       0.7915856242179871 0.004781866911798716
0003e0 00 00 00 60 5c d5 e0 3f 00 00 00 00 8b 43 fd 3f
       0.526045024394989 1.8289899826049805
0003f0 00 00 00 40 b4 f4 d4 3f 00 00 00 40 e7 a2 5b 3f
       0.32743555307388306 0.001686788396909833
000400 00 00 00 20 6a af da 3f 00 00 00 e0 fe 32 fd 3f
       0.41695645451545715 1.824950098991394
000410 00 00 00 c0 be 75 da 3f 00 00 00 e0 91 0c 78 3f
       0.4134365916252136 0.005871362518519163
000420 00 00 00 c0 0d c0 e2 3f 00 00 00 a0 e1 00 ec 3f
       0.5859440565109253 0.8751075863838196
000430 00 00 00 c0 8a b9 80 3e 00 00 00 e0 1c b3 e2 3f
       1.2460927223401086e-07 0.5843643546104431
000440 00 00 00 a0 fa 1d eb 3f 00 00 00 c0 b5 f2 7b bf
       0.8474095463752747 -0.006823263131082058
000450 00 00 00 c0 a7 8e e2 3f 00 00 00 60 96 4c ea 3f
       0.5799139738082886 0.8218490481376648
000460 00 00 00 e0 3a f5 8c bf 00 00 00 c0 fe 6f e2 3f
       -0.014139614067971706 0.5761712789535522
000470 00 00 00 60 40 b3 e9 3f 00 00 00 20 c8 48 95 bf
       0.8031312823295593 -0.02078545279800892
000480 00 00 00 60 e4 48 e2 3f 00 00 00 20 17 43 e9 3f
       0.5713979601860046 0.7894397377967834
000490 00 00 00 40 8d 89 9c bf 00 00 00 c0 54 0f e3 3f
       -0.027868468314409256 0.5956214666366577
0004a0 00 00 00 80 fa a8 ea 3f 00 00 00 c0 59 b4 94 bf
       0.8331272602081299 -0.020219232887029648
0004b0 00 00 00 40 cc a8 e2 3f 00 00 00 a0 3c 97 ea 3f
       0.583105206489563 0.8309615254402161
0004c0 00 00 00 c0 e0 52 9d bf 00 00 00 60 7d 46 e2 3f
       -0.028636466711759567 0.5711047053337097
0004d0 00 00 00 00 39 aa ea 3f 00 00 00 e0 76 59 a1 bf
       0.8332791328430176 -0.03388568386435509
0004e0 00 00 00 40 d1 f7 e1 3f 00 00 00 40 9e c1 ea 3f
       0.561501145362854 0.8361350297927856
0004f0 00 00 00 a0 05 00 a3 bf 00 00 00 e0 4f 25 e3 3f
       -0.03710954263806343 0.5983046889305115
000500 00 00 00 00 86 64 eb 3f 00 00 00 c0 6f 55 94 bf
       0.8560209274291992 -0.019857164472341537
000510 00 00 00 00 e1 9f e2 3f 00 00 00 e0 db 5c eb 3f
       0.5820164680480957 0.8550853133201599
000520 00 00 00 c0 f6 f1 99 bf 00 00 00 e0 f4 3b e2 3f
       -0.025337081402540207 0.569818913936615
000530 00 00 00 40 a0 6d eb 3f 00 00 00 00 90 70 9b bf
       0.857132077217102 -0.026796579360961914
000540 00 00 00 00 35 f1 e1 3f 00 00 00 00 e5 7e eb 3f
       0.5606942176818848 0.8592400550842285
000550 00 00 00 e0 a0 fc 9d bf 00 00 00 a0 dd 1d e3 3f
       -0.02928401343524456 0.5973957180976868
000560 00 00 00 40 b9 1b ec 3f 00 00 00 20 9d d0 93 bf
       0.8783842325210571 -0.019350485876202583
000570 00 00 00 00 ad a5 e2 3f 00 00 00 20 95 26 ec 3f
       0.5827240943908691 0.879709780216217
000580 00 00 00 40 23 ad 98 bf 00 00 00 a0 fc 4b e2 3f
       -0.024097967892885208 0.5717757344245911
000590 00 00 00 20 85 33 ec 3f 00 00 00 60 be d9 98 bf
       0.8812890648841858 -0.024268126115202904
0005a0 00 00 00 40 c8 0a e2 3f 00 00 00 c0 6b 40 ec 3f
       0.5638161897659302 0.8828638792037964
0005b0 00 00 00 60 bd b1 99 bf 00 00 00 40 25 08 e3 3f
       -0.02509208582341671 0.5947443246841431
0005c0 00 00 00 a0 05 be ec 3f 00 00 00 c0 8c da 93 bf
       0.8981960415840149 -0.019388388842344284
0005d0 00 00 00 e0 ea a2 e2 3f 00 00 00 e0 cf e6 ec 3f
       0.582387387752533 0.9031752943992615
0005e0 00 00 00 e0 ce 23 97 bf 00 00 00 a0 74 5f e2 3f
       -0.022597534582018852 0.5741522908210754
0005f0 00 00 00 40 e6 ea ec 3f 00 00 00 00 c6 a7 96 bf
       0.9036742448806763 -0.022124379873275757
000600 00 00 00 a0 f6 31 e2 3f 00 00 00 60 02 ef ec 3f
       0.5685990452766418 0.9041759371757507
000610 00 00 00 20 16 22 97 bf 00 00 00 c0 0d c0 e2 3f
       -0.022590966895222664 0.5859440565109253
000620 00 00 00 a0 e1 00 ec 3f 00 00 00 c0 8a b9 80 3e
       0.8751075863838196 1.2460927223401086e-07
000630 00 00 00 e0 1c b3 e2 3f 00 00 00 a0 fa 1d eb 3f
       0.5843643546104431 0.8474095463752747
000640 00 00 00 c0 b5 f2 7b bf 00 00 00 c0 a7 8e e2 3f
       -0.006823263131082058 0.5799139738082886
000650 00 00 00 60 96 4c ea 3f 00 00 00 e0 3a f5 8c bf
       0.8218490481376648 -0.014139614067971706
000660 00 00 00 c0 fe 6f e2 3f 00 00 00 60 40 b3 e9 3f
       0.5761712789535522 0.8031312823295593
000670 00 00 00 20 c8 48 95 bf 00 00 00 60 e4 48 e2 3f
       -0.02078545279800892 0.5713979601860046
000680 00 00 00 20 17 43 e9 3f 00 00 00 40 8d 89 9c bf
       0.7894397377967834 -0.027868468314409256
000690 00 00 00 c0 54 0f e3 3f 00 00 00 80 fa a8 ea 3f
       0.5956214666366577 0.8331272602081299
0006a0 00 00 00 c0 59 b4 94 bf 00 00 00 40 cc a8 e2 3f
       -0.020219232887029648 0.583105206489563
0006b0 00 00 00 a0 3c 97 ea 3f 00 00 00 c0 e0 52 9d bf
       0.8309615254402161 -0.028636466711759567
0006c0 00 00 00 60 7d 46 e2 3f 00 00 00 00 39 aa ea 3f
       0.5711047053337097 0.8332791328430176
0006d0 00 00 00 e0 76 59 a1 bf 00 00 00 40 d1 f7 e1 3f
       -0.03388568386435509 0.561501145362854
0006e0 00 00 00 40 9e c1 ea 3f 00 00 00 a0 05 00 a3 bf
       0.8361350297927856 -0.03710954263806343
0006f0 00 00 00 e0 4f 25 e3 3f 00 00 00 00 86 64 eb 3f
       0.5983046889305115 0.8560209274291992
000700 00 00 00 c0 6f 55 94 bf 00 00 00 00 e1 9f e2 3f
       -0.019857164472341537 0.5820164680480957
000710 00 00 00 e0 db 5c eb 3f 00 00 00 c0 f6 f1 99 bf
       0.8550853133201599 -0.025337081402540207
000720 00 00 00 e0 f4 3b e2 3f 00 00 00 40 a0 6d eb 3f
       0.569818913936615 0.857132077217102
000730 00 00 00 00 90 70 9b bf 00 00 00 00 35 f1 e1 3f
       -0.026796579360961914 0.5606942176818848
000740 00 00 00 00 e5 7e eb 3f 00 00 00 e0 a0 fc 9d bf
       0.8592400550842285 -0.02928401343524456
000750 00 00 00 a0 dd 1d e3 3f 00 00 00 40 b9 1b ec 3f
       0.5973957180976868 0.8783842325210571
000760 00 00 00 20 9d d0 93 bf 00 00 00 00 ad a5 e2 3f
       -0.019350485876202583 0.5827240943908691
000770 00 00 00 20 95 26 ec 3f 00 00 00 40 23 ad 98 bf
       0.879709780216217 -0.024097967892885208
000780 00 00 00 a0 fc 4b e2 3f 00 00 00 20 85 33 ec 3f
       0.5717757344245911 0.8812890648841858
000790 00 00 00 60 be d9 98 bf 00 00 00 40 c8 0a e2 3f
       -0.024268126115202904 0.5638161897659302
0007a0 00 00 00 c0 6b 40 ec 3f 00 00 00 60 bd b1 99 bf
       0.8828638792037964 -0.02509208582341671
0007b0 00 00 00 40 25 08 e3 3f 00 00 00 a0 05 be ec 3f
       0.5947443246841431 0.8981960415840149
0007c0 00 00 00 c0 8c da 93 bf 00 00 00 e0 ea a2 e2 3f
       -0.019388388842344284 0.582387387752533
0007d0 00 00 00 e0 cf e6 ec 3f 00 00 00 e0 ce 23 97 bf
       0.9031752943992615 -0.022597534582018852
0007e0 00 00 00 a0 74 5f e2 3f 00 00 00 40 e6 ea ec 3f
       0.5741522908210754 0.9036742448806763
0007f0 00 00 00 00 c6 a7 96 bf 00 00 00 a0 f6 31 e2 3f
       -0.022124379873275757 0.5685990452766418
